lightning_logs/version_51/checkpoints/epoch=9-step=410.ckpt (torch, 15411 bytes, 24 tensors)

encoder.layers.0.linear.weight f4 [12, 8]
00000000: e09e f1bd bd8e 95be f117 0e3d b9d8 b3bd
00000010: 9376 89be 4c9b e4be f31c 5f3e fdce 903e
00000020: 6cdb 603d 3a57 0b3f fb2a 8c3e 941a 823d
00000030: 7ee1 a0be 3213 ecbe 7001 9bbe 2157 b5be
00000040: 3d83 c33c 0158 97be 937c 49be afd0 12be
00000050: a24c 313f 8855 a63e ac7e 5c3e fa37 773e
00000060: 5c56 8fbe b6f4 c83e b38c 803e 7e40 97be
00000070: f8b0 9fbe bb8d 4bbe 1aef 2f3e 6b97 d7be
00000080: f412 c2bc f49b 1b3f 63cc d0bd 064c 0ebd
00000090: bcf4 6ab9 8518 0e3f 9375 6bbe 0e4b 92be
000000a0: c16e c7be 21f0 f13e 5246 e5be 7c85 b23d
000000b0: 91ef fbbc 94f7 24bf 442d 443e 315b 16be
000000c0: 908b 74be 6bc4 313e 2c89 e3be 0d57 a4be
000000d0: 4cbd 6bbe 0a81 aabd 5b17 b33d 167a 123f
000000e0: b25d 9dbe 6ffd a83e 6d36 9bbe f054 803d
000000f0: 0b1a 0b3f 4011 13be 3ad3 d13c ebff b5be
00000100: 664c d63e 568e e83e 3257 9e3e f1c4 f5be
00000110: 80d9 903c 3870 81bd c873 983e c82e 983e
00000120: 0618 17be 3646 f7be 6b7f dd3e e753 cf3c
00000130: 3542 0ebe e8fb 27be 4966 0e3e 669f 803e
00000140: 339d 9bbe e139 fc3e 7ce2 78bd 6c52 36be
00000150: f729 ddbe 8a88 1b3d e86b 2abe 7c58 733e
00000160: fd48 5dbe 58ca c23e 697a 7cbe fdc3 26be
00000170: 485a ff3b 2188 ba3e e2f7 b5bc f48d 8abd
-0.11797881 -0.29210463 0.0346908 -0.08781571 -0.26848277 -0.44649732 0.21788387 0.2828292
0.054896757 0.5442997 0.27376541 0.063527256 -0.31422037 -0.46108395 -0.30274534 -0.35418037
0.02386629 -0.2955933 -0.19676428 -0.14337419 0.6925756 0.3248713 0.21532696 0.24142447
-0.27995574 0.392492 0.25107345 -0.2954139 -0.31189704 -0.19878285 0.17181054 -0.4210771
-0.023690678 0.6078484 -0.10195234 -0.03474047 -0.0002240715 0.55506164 -0.2299407 -0.28572887
-0.38951686 0.47253516 -0.44780213 0.087168664 -0.030753883 -0.64440274 0.19157892 -0.14683224
-0.23881364 0.17360084 -0.4444059 -0.32097664 -0.2302143 -0.083253935 0.08744689 0.5721754
-0.30735546 0.33005854 -0.3031496 0.062662005 0.54336613 -0.14362049 0.025613416 -0.35546812
0.41855162 0.45421094 0.309259 -0.48001817 0.017681837 -0.06320232 0.29775834 0.2972319
-0.14755258 -0.48295754 0.43261275 0.025308562 -0.13892443 -0.16404688 0.13906206 0.2512161
-0.3039337 0.49262908 -0.060762867 -0.17804879 -0.4319608 0.03797201 -0.16642725 0.23764223
-0.21609874 0.38045 -0.24656071 -0.16285701 0.007792745 0.36431983 -0.022212926 -0.06765357

encoder.layers.0.linear.bias f4 [12]
00000000: bd10 d33e 93b3 1c3e 6a05 83bd ee03 a43d
00000010: 7912 073f 5a9f d53e 947f b13e 4c1e c4bd
00000020: bba0 453e 9589 643e 7a8f 903c e99b 0d3d
0.41223708 0.15302877 -0.06397517 0.08008562 0.5276256 0.41723138 0.34667647 -0.09576091
0.19299595 0.22318108 0.01764654 0.034572516

encoder.layers.2.linear.weight f4 [4, 12]
00000000: 9f50 193e 9515 a2be 590f 843e 1abc 93be
00000010: c9ad 90be 7c81 933e 9592 f93e dbdf 233e
00000020: 7c73 00be 98a2 1bbe e57d 8dbe ba90 3abe
00000030: 9dc2 d33e 1812 5a3e a73c c4be 56c7 793e
00000040: fb25 90be b7ec c5bd 9d0b e9bc 8285 dcbe
00000050: a343 423e e90e d73e c40a a23d 2d33 d3be
00000060: a62b a43d ac59 b33e e75e acbe bd24 553e
00000070: 8178 dfbd 313b 103f 404f 473e 4a9e c13e
00000080: 5b56 e6be d993 2abe 9bef 133e 77ab e33b
00000090: e2fd 41bc 90d5 b9be dd63 9dbd 8cb6 89be
000000a0: 97fc 9cbe fe4d 3dbe 7240 e5be 0a78 b73c
000000b0: d27d b1be 11a6 b5bc 4502 1fbf 9bed 35be
0.14972161 -0.3165709 0.2579296 -0.28854448 -0.28257588 0.28809726 0.48744646 0.16003363
-0.12544054 -0.15198743 -0.27635112 -0.18219271 0.41359416 0.21295965 -0.38327524 0.24392447
-0.28153977 -0.096642904 -0.02844792 -0.43070608 0.18971114 0.42003563 0.0791221 -0.41249982
0.08016138 0.35029352 -0.33666155 0.20814796 -0.10911656 0.5634032 0.19463825 0.37816077
-0.4498776 -0.16657962 0.14446871 0.0069479304 -0.011840316 -0.36295748 -0.07685063 -0.26897085
-0.3066146 -0.18486783 -0.4477573 0.022396106 -0.34666306 -0.022173913 -0.6211284 -0.1776642

encoder.layers.2.linear.bias f4 [4]
00000000: 1874 003e 6265 51bd 12f2 003e 82e4 37be
0.12544286 -0.051122077 0.12592342 -0.17958263

decoder.layers.0.linear.weight f4 [12, 4]
00000000: 37d0 d93d 382a 5abe 91f1 25bf def6 8ebd
00000010: 7aeb eabe 67df e13e ec17 2b3f b552 e5be
00000020: 99d4 103f c441 76be 52f3 acbd 95b2 1abf
00000030: c5bc 02bf 5062 133f d11f 1cbe 7d67 3ebd
00000040: afc7 cc3d 4d4d 48bc eea5 0a3f 1a23 143c
00000050: 6565 bd3e 7650 03bf 0d1c ae3e 5fce 8bbe
00000060: 0807 75be 7113 f4be 25e3 8bbb 5c89 81be
00000070: 000d a63e d363 7e3e e39a 403e ef5a e5be
00000080: 040d 17be 24dd 863e e0d6 56be 6c57 6b3e
00000090: f146 9bbe 7f62 d73e 7eff c1be 7634 ddbe
000000a0: d85a f1be 7f98 c9be ea88 debe 4ae1 0bbf
000000b0: e0f0 00bf b7a9 773e d872 25be 7d30 913d
0.10635417 -0.21305168 -0.64821726 -0.0698068 -0.4588278 0.44115755 0.66833377 -0.44789663
0.565744 -0.24048525 -0.08444847 -0.60428745 -0.5106929 0.5757189 -0.15246512 -0.046485413
0.09999024 -0.012225461 0.5415944 0.009041572 0.3699142 -0.5129465 0.34005776 -0.27305886
-0.23928463 -0.47671083 -0.004269021 -0.2530011 0.32431793 0.24842767 0.18809085 -0.4479594
-0.14751059 0.26340592 -0.20980406 0.22982568 -0.30327561 0.42067334 -0.37890238 -0.43204087
-0.4713962 -0.39374158 -0.43463832 -0.5464064 -0.50367546 0.24185835 -0.1615709 0.070893265

decoder.layers.0.linear.bias f4 [12]
00000000: d1d0 873e 8a97 0c3d 849a 50be 2d7e 53be
00000010: ac5d 133f 7071 fc3c dc64 b63e b9df 51be
00000020: f885 e8be 5778 9d3e 8faf 883d e552 dfbe
0.26526502 0.034324206 -0.20371443 -0.20653601 0.57564807 0.03081581 0.35623825 -0.204955
-0.4541471 0.30755875 0.0667411 -0.4361793

decoder.layers.2.linear.weight f4 [8, 12]
00000000: cbe9 ad3d 04da 6abe d503 bb3d bba5 583c
00000010: 24b0 363e 5b1f a9be 8209 1e3d 26a0 e0bd
00000020: 374f c13d f33a c03e dbb4 423c c68c dd3e
00000030: 000e ebbe 5e43 973d fcb7 11bd 3ccd ebbe
00000040: 3eb0 7d3d b37e cd3d ba9e 863e da0b 333d
00000050: c6cc 683e 1d8a 413e e5cc b93e 9eca 85be
00000060: 706d 9a3e e03c 373e 0ed5 00bf 02f2 853e
00000070: fa8c 15be ef54 c8be 202c 66be e24d 983d
00000080: 2976 1d3d 114b 553e 83c3 9d3e 7d53 873d
00000090: 0f44 c7be c142 bf3d ebba 0bbe 6cde 37bd
000000a0: d3b4 f3bd 1f74 173e ea60 4b3c 5ae7 d8bd
000000b0: bbd3 ea3c 4473 77be 71f2 f7bd c26a 24be
000000c0: 1b5e ae3e 550c f9be f374 1abe e9a0 c73c
000000d0: 584b 4f3e f8f2 d53e 5b6a e03d 185b 05be
000000e0: 3872 40be 375a b2bd de7a 7f3e 9776 cbbe
000000f0: 93f2 893c 4783 53be 7621 623e b46c 2cbe
00000100: 8696 21be 6606 19be 5701 a33e c433 0fbf
00000110: 4a41 77be ea32 a4bd ac80 e63e cdf5 f5bc
00000120: 46fa a73e b030 513d 84da 95bc 768b 80bd
00000130: b572 acbd 9289 013e 38d5 90be 8254 a13d
00000140: d288 d23d 21d3 3bbd 9334 ee3c 3530 943d
00000150: 3096 60bc b704 f7bd 709a ab3e bc76 a0bd
00000160: 68c8 e3bd ec10 4bbd db28 a6be ab7d e33d
00000170: 31a0 da3c 999d f63d 3980 a03c e198 0ebd
0.08491858 -0.22934729 0.0913159 0.013223107 0.1784063 -0.33031735 0.038583286 -0.10968046
0.09438937 0.37544975 0.01188394 0.43271464 -0.4590912 0.07385896 -0.03557585 -0.4605502
0.061935656 0.100339316 0.26292974 0.043712474 0.22734365 0.18900342 0.36289135 -0.26131147
0.3016162 0.17894316 -0.50325096 0.261612 -0.1460456 -0.391273 -0.2247777 0.0743673
0.038442764 0.20829417 0.30813226 0.06607721 -0.38919112 0.09338904 -0.13645522 -0.044889852
-0.11899724 0.1479039 0.012413243 -0.10591002 0.028665414 -0.24165064 -0.12106789 -0.1605635
0.34056172 -0.4864222 -0.15083675 0.02436872 0.20243585 0.41786933 0.10957786 -0.13023031
-0.18793571 -0.08708613 0.24949214 -0.39738914 0.016839301 -0.20655547 0.22083077 -0.16838342
-0.15780076 -0.14943847 0.3183696 -0.55938363 -0.24146 -0.080175236 0.45020044 -0.030024434
0.3280813 0.051071823 -0.018292673 -0.062766 -0.08420316 0.12650135 -0.28287673 0.07877447
0.10280003 -0.045855645 0.029077804 0.07235757 -0.0137076825 -0.12061446 0.33516264 -0.07835147
-0.11122209 -0.049576685 -0.32453045 0.11107954 0.026687713 0.12041778 0.019592391 -0.034813765

decoder.layers.2.linear.bias f4 [8]
00000000: 58e7 353d 531c 05bd dd92 343e 1cba 57be
00000010: f52e 973d fb53 e23d 2889 ec3d 67b2 0b3e
0.04441008 -0.032497715 0.17634149 -0.21067089 0.07382003 0.11051174 0.11549598 0.13642274

exp_avg f4 [12, 8]
00000000: ecaf faba a792 0f3b 1d62 af3a c76b cd3a
00000010: 2b17 663a 29f0 6cba 09f7 e539 dc4a 5cba
00000020: c626 123a 0b99 8eb9 35b5 673a 8b68 51bb
00000030: 04b5 573a 0709 eaba 256e e535 af0e a73a
00000040: 4e72 dc39 625f 273b a1f6 7f39 8736 5a3b
00000050: f2bb f3b9 42b4 9a3a c763 00ba 44f0 56ba
00000060: b468 363a 9a43 c8b9 f50f 683a 1dbd 4abb
00000070: 093b c138 f950 e7ba 4c36 a9b7 8515 583a
00000080: 22d0 343b 30c4 7ebb b7d3 27bb dd9b 5bb9
00000090: 0dea 99ba 12ea 783a 026e 9aba 53d1 4f39
000000a0: 8b24 5fbb ba29 41ba 4638 9e3b 7192 07ba
000000b0: 1ace 223b cb81 f3ba 2767 103b b1ab ac3a
000000c0: cfad 90bb 897b 3bba 862c a83b d683 c93b
000000d0: 54d8 3d3b fffd 333a 1625 8f3a 578f 3fbb
000000e0: f5d2 cfba 3d4f 0aba 0da6 193b 5234 aaba
000000f0: 073a e039 8d59 3fba a887 013b 00ae ef3a
00000100: 55a3 e43a f699 b438 622f 123a dc01 c83b
00000110: 5321 c6ba 5a10 ce3a 2bf9 f5ba d263 84bb
00000120: 36df 86ba a127 eb3a 16ea 5ab9 988c 2a3a
00000130: 0bf1 01b8 c522 49b9 80d6 7d39 07f9 cab9
00000140: a3d8 2c3a e702 4ebb 1f36 803a d486 33ba
00000150: 52db 8c39 7f6a b0ba 36da 1fba 7347 10ba
00000160: 151a e53a 62ef 65bb 603a e4ba 3356 c3ba
00000170: 191b 9fba 60ed 173a 9de5 94b9 431a b33a
-0.0019125915 0.002190748 0.001338068 0.0015672379 0.0008777256 -0.0009038472 0.0004386234 -0.0008403489
0.00055752357 -0.00027198376 0.00088389526 -0.0031953182 0.00082285726 -0.0017855474 1.7093886e-06 0.0012745465
0.00042046834 0.002553903 0.00024410571 0.003329666 -0.00046488602 0.0011802989 -0.00048976805 -0.00081992545
0.0006958351 -0.0003819734 0.00088524754 -0.0030935474 9.213953e-05 -0.0017648033 -2.0171654e-05 0.0008242953
0.0027589877 -0.003887426 -0.002560837 -0.00020943531 -0.0011742726 0.00094953284 -0.0011782052 0.00019819038
-0.003404888 -0.00073685835 0.0048284857 -0.0005171663 0.0024842084 -0.001857811 0.002203414 0.0013173727
-0.004415251 -0.0007151892 0.0051322607 0.0061497493 0.0028968053 0.00068661565 0.0010921087 -0.0029229724
-0.0015855717 -0.00052760897 0.0023444921 -0.0012985563 0.00042767843 -0.0007299416 0.0019764695 0.0018286109
0.0017443696 8.611746e-05 0.00055765186 0.0061037373 -0.0015116133 0.0015721426 -0.0018766274 -0.00404022
-0.0010289911 0.0017940887 -0.00020877304 0.00065059355 -3.0980485e-05 -0.00019181806 0.00024207868 -0.00038713982
0.00065935607 -0.0031434835 0.0009781754 -0.0006848399 0.00026866287 -0.0013459473 -0.00060978846 -0.0005503811
0.0017479087 -0.003508531 -0.0017412417 -0.0014903009 -0.0012138813 0.00057955645 -0.00028399835 0.0013664443

exp_avg_sq f4 [12, 8]
00000000: 8e23 aa35 4e20 dd35 9938 7a36 c18f 8935
00000010: 81b0 d635 c7a0 0b36 68b3 6434 dc5e 2734
00000020: 892f 2136 83bf 9b37 2724 3037 d558 5337
00000030: 077d 5f37 f870 6637 a21a 9534 36ed e734
00000040: 7f78 a833 0a31 0d35 d984 4a35 623b 9e35
00000050: 3615 a035 91dc 2435 0fed 9d33 9fde 0434
00000060: 1256 4936 1f3f 2f37 efd2 3437 8504 0637
00000070: 0041 5237 0b10 5d37 ac4d a434 8ac2 fe34
00000080: 281a 1b36 9e06 3337 1dab 3137 d33d e436
00000090: 4403 8b36 5b2f a336 024e 0035 4fa4 6334
000000a0: 7324 4836 80b1 8e36 8602 b637 0f78 a136
000000b0: 81de af36 4788 1037 e899 4935 3c6d d634
000000c0: 65a4 5c36 c59e 3837 246b dd37 5299 4337
000000d0: 78cc 5936 6691 1f37 8e34 fe34 5955 b835
000000e0: ebaa 4936 ea27 8f36 afe4 f537 b951 e536
000000f0: 5182 8137 9858 9436 d5f9 4c35 325d 3535
00000100: 8a1e 4f36 2b6a c736 0915 c037 2ada 2c37
00000110: c4eb ed37 a327 9737 9fe0 4035 1458 1736
00000120: 1821 ca34 7448 d435 964b c635 e856 7235
00000130: 48e4 0b36 ba64 f735 7e8d f433 e2a7 bb33
00000140: c43e d734 74d5 8736 0b2f e435 ae7b 8535
00000150: 3536 fa35 0e9f bb35 5230 1b34 599f 5234
00000160: 48d1 f635 cbf3 9f36 c62d 3637 2735 6036
00000170: 5e62 1337 a29d 6f36 49f7 d634 9b53 2f35
1.2676335e-06 1.6475185e-06 3.7285847e-06 1.0249133e-06 1.5995612e-06 2.0806199e-06 2.1299422e-07 1.5587597e-07
2.4018539e-06 1.856662e-05 1.0498835e-05 1.2597263e-05 1.3320946e-05 1.3735371e-05 2.777279e-07 4.3199697e-07
7.845028e-08 5.2597954e-07 7.544418e-07 1.17892e-06 1.1927102e-06 6.141573e-07 7.354003e-08 1.2374447e-07
3.0001434e-06 1.0445509e-05 1.0777948e-05 7.988075e-06 1.2532109e-05 1.3176362e-05 3.0603894e-07 4.7452733e-07
2.3112025e-06 1.0670772e-05 1.05898625e-05 6.802127e-06 4.142903e-06 4.8632915e-06 4.779723e-07 2.1200798e-07
2.9823539e-06 4.2525935e-06 2.1697266e-05 4.8121506e-06 5.2413093e-06 8.614798e-06 7.51023e-07 3.9940085e-07
3.2878245e-06 1.1004221e-05 2.6395144e-05 1.1658603e-05 3.2454536e-06 9.510992e-06 4.7349425e-07 1.3733908e-06
3.0050821e-06 4.2663787e-06 2.9312765e-05 6.8342456e-06 1.5438682e-05 4.4210574e-06 7.6359476e-07 6.756337e-07
3.086318e-06 5.9430217e-06 2.2897979e-05 1.0302794e-05 2.8362389e-05 1.801906e-05 7.185244e-07 2.2552022e-06
3.764951e-07 1.5816318e-06 1.4774148e-06 9.027849e-07 2.0845491e-06 1.8432249e-06 1.1387873e-07 8.738404e-08
4.009254e-07 4.0481627e-06 1.7001015e-06 9.945268e-07 1.8642228e-06 1.3978877e-06 1.4453079e-07 1.9615744e-07
1.8389337e-06 4.7669505e-06 1.0858703e-05 3.340954e-06 8.784786e-06 3.570553e-06 4.004053e-07 6.531424e-07

exp_avg f4 [12]
00000000: 7eef beba 8a0e 1bb8 663f 373a 7b74 cb37
00000010: 0252 5a3a 5a92 acba 675e 22bb 4804 a9b9
00000020: 248d 70ba a0b8 c5b9 81cd 76b9 30cc 453a
-0.0014567224 -3.696842e-05 0.0006990343 2.4253726e-05 0.000832826 -0.0013166175 -0.0024775506 -0.00032237382
-0.0009176305 -0.00037712324 -0.00023536944 0.000754538

exp_avg_sq f4 [12]
00000000: 828c 0836 14cb 9237 6831 c034 f4d7 2f37
00000010: 5890 a236 1191 8036 a7c4 1a37 7816 bb36
00000020: 7413 d136 e2e7 8335 c1c2 d335 b007 1d36
2.0347366e-06 1.7499122e-05 3.5798735e-07 1.0481093e-05 4.84478e-06 3.831585e-06 9.224902e-06 5.57565e-06
6.23095e-06 9.827747e-07 1.5777406e-06 2.3399298e-06

exp_avg f4 [4, 12]
00000000: 3b52 8abb 69dc 273b c3d1 13bb ee7b 163b
00000010: a0ae 723b 5f1e a33a 956b 18bc 82e1 983b
00000020: a477 c0bb 6b2a 1eba 5863 adba 8518 633a
00000030: 0056 d5ba 1472 c83b 0a23 233a 91fb a33b
00000040: 4442 de3a 524b 973b f979 0cbb 8eee 1f3b
00000050: 0a91 7c3a 597c f3ba fad2 253b 8af7 9439
00000060: 89c1 513b be0c c7ba 0362 c53a 83ee f43a
00000070: c023 09bc 08db 6239 c15a a83b 74aa 8eba
00000080: 859f e03b ef8e 8f3a c47f 9a3a 2079 19bb
00000090: 6f83 0f3b e403 26b9 228b 1b3b cb9c 353a
000000a0: 6ce7 a33a 8927 fa3a 378e dc3b a88c 8f3a
000000b0: acea ac3b f96c 3a3a 4934 8b3b 237d 4c3b
-0.0042212284 0.0025613552 -0.0022555448 0.0022962051 0.0037030354 0.0012444964 -0.009302993 0.0046655545
-0.0058736373 -0.00060335424 -0.0013228459 0.00086630165 -0.001627624 0.006117115 0.0006223178 0.0050043543
0.0016957005 0.004617133 -0.0021435006 0.0024403664 0.00096346496 -0.0018576487 0.0025302754 0.0002841319
0.0032006225 -0.0015186293 0.0015059117 0.0018686805 -0.00837034 0.00021634635 0.005137772 -0.0010884539
0.0068549537 0.0010952632 0.0011787345 -0.0023418143 0.002189841 -0.00015832443 0.0023734053 0.0006927966
0.0012504882 0.0019085269 0.0067308205 0.0010951953 0.0052769985 0.0007111575 0.0042481762 0.0031202517

exp_avg_sq f4 [4, 12]
00000000: 7bde 0c37 2bb6 1538 992b 8835 9e0f c137
00000010: 6aa8 d137 17ad 6937 12d8 7637 c7f7 3437
00000020: 5f19 9937 d3f5 0c36 2597 1336 9da8 7d36
00000030: 0c39 9537 6c52 7738 1811 4036 7cb6 1b38
00000040: 2d01 bd37 cc0e 1e38 086c 9137 03a2 4038
00000050: b9f5 ea37 47f2 9236 f8fc 8336 cf9f 1137
00000060: 8065 0a36 94ee 8536 ad4a 6636 93c4 8536
00000070: 414d 8537 6a7e d437 af3c bc36 5c9f bb36
00000080: 9138 a037 2eef 4635 9048 b535 7cee 8636
00000090: af3e d736 dc14 2b38 316c 0f36 a6d5 1138
000000a0: 1f19 2138 31b5 6b38 d041 0438 e94c 3e37
000000b0: bb61 6038 3af3 9835 2433 5f36 0259 4737
8.3964505e-06 3.5694025e-05 1.0145478e-06 2.3014665e-05 2.4993165e-05 1.3928183e-05 1.471305e-05 1.0786526e-05
1.8250836e-05 2.1004714e-06 2.1992685e-06 3.7798084e-06 1.7788749e-05 5.896615e-05 2.862018e-06 3.712483e-05
2.2531103e-05 3.7683916e-05 1.7335653e-05 4.5927252e-05 2.8009397e-05 4.379344e-06 3.9335537e-06 8.679882e-06
2.0622683e-06 3.991483e-06 3.4316138e-06 3.986593e-06 1.589081e-05 2.5331236e-05 5.609901e-06 5.591586e-06
1.9099827e-05 7.41088e-07 1.3506669e-06 4.0212744e-06 6.4147966e-06 4.0789004e-05 2.1371636e-06 3.476967e-05
3.8408787e-05 5.6197114e-05 3.1532545e-05 1.134279e-05 5.349678e-05 1.1395671e-06 3.3259357e-06 1.1882048e-05

exp_avg f4 [4]
00000000: 40ee 0dbb 1ceb 01bb 42b0 4fba ee44 02ba
-0.00216569 -0.0019823974 -0.0007922688 -0.0004969378

exp_avg_sq f4 [4]
00000000: 9528 7337 dd23 a637 ab00 5037 4b6e ce38
1.4493377e-05 1.9805442e-05 1.2397922e-05 9.843389e-05

exp_avg f4 [12, 4]
00000000: 2026 afbb ceba 15bb 12cd bc39 af6f 853b
00000010: 27f4 c43a 520b bd3b 7e7b 1e39 c4f3 9fba
00000020: 50ac d8bb 0e5d 8bbb 2975 953b ca5e 313b
00000030: 099f a2ba f7bf 37bb 9a17 bf39 bc11 f8ba
00000040: 5cd2 57ba 5758 abb7 4a93 69bb 016c 743b
00000050: 0a54 083b 4102 933a a343 e5ba 1fc9 3c3b
00000060: b42e de3b 790b 573b 23ca d7bb ff9d fa39
00000070: 1f21 41bb 757b 04ba aafb 9e3a 0dfd ae3b
00000080: 0000 0000 0000 0000 0000 0000 0000 0000
00000090: 3aa8 89ba 3e7b 97ba 3480 903a 8987 2c3b
000000a0: 2c46 233b 9e45 7e3a 3329 7cbb f46c ba3b
000000b0: 4a14 b7ba 0650 fab8 70c0 9e3a c1d2 53bb
-0.005345121 -0.002284694 0.00036010944 0.0040721516 0.0015026376 0.0057691718 0.00015114059 -0.0012203385
-0.006612338 -0.0042530363 0.0045610857 0.0027064555 -0.0012407015 -0.0028038004 0.00036447943 -0.0018926184
-0.0008232945 -2.0425925e-05 -0.003564077 0.003729582 0.0020802044 0.0011215882 -0.0017491471 0.00288064
0.00678047 0.0032813235 -0.006585376 0.00047801432 -0.0029469205 -0.0005053797 0.0012129445 0.0053402246
0.0 0.0 0.0 0.0 -0.0010502406 -0.0011557115 0.0011024536 0.0026325902
0.0024913652 0.0009699705 -0.0038476705 0.0056892578 -0.0013967839 -0.000119358345 0.0012111794 -0.0032321664

exp_avg_sq f4 [12, 4]
00000000: 8e6d 0b36 257d d536 bb2d fe34 3722 0537
00000010: ba45 3837 7138 4938 4ca8 d237 548b 4238
00000020: 35be 1237 964c 4a37 8d39 b737 7ff1 0738
00000030: 0048 1f36 0a1e 8f37 2f47 9036 77bf 5837
00000040: 84d7 2437 e0c0 9e37 1bbe b337 42d4 e937
00000050: 5a97 f537 d261 1038 c125 eb38 e330 ec37
00000060: 1881 0b38 98a6 a537 f917 8738 754b 8638
00000070: 245c b636 15aa 6c37 e192 0a38 ccf9 0b38
00000080: 0000 0000 0000 0000 0000 0000 0000 0000
00000090: 254b a136 027f d537 df0a 1e38 d3d0 8538
000000a0: dc67 7636 619c ee36 e504 df36 c4ac f937
000000b0: 057d a035 65d9 8336 deaf ab35 a249 c536
2.0776383e-06 6.3624634e-06 4.734446e-07 7.935384e-06 1.0983489e-05 4.79747e-05 2.511232e-05 4.6382964e-05
8.746564e-06 1.205797e-05 2.18421e-05 3.241142e-05 2.3734756e-06 1.7060916e-05 4.2998213e-06 1.2919182e-05
9.82534e-06 1.8924882e-05 2.1426988e-05 2.7874605e-05 2.9276755e-05 3.4423378e-05 0.000112127054 2.8156157e-05
3.326041e-05 1.9747109e-05 6.441767e-05 6.403673e-05 5.4347493e-06 1.41062965e-05 3.3038556e-05 3.3372824e-05
0.0 0.0 0.0 0.0 4.806922e-06 2.5450721e-05 3.768026e-05 6.380831e-05
3.671731e-06 7.1111576e-06 6.6464877e-06 2.9763563e-05 1.1957314e-06 3.9294123e-06 1.2791677e-06 5.8796295e-06

exp_avg f4 [12]
00000000: b4e9 67bb 546a 103a 8b6c 3b3b 6965 adba
00000010: 5c2f 23bb ef43 0abb 6e98 3f3b 7274 87bb
00000020: 0000 0000 afc3 c7b8 80a8 813a ed15 663a
-0.00353871 0.0005509008 0.0028598632 -0.0013229075 -0.0024900055 -0.002109762 0.0029235142 -0.0041337544
0.0 -9.525508e-05 0.0009892136 0.0008777071

exp_avg_sq f4 [12]
00000000: abba 6a36 4937 a837 a317 6a37 b4d6 6c36
00000010: cdbb 8538 0fe3 1139 149d 0739 0d7f ec37
00000020: 0000 0000 ab42 0139 ce35 1137 ee71 5e35
3.4977372e-06 2.0052905e-05 1.395299e-05 3.5291714e-06 6.376915e-05 0.00013912864 0.0001293312 2.8192555e-05
0.0 0.00012327234 8.655201e-06 8.2867234e-07

exp_avg f4 [8, 12]
00000000: 168e 0a3b a932 a3bb 6626 ceba d006 7fb9
00000010: 6e54 a8bb b396 93bb 67e0 1bbb 62cf 10bb
00000020: 0000 0000 edbe ecb9 3148 44b9 4f4f 62b9
00000030: c5ce 3a3b 6a3d 26bb 4c89 b03b eefb 6bba
00000040: b69a c03b 1aa6 5a3b bacc 48bb af9c 963b
00000050: 0000 0000 f1e6 1c3b 5a91 dcbb 8461 41b9
00000060: dab9 e73a 5d07 cd39 d7a6 ca3b 1407 78ba
00000070: c44c 0d3b 4d4f 953b d568 27b9 a5b9 8c3b
00000080: 0000 0000 4164 16ba 2d48 a5b9 cdaf 09ba
00000090: a3cb 3b3b 20b9 90bb 3087 163c 2179 7e3b
000000a0: 8a8e b4bb 385d 05bb e16a d7bb 3bba f23b
000000b0: 0000 0000 a7e1 053c 9dcb 06bb 41c0 1c3a
000000c0: 448c 3139 5780 06bc c596 9eb9 a9b0 93bb
000000d0: d3a0 88bb 693e 50ba 8ebf 74bb 99ec c8ba
000000e0: 0000 0000 a98a fcbb fb9c 53bb de9f 0db9
000000f0: e6c7 44ba 46b7 cc3b 16ff 623b d4c3 783b
00000100: 0b72 0d3c 0766 bf3b fb33 573b db34 853b
00000110: 0000 0000 a90c cd3b 7493 e039 e7d8 213a
00000120: e891 ed39 4273 3f3a 4374 b8ba 22f5 57ba
00000130: 0b38 113b 59de 453b d959 e539 1372 afba
00000140: 0000 0000 58c8 afbb 8b0a 2ebb a2ca 6139
00000150: eca9 e8ba d2cc ff3b c48f 8ebb a790 4237
00000160: bbf8 043c d0cb a83b be27 b63b 8b42 2fbb
00000170: 0000 0000 c62f 6bbb e76a cd38 07f8 9cb8
0.0021141819 -0.0049804044 -0.0015727996 -0.00024321233 -0.005137018 -0.0045040487 -0.0023784877 -0.0022096266
0.0 -0.00045155679 -0.0001871891 -0.00021582584 0.0028504592 -0.0025366195 0.005387461 -0.0009002079
0.005877818 0.0033363164 -0.0030639605 0.004596315 0.0 0.0023941363 -0.0067311944 -0.00018442242
0.001767929 0.00039106133 0.0061844396 -0.0009461504 0.0021560648 0.0045565725 -0.00015965414 0.0042945915
0.0 -0.0005736985 -0.00031525028 -0.00052523316 0.0028655312 -0.0044166 0.009187505 0.0038829523
-0.005510156 -0.0020349752 -0.0065740203 0.0074074543 0.0 0.0081714755 -0.002056814 0.0005979576
0.00016932288 -0.00820931 -0.0003024844 -0.0045071435 -0.0041695624 -0.000794387 -0.003734562 -0.0015329301
0.0 -0.0077069593 -0.0032289613 -0.00013506363 -0.0007506594 0.006247434 0.0034636906 0.003795852
0.008633147 0.00584102 0.003283738 0.0040651388 0.0 0.0062576127 0.0004283447 0.00061739836
0.0004531287 0.00073032465 -0.0014072735 -0.0008238127 0.0022158648 0.0030192344 0.00043745225 -0.0013385437
0.0 -0.005364459 -0.0026556577 0.00021533159 -0.0017750836 0.007806399 -0.0043506343 1.1596981e-05
0.008115943 0.0051512495 0.005558937 -0.0026742544 0.0 -0.003588663 9.795074e-05 -7.484858e-05

exp_avg_sq f4 [8, 12]
00000000: 9ec4 1835 b4cb 8e38 8870 8e37 66a0 b936
00000010: be5d 3438 1f51 1638 b18c c837 0b89 8a37
00000020: 0000 0000 351a 1638 916d 1437 3882 9c34
00000030: 2a45 d735 aaba e839 54c3 ac38 ccd3 ce37
00000040: f3ba c93a 5728 8339 cd12 8d39 9ba5 2a38
00000050: 0000 0000 1723 0d39 4bca 4a37 362d cf34
00000060: 9e9f 0535 f09a 7239 ee14 5838 bd67 0f37
00000070: 021a 2839 7da4 2239 bb5e b238 6dc6 8d38
00000080: 0000 0000 a081 2839 8b58 8537 b59a e034
00000090: 243d 2536 f19b 8039 d873 4038 b35e 1037
000000a0: c5a6 e939 49ff a738 84c0 b938 ab02 fc37
000000b0: 0000 0000 7a04 d038 8b52 cd37 ac0a e934
000000c0: 27ea 9635 a575 5e39 31cd 3f38 5c3f 6f37
000000d0: bd34 de38 8c22 dc38 f382 ba38 c2dc 7638
000000e0: 0000 0000 53f3 c338 a3e4 6337 14aa a634
000000f0: 2105 7335 078e 6439 57a2 2f38 88f4 8737
00000100: 66d7 9b39 7f84 ce38 bb2f b138 2635 2538
00000110: 0000 0000 99ab 8238 7467 db37 e96f 1635
00000120: 5737 3d35 27d1 aa38 8806 b837 8f50 d836
00000130: 4fb0 6238 02f4 1638 32c9 f137 1b7b 9c37
00000140: 0000 0000 78d3 1538 5ef8 7b37 1b37 ce34
00000150: cad5 3d35 22f0 9e38 f24a a737 bae1 aa36
00000160: c6ec 8538 79ae 0b38 775a d837 8e55 8537
00000170: 0000 0000 d469 0638 23a8 0d37 431c 8434
5.691053e-07 6.80903e-05 1.698012e-05 5.5321025e-06 4.300265e-05 3.5838337e-05 2.3907372e-05 1.6514698e-05
0.0 3.5787194e-05 8.846998e-06 2.915201e-07 1.6038878e-06 0.00044389564 8.237982e-05 2.465574e-05
0.0015390798 0.00025016323 0.00026907623 4.068539e-05 0.0 0.0001345988 1.2087238e-05 3.858965e-07
4.9778635e-07 0.00023136637 5.1517905e-05 8.547618e-06 0.00016031417 0.000155108 8.505346e-05 6.7603636e-05
0.0 0.00016070018 1.5896067e-05 4.1835816e-07 2.4622504e-06 0.00024530248 4.5884255e-05 8.605118e-06
0.00044565476 8.010731e-05 8.857346e-05 3.0041983e-05 0.0 9.919047e-05 2.4476341e-05 4.3407397e-07
1.1244018e-06 0.00021215396 4.5729048e-05 1.4260262e-05 0.00010595608 0.00010496852 8.893562e-05 5.8856567e-05
0.0 9.343647e-05 1.3583488e-05 3.1043658e-07 9.053202e-07 0.00021796684 4.1874442e-05 1.6207123e-05
0.00029724388 9.847525e-05 8.448908e-05 3.9388564e-05 0.0 6.2308456e-05 2.6155009e-05 5.6042205e-07
7.0488517e-07 8.145189e-05 2.193755e-05 6.44668e-06 5.40468e-05 3.5990037e-05 2.8823128e-05 1.8653975e-05
0.0 3.5721314e-05 1.5018593e-05 3.8410585e-07 7.071909e-07 7.578755e-05 1.994285e-05 5.092673e-06
6.386037e-05 3.3302673e-05 2.5791333e-05 1.5894675e-05 0.0 3.204665e-05 8.443402e-06 2.460748e-07

exp_avg f4 [8]
00000000: 8733 36bb da5a 093c 055a 70ba dd4f 7db7
00000010: 6567 d5bb 553a 0a3c 41bd 02bb 393a 233b
-0.0027801709 0.008383477 -0.00091686874 -1.509857e-05 -0.0065125697 0.008436759 -0.001994923 0.002490653

exp_avg_sq f4 [8]
00000000: b04e 3438 a08c 343b ae25 4839 daf5 5e3a
00000010: 1439 0839 3229 a939 94cd 2738 ea10 9738
4.2988628e-05 0.002754964 0.00019087523 0.00085052627 0.00012991234 0.00032264885 4.0007362e-05 7.2033916e-05
