lightning_logs/version_12/checkpoints/epoch=9-step=1610.ckpt (torch, 14835 bytes, 24 tensors)

encoder.layers.0.linear.weight f4 [12, 6]
0	0x3d2c2050	0.042023003
1	0xbe07090a	-0.13187042
2	0x3f1318c6	0.57459676
3	0xbe57a6d3	-0.21059732
4	0xbc3958fd	-0.01131272
5	0xbdd9e37e	-0.10639094
6	0x3e835c2f	0.25656268
7	0x3ed45eee	0.41478676
8	0xbdd7afe3	-0.105315946
9	0xbf376658	-0.7164054
10	0xbe7096cd	-0.23495026
11	0xbdb977db	-0.09056064
12	0x3e119503	0.14217
13	0x3c92af65	0.0179059
14	0x3e41aafb	0.1891288
15	0xbf274f6f	-0.6535558
16	0xbd509c58	-0.05093035
17	0xbe481e03	-0.19542699
18	0x3ec23a4a	0.37935096
19	0x3f0e4f0b	0.5558936
20	0x3f3c0748	0.7344861
21	0xbeb94eb9	-0.36192873
22	0x3e78be3a	0.24291316
23	0x3d9c0f47	0.076201014
24	0x3d09d6e5	0.033652205
25	0x3ed443be	0.41457933
26	0xbc99fb13	-0.01879648
27	0xbf41bc3c	-0.7567785
28	0x3f0aeed7	0.5427069
29	0x3ea6e14d	0.32593766
30	0xbea143f6	-0.31497163
31	0x3ec633df	0.3871145
32	0xbedcc7e3	-0.4312125
33	0xbdc51700	-0.096235275
34	0xbe9c2e8f	-0.3050427
35	0xbea66d15	-0.32505098
36	0xbdc8dad4	-0.09807363
37	0x3f776944	0.96645
38	0x3e351965	0.17685468
39	0x3da2c1cf	0.07947122
40	0xbe5c893d	-0.21536727
41	0xbd991d9f	-0.07476353
42	0x3e19089a	0.14944687
43	0xbd788faa	-0.060683884
44	0xbe372dcb	-0.17888562
45	0xbefe53bd	-0.49673262
46	0xbef208e4	-0.47272408
47	0xbe7959d5	-0.24350674
48	0x3ed02007	0.40649435
49	0x3f2d2d28	0.6764703
50	0xbbcafb10	-0.0061944798
51	0x3de90945	0.11378721
52	0x3dcba950	0.09944403
53	0xbeb919ee	-0.36152595
54	0x3d8ed28f	0.069737546
55	0xbdfde55c	-0.123972625
56	0x3cceb106	0.025230896
57	0x3ea95d93	0.33079204
58	0xbeaa9626	-0.3331768
59	0x3e1bd093	0.15216284
60	0x3c734fe7	0.014850593
61	0x3e89f3a4	0.26943696
62	0x3ce7d4c1	0.028299691
63	0xbf507fd8	-0.81445074
64	0xbe6655d4	-0.22493678
65	0x3ec51a0a	0.3849643
66	0x3e323d03	0.17406087
67	0xbe37f045	-0.1796275
68	0xbda8ebac	-0.08248076
69	0x3f0e372d	0.5555294
70	0x3e1f5b8a	0.15562263
71	0x3e412cde	0.18864772

encoder.layers.0.linear.bias f4 [12]
0	0x3f4ac4a7	0.7920632
1	0x3ea57951	0.3231912
2	0x3e8976bd	0.26848403
3	0x3ec86916	0.39142674
4	0x3ed674cf	0.41885993
5	0x3ed7acf2	0.42124134
6	0x3e6588a5	0.22415407
7	0x3f21755b	0.63069695
8	0x3f0507c2	0.5196496
9	0x3f3b3522	0.7312795
10	0x3ee59fb1	0.44848397
11	0x3e56a133	0.2095993

encoder.layers.2.linear.weight f4 [4, 12]
0	0x3eae8251	0.340838
1	0x3ef68468	0.48147893
2	0x3e021985	0.12705047
3	0x3f1d9205	0.61550933
4	0x3f320295	0.6953519
5	0xbefcc955	-0.49372354
6	0x3e438ba5	0.19096239
7	0xbdf1bfde	-0.11804174
8	0x3e65b1a7	0.2243105
9	0xbe561716	-0.20907244
10	0x3eed2909	0.4632037
11	0x3e16da3d	0.14731689
12	0xbf07c0c5	-0.5302852
13	0x3ecad368	0.39614415
14	0xbdcf8507	-0.10132795
15	0xbe3f62b4	-0.18689996
16	0x3eac89c5	0.3369886
17	0x3ef72bfc	0.48275745
18	0x3e962e9c	0.29332435
19	0xbe33318f	-0.17499374
20	0x3f04a843	0.51819247
21	0xbf326643	-0.6968729
22	0x3d92ba55	0.07164446
23	0xbc273e6d	-0.010207755
24	0x3f07fe3b	0.531223
25	0x3c109ccb	0.008826445
26	0xbe5bc3be	-0.21461388
27	0x3ebe7746	0.37200373
28	0xbd95438a	-0.07288273
29	0x3e922fbc	0.28552043
30	0x3eebf95e	0.4608869
31	0x3e1d6e7a	0.15374175
32	0x3f3744a9	0.7158914
33	0xbe5b99f4	-0.21445447
34	0xbe5088a6	-0.20364627
35	0xbd169ea7	-0.036772396
36	0x3eb8a591	0.36063817
37	0x3ec20567	0.37894747
38	0x3edf6537	0.43631908
39	0xbe11f31f	-0.142529
40	0xbe0e6b28	-0.13908064
41	0x3ed0b139	0.4076021
42	0xbcab19bd	-0.020886296
43	0x3e8ca7a6	0.27471656
44	0x3e16c03b	0.14721768
45	0xbcddb8ee	-0.02706572
46	0x3e5e88e3	0.21731906
47	0xbe8c6fbc	-0.27428997

encoder.layers.2.linear.bias f4 [4]
0	0x3c13cc06	0.009020811
1	0x3e8f6a97	0.2801101
2	0x3e384259	0.1799406
3	0xbe09902b	-0.13433902

decoder.layers.0.linear.weight f4 [12, 4]
0	0x3d94fbb2	0.072745696
1	0xbc9f67fc	-0.019458763
2	0x3f4ec616	0.80771005
3	0xbe8aebf7	-0.27133152
4	0xbdf88d36	-0.12136309
5	0x3f1dedc5	0.6169093
6	0x3f36f35c	0.71465087
7	0x3f06f7c2	0.527218
8	0x3ed5090c	0.41608465
9	0xbecf95f7	-0.40544102
10	0x3f25d62a	0.64779913
11	0x3ea6f2a0	0.32606983
12	0x3e32a975	0.17447455
13	0xbeb1da01	-0.34736636
14	0x3e807c39	0.25094774
15	0x3ed41d5c	0.4142865
16	0xbe87be66	-0.2651245
17	0xbe224ec8	-0.15850365
18	0x3c859a60	0.016308963
19	0xbee86396	-0.45388478
20	0xbf247544	-0.64241433
21	0xbe38bad4	-0.1804002
22	0x3ec1c9d8	0.37849307
23	0x3e697e8a	0.22802177
24	0x3e4cc8ce	0.19998476
25	0xbf111edb	-0.56687707
26	0xbe62a401	-0.22132875
27	0x3dbac9b6	0.091205046
28	0xbeefd1ee	-0.4683985
29	0xbe89bbfe	-0.2690124
30	0xbeb6b7f2	-0.35687214
31	0xbe5d1538	-0.21590126
32	0x3f53a708	0.82676744
33	0x3f119d80	0.5688095
34	0x3dc7f5e2	0.09763695
35	0x3db1b82b	0.086777054
36	0x3da71116	0.08157556
37	0xbe50f3bc	-0.20405477
38	0x3e1f273d	0.15542312
39	0x3f3990a6	0.7248634
40	0x3dace968	0.08442956
41	0x3d3ef406	0.046619438
42	0x3e856443	0.26053056
43	0x3f2bfc50	0.67181873
44	0xbe14962d	-0.14510413
45	0xbdf01d9f	-0.117244
46	0xbeab382c	-0.33441293
47	0x3d203c73	0.03912015

decoder.layers.0.linear.bias f4 [12]
0	0x3e607ceb	0.21922652
1	0xbc890239	-0.016724693
2	0xbedb37c0	-0.4281597
3	0xbdcf658a	-0.10126789
4	0xbe66a07c	-0.22522157
5	0x3e120f6a	0.14263692
6	0xbcf8373f	-0.03029978
7	0xbea2667c	-0.31718814
8	0x3f0953d7	0.53643554
9	0x3ec3ad02	0.38217932
10	0x3e6175db	0.22017615
11	0x3e91c2a7	0.2846882

decoder.layers.2.linear.weight f4 [6, 12]
0	0xbc7a246b	-0.015267472
1	0xbd7b285e	-0.061317794
2	0x3ebe0d26	0.37119406
3	0xbaf9cc5c	-0.0019058096
4	0xbcb5753e	-0.022150632
5	0xbdfa02d8	-0.12207574
6	0x3e3f0c50	0.1865704
7	0x3e246b40	0.16056538
8	0xbcf5d147	-0.030007018
9	0xbe128854	-0.14309818
10	0xbcc189bf	-0.023625253
11	0xbe84493b	-0.2583712
12	0x3e995b13	0.29952297
13	0x3e9bfec9	0.30467823
14	0xbd290781	-0.041266922
15	0xbca0e8d9	-0.01964228
16	0xbddd8eb6	-0.108182356
17	0xbeb8b340	-0.36074257
18	0x3d04e3c6	0.032443784
19	0xbe324cfd	-0.17412181
20	0x3da24cc3	0.079247974
21	0xbf134cb1	-0.57538897
22	0x3e5568ea	0.20840803
23	0xbe56242a	-0.20912233
24	0x3ebe2536	0.37137765
25	0xbea7dc2c	-0.32785165
26	0x3f258241	0.64651877
27	0x3ecb1b4e	0.3966927
28	0x3e27571e	0.16341826
29	0xbe2fd8ca	-0.17172542
30	0xbe006c21	-0.12541248
31	0x3ce6981e	0.028148707
32	0xbe71e5a9	-0.23622765
33	0xbda5c574	-0.08094302
34	0xbd07067f	-0.03296518
35	0x3d0edac6	0.034876607
36	0x3f473b6b	0.7782504
37	0x3dc069d3	0.09395184
38	0xbd92ca11	-0.07167447
39	0xbe625a59	-0.22104777
40	0xbe1f4e54	-0.15557224
41	0x3e0b1ddc	0.13585609
42	0x3e6f09f3	0.23343639
43	0xbe2b4e8f	-0.16729186
44	0xbe86f9a2	-0.2636233
45	0x3ca9349b	0.020654967
46	0xbedcc8f0	-0.43122053
47	0x3df79ff0	0.120910525
48	0x3e7e754d	0.24849434
49	0xbe8be94c	-0.2732643
50	0xbe3ba077	-0.18322931
51	0xbdd5e968	-0.10444909
52	0x3e8575ae	0.26066345
53	0x3d0cdcfe	0.034390442
54	0xbe8fd66c	-0.28093278
55	0x3e820897	0.2539718
56	0x3ef9ff4b	0.48827586
57	0xbee074aa	-0.43839008
58	0xbe9bf45d	-0.30459872
59	0xbe4efb64	-0.20213085
60	0x3deb62a4	0.114934236
61	0xbed5d41b	-0.41763386
62	0xbeb7e9f4	-0.3592068
63	0x3cee0369	0.02905436
64	0x3d001587	0.03127053
65	0xbec93205	-0.39295974
66	0x3ecb79fe	0.3974151
67	0x3d9e7841	0.0773778
68	0x3ee26f46	0.4422552
69	0xbd05dae4	-0.032679453
70	0xbe6d7632	-0.23189619
71	0xbe68a152	-0.22717789

decoder.layers.2.linear.bias f4 [6]
0	0xbe4420a8	-0.19153082
1	0xbd08a882	-0.033363827
2	0xbe9ae39d	-0.3025178
3	0x3df8dbfc	0.12151334
4	0x3e740d5f	0.23833226
5	0x3ef39338	0.47573256

exp_avg f4 [12, 6]
0	0xb954d06f	-0.00020295543
1	0xb9f64a1e	-0.00046975998
2	0xb923c817	-0.0001561943
3	0xb7e99561	-2.7845324e-05
4	0xb991b9a0	-0.00027794857
5	0xb9c6fb04	-0.00037952524
6	0x384aa030	4.830974e-05
7	0xb93c83c9	-0.00017978171
8	0x3842fda9	4.6489444e-05
9	0x3a11d33a	0.0005562786
10	0xb8f22686	-0.00011546635
11	0x37259165	9.868619e-06
12	0xb9212b9a	-0.000153704
13	0xb9370409	-0.00017453743
14	0xb9b3cd72	-0.0003429461
15	0xb95e3fe2	-0.00021195368
16	0x39e7a5ab	0.00044183186
17	0x39945888	0.0002829472
18	0xb91a8264	-0.00014735159
19	0x397f1cd9	0.00024329442
20	0xb9960be1	-0.0002861908
21	0xb8afee3d	-8.3890256e-05
22	0x3a05c51f	0.00051029207
23	0xb7ba7880	-2.222904e-05
24	0x3972df16	0.00023162024
25	0x38f6b8c2	0.00011764608
26	0x39adb9aa	0.00033135462
27	0x3a245b58	0.0006269715
28	0xb931bb99	-0.00016949921
29	0x3a425146	0.00074126234
30	0x384016d9	4.5797646e-05
31	0xb91bb56f	-0.00014849541
32	0x39936550	0.0002811351
33	0x39928791	0.00027948295
34	0xbab6a389	-0.0013934235
35	0xb90739dd	-0.00012896159
36	0xb80d23f7	-3.3650515e-05
37	0x38b20f28	8.4905245e-05
38	0xb832c356	-4.2620428e-05
39	0x39723c0a	0.00023101285
40	0xba024cb6	-0.0004970537
41	0xb8a41fb0	-7.826032e-05
42	0xb986c7e7	-0.0002570741
43	0x362e5831	2.5979355e-06
44	0xb9c76740	-0.00038033165
45	0xb93b2d45	-0.00017850574
46	0xb985a053	-0.00025487188
47	0xb930d9fe	-0.00016865876
48	0x379ea64b	1.8912504e-05
49	0x384cbde2	4.8814232e-05
50	0x38adf6bd	8.2952414e-05
51	0x3a4253ff	0.0007413029
52	0xba856b0b	-0.0010178996
53	0xb9ea77f7	-0.0004472134
54	0xb85f4b39	-5.32374e-05
55	0xb994eb05	-0.00028403863
56	0x38ba9e0c	8.89861e-05
57	0x38d82b72	0.00010307775
58	0xb96bc3e2	-0.00022484318
59	0xba3b8c9e	-0.00071544375
60	0x388e723c	6.7923655e-05
61	0xb8fa5a58	-0.00011937757
62	0x38cf7125	9.891604e-05
63	0x399662ec	0.00028683932
64	0x39f71abb	0.00047131427
65	0x38bf3d7d	9.119043e-05
66	0x386e2119	5.6774446e-05
67	0x39063585	0.00012799173
68	0x3899b254	7.328825e-05
69	0x38a95b9d	8.075612e-05
70	0xb9370012	-0.00017452266
71	0xb9bb1201	-0.00035680833

exp_avg_sq f4 [12, 6]
0	0x351fd7c4	5.9546096e-07
1	0x3707f9c1	8.104777e-06
2	0x36d62bd0	6.3827974e-06
3	0x37834227	1.5647222e-05
4	0x379ddd9a	1.881905e-05
5	0x3782a46a	1.5573769e-05
6	0x3407d082	1.264871e-07
7	0x3796d341	1.7979766e-05
8	0x3618c257	2.2762886e-06
9	0x37c1da7e	2.3109136e-05
10	0x374f9d91	1.2374848e-05
11	0x36e677d2	6.868483e-06
12	0x349ab058	2.8813042e-07
13	0x3678d1a9	3.7076918e-06
14	0x366cf14a	3.530719e-06
15	0x36b9be45	5.53558e-06
16	0x37381cb6	1.0973939e-05
17	0x3701495a	7.706078e-06
18	0x35179d2b	5.6480593e-07
19	0x361c322a	2.327501e-06
20	0x36b3d669	5.3595763e-06
21	0x36432379	2.9077912e-06
22	0x36bd4435	5.6405793e-06
23	0x36a0ec3a	4.795872e-06
24	0x348b2985	2.5920977e-07
25	0x36ea05f6	6.9744374e-06
26	0x35c6f45c	1.4823268e-06
27	0x370c11b7	8.348775e-06
28	0x3702f21e	7.804976e-06
29	0x370a2db0	8.236078e-06
30	0x352ab28b	6.358975e-07
31	0x36ed1230	7.0652677e-06
32	0x36beb3db	5.683379e-06
33	0x378e8b53	1.6992597e-05
34	0x378bd870	1.6670878e-05
35	0x374f3b6d	1.2351998e-05
36	0x33e9356c	1.08596254e-07
37	0x3675c930	3.6624951e-06
38	0x355e834a	8.2892495e-07
39	0x365d1667	3.2944606e-06
40	0x36377961	2.7339777e-06
41	0x35ca3be6	1.5067606e-06
42	0x348276ff	2.4300968e-07
43	0x368773b7	4.0367845e-06
44	0x3622db44	2.426751e-06
45	0x3631ca4c	2.6492808e-06
46	0x36a9ebdf	5.0640515e-06
47	0x36ad2d00	5.1610405e-06
48	0x34ff3bd9	4.7540996e-07
49	0x37e8d051	2.775356e-05
50	0x36d6c32e	6.400419e-06
51	0x38235f93	3.895124e-05
52	0x37df5931	2.6625205e-05
53	0x37882f4e	1.6234491e-05
54	0x338a6d29	6.445982e-08
55	0x357bbf10	9.378282e-07
56	0x35106fdd	5.380696e-07
57	0x3553550d	7.872739e-07
58	0x3610512f	2.1504927e-06
59	0x3646ba1a	2.9612625e-06
60	0x33cc8754	9.524106e-08
61	0x35f3ca41	1.8163774e-06
62	0x352ed11e	6.5124357e-07
63	0x368ad2bd	4.1372537e-06
64	0x35bc1872	1.4014206e-06
65	0x35eb4f89	1.7532012e-06
66	0x31cc762c	5.950616e-09
67	0x3320c78e	3.7434397e-08
68	0x33b89e20	8.5969305e-08
69	0x33e7f5b1	1.0801467e-07
70	0x34ed0313	4.4146927e-07
71	0x353f7f71	7.1338496e-07

exp_avg f4 [12]
0	0xb9d8b0f8	-0.00041330582
1	0xb9ed1880	-0.00045222417
2	0xb95f7b43	-0.00021312856
3	0x382de513	4.1459756e-05
4	0xb92a4f5e	-0.0001624203
5	0xba0d7ef2	-0.00053976395
6	0x36a58e80	4.9339724e-06
7	0xb8fc9e29	-0.00012045756
8	0xb9fa2c18	-0.00047716568
9	0xb9c9ecdc	-0.00038514182
10	0xb9c2de77	-0.00037168313
11	0xb83938b8	-4.416026e-05

exp_avg_sq f4 [12]
0	0x3745822b	1.1772422e-05
1	0x37a9b346	2.022985e-05
2	0x3658defc	3.2316302e-06
3	0x36732198	3.6229376e-06
4	0x37050d20	7.930474e-06
5	0x3720df2f	9.588707e-06
6	0x36171548	2.251314e-06
7	0x367417cd	3.6372687e-06
8	0x37f09e41	2.8683922e-05
9	0x35bea2eb	1.4203519e-06
10	0x35a5c45c	1.2350606e-06
11	0x34453989	1.8367986e-07

exp_avg f4 [4, 12]
0	0xb96b21f7	-0.00022424
1	0xb9bbbec7	-0.0003580956
2	0xb9a29fcc	-0.00031018106
3	0xb8473817	-4.7497535e-05
4	0x39733643	0.000231945
5	0xb92c29a0	-0.00016418705
6	0xb94ec0c5	-0.00019717503
7	0xba0e02b5	-0.00054172735
8	0x39027685	0.00012441918
9	0xb9791b40	-0.00023756642
10	0xba24439b	-0.00062661775
11	0xb904c5e9	-0.00012662228
12	0xb8c3b304	-9.331669e-05
13	0xba6a4e3e	-0.00089380506
14	0xba25a574	-0.0006318905
15	0xb9acddb3	-0.00032971575
16	0xbad46624	-0.0016204757
17	0xba678989	-0.0008832445
18	0xb8dc2c68	-0.00010498689
19	0xba047828	-0.0005053305
20	0xb9ad9f6f	-0.0003311592
21	0x399b0c65	0.00029573138
22	0xba8030cc	-0.0009780168
23	0x38e10caa	0.00010731195
24	0xb9177319	-0.0001444336
25	0x3a165fba	0.000573631
26	0x3845bae5	4.714252e-05
27	0xb9b4b155	-0.00034464398
28	0x388137bf	6.161583e-05
29	0x3a976f4c	0.0011553555
30	0x3a1bb344	0.00059394934
31	0x3a4d0d9e	0.00078221585
32	0x3963872e	0.00021698765
33	0x39e6284f	0.0004389905
34	0x3a5a7237	0.00083330594
35	0x38c09b80	9.1842376e-05
36	0xba17e72c	-0.000579464
37	0xb9309789	-0.00016841119
38	0xb973a624	-0.00023236178
39	0xba759e3d	-0.00093695876
40	0xb9b7ab5f	-0.0003503216
41	0x38cd2907	9.782804e-05
42	0xb98193ba	-0.00024714862
43	0xb9817958	-0.00024695206
44	0xb9ff4735	-0.00048690444
45	0xb953d6eb	-0.00020202591
46	0x39181185	0.00014502376
47	0x39525775	0.00020059741

exp_avg_sq f4 [4, 12]
0	0x36ac09fc	5.127162e-06
1	0x3810dfcc	3.4540702e-05
2	0x37838c88	1.5681857e-05
3	0x3729fedd	1.0132525e-05
4	0x37db8018	2.6166483e-05
5	0x3709391c	8.179133e-06
6	0x36f3cd9c	7.2659004e-06
7	0x37b0f2b8	2.109386e-05
8	0x378ee1fe	1.7032955e-05
9	0x355f5fc6	8.321334e-07
10	0x37dd4b69	2.6380369e-05
11	0x34212d27	1.501072e-07
12	0x371d1a0d	9.363995e-06
13	0x383325b1	4.271203e-05
14	0x3753c3a1	1.2622128e-05
15	0x372e6d19	1.03966095e-05
16	0x37d33b4e	2.5180776e-05
17	0x371aee89	9.234654e-06
18	0x375ac55a	1.3039762e-05
19	0x37eeb9ba	2.8458297e-05
20	0x37b9393c	2.208037e-05
21	0x359bf8cd	1.162081e-06
22	0x3802a040	3.114366e-05
23	0x33f2092a	1.127067e-07
24	0x373cba08	1.1248987e-05
25	0x387b241b	5.987669e-05
26	0x379e8e22	1.8901253e-05
27	0x377eaf36	1.5180374e-05
28	0x37c01450	2.2897642e-05
29	0x37466661	1.1825557e-05
30	0x376dd798	1.4176498e-05
31	0x382ec9d5	4.1672803e-05
32	0x37938621	1.7586224e-05
33	0x35931282	1.095774e-06
34	0x38035251	3.1309497e-05
35	0x33980bee	7.0802216e-08
36	0x375d5fa7	1.3194897e-05
37	0x38ed01ee	0.000113014
38	0x37991b35	1.825169e-05
39	0x38133fc4	3.5106917e-05
40	0x381e5e96	3.7758226e-05
41	0x37c65b2c	2.3645895e-05
42	0x37cbbf73	2.4288636e-05
43	0x38de9616	0.000106137406
44	0x37c90b6e	2.396639e-05
45	0x3680c93c	3.838124e-06
46	0x387d3285	6.036695e-05
47	0x3580f1c3	9.607105e-07

exp_avg f4 [4]
0	0xb6399852	-2.765581e-06
1	0xba26fe6d	-0.000637031
2	0x39f280e4	0.00046253868
3	0xb961f57b	-0.0002154912

exp_avg_sq f4 [4]
0	0x383ecf4f	4.54926e-05
1	0x3825b4b7	3.950737e-05
2	0x381df68d	3.7661335e-05
3	0x3864c1b5	5.453984e-05

exp_avg f4 [12, 4]
0	0x3a5b7967	0.00083722774
1	0x3a1df990	0.00060262624
2	0x3996be7e	0.00028752157
3	0x39bfd680	0.00036590174
4	0xbacc35be	-0.0015579981
5	0xb9d6fb27	-0.00041004384
6	0xba0d22f8	-0.0005383934
7	0xba75e0c3	-0.00093795004
8	0x39b8c706	0.000352435
9	0x3ab2cd1a	0.0013641447
10	0x3a81a4a1	0.0009890982
11	0x3a8ce000	0.001074791
12	0xb9d24e45	-0.00040112637
13	0x399e7db3	0.00030229762
14	0xb9f41131	-0.00046552115
15	0x392a7406	0.00016255685
16	0x00000000	0.0
17	0x00000000	0.0
18	0x00000000	0.0
19	0x00000000	0.0
20	0x3af17c3a	0.0018423863
21	0x38b3e3e2	8.5778316e-05
22	0x3aa0e8f7	0.001227646
23	0x3af9d555	0.001906077
24	0x3aeaba7c	0.001790836
25	0x3a55d576	0.00081571133
26	0x398eed35	0.00027261084
27	0xba060011	-0.0005111704
28	0x00000000	0.0
29	0x00000000	0.0
30	0x00000000	0.0
31	0x00000000	0.0
32	0x39b0b92d	0.00033707303
33	0xba3b9b52	-0.00071566284
34	0x39ff5457	0.00048700228
35	0x39003db4	0.00012230017
36	0xba4335d8	-0.0007446683
37	0xb9a9a5be	-0.0003235768
38	0xba692ae2	-0.00088946347
39	0xb87f533c	-6.0874256e-05
40	0xb976a634	-0.00023522304
41	0x3992e2c8	0.00028016255
42	0xba599a60	-0.0008300897
43	0xba346d6f	-0.0006882762
44	0xb78b1c42	-1.658325e-05
45	0xb80d9376	-3.3754353e-05
46	0xb7b388c1	-2.1402144e-05
47	0x380bba3a	3.331362e-05

exp_avg_sq f4 [12, 4]
0	0x37ed29c2	2.8272047e-05
1	0x378be39a	1.6676076e-05
2	0x38099245	3.279957e-05
3	0x37b933cf	2.2077844e-05
4	0x3863325d	5.4167922e-05
5	0x38154aaf	3.5593923e-05
6	0x37f56551	2.9253455e-05
7	0x3830f83d	4.219286e-05
8	0x3857dde9	5.1466664e-05
9	0x37b8eb9f	2.2044229e-05
10	0x380df017	3.384062e-05
11	0x38057715	3.1820575e-05
12	0x379006bc	1.7169274e-05
13	0x377e3617	1.5152174e-05
14	0x3757eee2	1.2870618e-05
15	0x37535650	1.2596676e-05
16	0x00000000	0.0
17	0x00000000	0.0
18	0x00000000	0.0
19	0x00000000	0.0
20	0x37b1d1a0	2.1197658e-05
21	0x37c17fc1	2.3066883e-05
22	0x37731864	1.4489608e-05
23	0x37f0c31c	2.8701084e-05
24	0x3697ae2b	4.5204265e-06
25	0x3473857a	2.2679697e-07
26	0x3504599b	4.9304225e-07
27	0x35660049	8.568209e-07
28	0x00000000	0.0
29	0x00000000	0.0
30	0x00000000	0.0
31	0x00000000	0.0
32	0x38a7b766	7.997341e-05
33	0x38059406	3.184753e-05
34	0x37ef4c34	2.8526505e-05
35	0x37d7df8c	2.5734094e-05
36	0x380267eb	3.1091196e-05
37	0x37652244	1.3657442e-05
38	0x37cf6993	2.4725485e-05
39	0x37cbe6ab	2.4306899e-05
40	0x38e2db86	0.00010817409
41	0x389b2532	7.397904e-05
42	0x379ee365	1.8940957e-05
43	0x38a31d53	7.777908e-05
44	0x382b73eb	4.0877534e-05
45	0x384785ea	4.7570014e-05
46	0x36781807	3.6968866e-06
47	0x38000664	3.052353e-05

exp_avg f4 [12]
0	0xb95a4f9d	-0.00020819758
1	0xba1397c7	-0.00056302216
2	0x3a98f8ac	0.001167079
3	0x381581c1	3.564521e-05
4	0x00000000	0.0
5	0x3a544311	0.0008097152
6	0xb943591f	-0.0001862985
7	0x00000000	0.0
8	0x388fe10d	6.86069e-05
9	0xba67f38e	-0.0008848243
10	0x39106d06	0.00013773525
11	0xb8261ad2	-3.9602462e-05

exp_avg_sq f4 [12]
0	0x3716fb65	8.999229e-06
1	0x3855b539	5.0951934e-05
2	0x376961a6	1.3910618e-05
3	0x3784dd98	1.5838814e-05
4	0x00000000	0.0
5	0x38aaa8bd	8.137662e-05
6	0x34ca6cd3	3.7704612e-07
7	0x00000000	0.0
8	0x383bfa99	4.481766e-05
9	0x37a8219f	2.0042817e-05
10	0x39be27f7	0.000362694
11	0x391ee8b7	0.00015154747

exp_avg f4 [6, 12]
0	0x3b72a7c2	0.003702626
1	0x3be98909	0.0071269316
2	0x3b73acf1	0.0037181939
3	0x3b03d275	0.0020114456
4	0x00000000	0.0
5	0xba0f81e8	-0.00054743746
6	0xb9b2f43b	-0.00034132772
7	0x00000000	0.0
8	0x3c29bce6	0.010359978
9	0x3b915928	0.004435677
10	0x3bacdeb7	0.005275573
11	0x383b2035	4.461427e-05
12	0xb93a4ebb	-0.00017767672
13	0xb92728cb	-0.00015941558
14	0xb9c57c7a	-0.0003766751
15	0xba0fa64b	-0.00054797967
16	0x00000000	0.0
17	0xb8e706a3	-0.000110161745
18	0xb8819955	-6.17976e-05
19	0x00000000	0.0
20	0x3b2f1ce8	0.002672011
21	0xba1f2817	-0.00060713425
22	0xb99bfa2d	-0.000297503
23	0xb830a761	-4.2117554e-05
24	0xba007566	-0.0004900306
25	0x39b39c4c	0.0003425799
26	0xba72c706	-0.0009261224
27	0xb9a86800	-0.00032120943
28	0x00000000	0.0
29	0x3964f4bd	0.00021834947
30	0x3809da7e	3.2866832e-05
31	0x00000000	0.0
32	0xba309a99	-0.0006736904
33	0x3902174f	0.00012406449
34	0x3907b0ca	0.00012940462
35	0x383dea35	4.5279234e-05
36	0x39324479	0.00017000911
37	0x3a4c9375	0.0007803955
38	0x3a79de88	0.0009531756
39	0x39bb6b68	0.00035747443
40	0x00000000	0.0
41	0x399f8be6	0.00030431076
42	0x37b5a763	2.1654827e-05
43	0x00000000	0.0
44	0x3aa47090	0.0012545753
45	0x394f186a	0.00019750153
46	0x39f28c40	0.0004626233
47	0xb82a1edd	-4.0559902e-05
48	0x3aadff29	0.0013274896
49	0xb9ca3c7d	-0.0003857351
50	0x39aa6a66	0.000325042
51	0x3a09f98a	0.00052633195
52	0x00000000	0.0
53	0x37e68cd7	2.748372e-05
54	0x399059b2	0.00027532649
55	0x00000000	0.0
56	0xbb7c08a7	-0.0038457306
57	0x39f2f914	0.00046343415
58	0xb91f600f	-0.00015199206
59	0x391f5cf8	0.00015198055
60	0xb9e2eed8	-0.00043284032
61	0x3aa641c7	0.0012684398
62	0x3ad93b68	0.001657349
63	0x3a35ae3d	0.00069305656
64	0x00000000	0.0
65	0x3a4438a1	0.0007485245
66	0xb904e5ac	-0.0001267406
67	0x00000000	0.0
68	0x3b9a296f	0.0047046463
69	0x3a648e70	0.00087187346
70	0x3ab53421	0.001382474
71	0xb93941c6	-0.00017667477

exp_avg_sq f4 [6, 12]
0	0x382aefef	4.0754614e-05
1	0x390bc0e1	0.00013327926
2	0x388bc593	6.6648376e-05
3	0x37a7d8ab	2.0008845e-05
4	0x00000000	0.0
5	0x36277e29	2.4958374e-06
6	0x32ef999f	2.789312e-08
7	0x00000000	0.0
8	0x3969feb1	0.00022315492
9	0x3865dcb1	5.480339e-05
10	0x38bd31cc	9.021498e-05
11	0x33e65f84	1.0727584e-07
12	0x38159c6e	3.5670055e-05
13	0x3a38ba70	0.00070468243
14	0x385476a4	5.065523e-05
15	0x3920942d	0.00015313989
16	0x00000000	0.0
17	0x376c50d3	1.40855145e-05
18	0x32416097	1.12560405e-08
19	0x00000000	0.0
20	0x3a9a3589	0.0011765222
21	0x38383c6f	4.39253e-05
22	0x3a720f6b	0.0009233865
23	0x39835b9a	0.00025054516
24	0x37b4aeb0	2.1539017e-05
25	0x3909f1ca	0.00013155412
26	0x3844ef1b	4.6952726e-05
27	0x37a6ebcd	1.9898545e-05
28	0x00000000	0.0
29	0x36e53220	6.830567e-06
30	0x3189b2b0	4.007539e-09
31	0x00000000	0.0
32	0x395d58c1	0.00021109266
33	0x3809448b	3.272718e-05
34	0x38c768cd	9.50858e-05
35	0x360ef6a9	2.1303224e-06
36	0x380f87bd	3.4220273e-05
37	0x39633d01	0.00021671133
38	0x382c6dba	4.1110186e-05
39	0x3806f2cb	3.2174208e-05
40	0x00000000	0.0
41	0x36e5bd4b	6.8467684e-06
42	0x318eeda8	4.1597623e-09
43	0x00000000	0.0
44	0x39daef68	0.00041758572
45	0x38193dcb	3.653559e-05
46	0x3998a9f5	0.00029118327
47	0x390bdec4	0.0001333906
48	0x38a93aaf	8.069479e-05
49	0x39b6954a	0.00034824974
50	0x392da619	0.00016560442
51	0x3882b008	6.2316714e-05
52	0x00000000	0.0
53	0x37203f8f	9.551542e-06
54	0x338b18ec	6.477225e-08
55	0x00000000	0.0
56	0x3a28de61	0.00064418284
57	0x391aab49	0.00014750393
58	0x3990fed9	0.00027655697
59	0x37aa0a5b	2.0270401e-05
60	0x38c5daca	9.434445e-05
61	0x39d9c8a7	0.00041538963
62	0x39471547	0.00018986045
63	0x388f9aa1	6.847573e-05
64	0x00000000	0.0
65	0x378add02	1.6553797e-05
66	0x33cac6d5	9.442525e-08
67	0x00000000	0.0
68	0x3a3d1b16	0.0007213814
69	0x394545bf	0.00018813366
70	0x39a31e21	0.0003111223
71	0x37122476	8.710767e-06

exp_avg f4 [6]
0	0x3b5addff	0.003339648
1	0x3964458f	0.00021769687
2	0x398d8f20	0.00027000252
3	0xba1004b1	-0.0005493863
4	0x3a25bc5e	0.00063223194
5	0xba12fc39	-0.0005607042

exp_avg_sq f4 [6]
0	0x37b5548b	2.161625e-05
1	0x3af6d396	0.0018831368
2	0x388cbc88	6.710837e-05
3	0x3a529da6	0.00080343557
4	0x396ab9e7	0.00022385233
5	0x3925c293	0.00015808111
