lightning_logs/version_14/checkpoints/epoch=9-step=200.ckpt (torch, 14835 bytes, 24 tensors)

encoder.layers.0.linear.weight f4 [12, 6]
000000 d5 4b 80 3e bd 58 0c be 62 22 c7 3e ba 13 01 3e
       0.25057855 -0.13705726 0.3889342 0.12605181
000010 73 4e 08 bf 30 6f e9 be ee 95 9d 3e df 9d 0a 3f
       -0.53244704 -0.45592642 0.3077845 0.5414714
000020 78 23 c7 be 0f f3 b4 be 7d 5a a4 3e 1c 60 78 3d
       -0.38894248 -0.3534169 0.32100287 0.060638532
000030 54 9d ae 3e f3 d8 f5 3e 88 75 9f 3e 01 39 90 be
       0.34104407 0.48017082 0.31144357 -0.2816849
000040 74 b7 f1 3e 90 23 ac 3d e2 28 90 be 31 b8 9b bd
       0.47210276 0.084052205 -0.2815619 -0.07603491
000050 5b 75 c6 3e cb b9 08 3e c4 99 51 be c6 8f 51 be
       0.3876141 0.13352124 -0.20468813 -0.20465001
000060 3d a6 b2 3d 48 89 b2 3e 28 06 6b 3d cc 19 a0 3c
       0.08723114 0.34870362 0.057378918 0.01954355
000070 08 2d 7f 3e 18 08 11 3e 09 76 0d 3f 9e 58 62 3e
       0.24919522 0.14163244 0.5525823 0.22104117
000080 cc c0 85 bd 12 7e a9 3d f0 0d d8 be 7d 72 c7 bd
       -0.06530914 0.08275999 -0.42198133 -0.09738634
000090 2b 9f 05 be b5 4e eb bd 15 65 17 bf 86 27 06 bf
       -0.13048999 -0.114896215 -0.59138614 -0.5240406
0000a0 5f 02 37 bd 09 c9 26 3e de f7 73 bc ec 80 9a be
       -0.044679996 0.16287626 -0.014890639 -0.30176485
0000b0 e8 0d a4 bd 78 e5 f4 3c 96 28 87 be f9 55 a1 3c
       -0.08010465 0.029894575 -0.26398152 0.019694315
0000c0 5c 69 bc 3e bc ba 31 be 1e 0c f9 3e cb 8d 20 be
       0.36799133 -0.1735639 0.48642057 -0.1567909
0000d0 7e 76 fc be e3 37 e4 be f4 c5 09 bc 24 0c 01 3f
       -0.49309152 -0.44573888 -0.008409012 0.5040915
0000e0 8f d5 35 3e c3 84 d2 be 59 7b c3 bd 59 09 8c 3e
       0.17757247 -0.41116914 -0.09545011 0.27350882
0000f0 52 b1 8c be 1c 31 c5 3d 8a 0a 66 bc ac cf 15 bf
       -0.27479035 0.096285075 -0.014040599 -0.5852001
000100 ef 3b 02 3f 1d ec 16 3e 52 08 67 3e a0 15 54 be
       0.508727 0.14738508 0.22561768 -0.20711374
000110 ad c0 ff bd 51 c2 50 3e 5d 9e 1d 3e a2 97 93 bd
       -0.12487922 0.20386626 0.15392442 -0.07206656

encoder.layers.0.linear.bias f4 [12]
000000 ac 1a 29 3d a0 9d 82 bd 8e 2a 86 bd f1 e5 b6 bb
       0.041285202 -0.06377721 -0.065510854 -0.0055816104
000010 f3 ff 01 3e 45 ff 8d 3d f8 f7 ce 3e 8c dd b3 be
       0.12695293 0.069334544 0.4042356 -0.35129964
000020 cc 15 f3 3e 0d 6c 09 3f f8 96 7a bb 8a fd 16 3e
       0.47477567 0.536805 -0.0038236957 0.14745155

encoder.layers.2.linear.weight f4 [4, 12]
000000 51 d5 1a bd a8 a1 a5 bd 6d 18 47 bc b3 d0 d9 bc
       -0.03780109 -0.08087474 -0.01215182 -0.026588773
000010 03 35 97 3e 03 e8 88 3e cc 40 43 be 87 e7 a3 3d
       0.29532632 0.2673951 -0.19067687 0.08003145
000020 dc fb 4f 3e 8b 7a 3b 3e b6 25 ec be fd 37 84 bd
       0.2031092 0.18308465 -0.4612252 -0.064559914
000030 38 8f ac be 82 fc e5 3e e6 96 ab 3e e1 bd ca be
       -0.33703017 0.4491921 0.33513564 -0.3959799
000040 65 03 ad 3e 14 fc b0 be 13 3a c2 3e 96 24 2a 3e
       0.33791652 -0.3456732 0.37934932 0.16615519
000050 b0 4b bd be e3 7a ba 3d e3 e3 1d 3e 46 b7 54 bd
       -0.36971807 0.0910547 0.15418963 -0.051932596
000060 75 5e 98 be 72 48 c0 be 36 38 df be 13 3a 12 3e
       -0.29759565 -0.3755527 -0.43597573 0.14279966
000070 d4 cd 82 bd 54 d8 f0 bd 7a 4b cb 3d 0e 51 71 3c
       -0.06386915 -0.11760011 0.099265054 0.014728798
000080 5d 0b 81 bd fe 39 db be 34 47 22 be 7b 50 45 bd
       -0.063009955 -0.42817682 -0.15847474 -0.048172455
000090 1f 64 35 bc 89 db a0 3e 5f 4e 6b 3e 13 d4 55 bd
       -0.011071234 0.31417492 0.22979115 -0.052204203
0000a0 e6 c5 a3 3e 8b 6c a6 3e a5 07 d9 be 2f e7 80 3e
       0.31986922 0.32504687 -0.42388645 0.2517638
0000b0 21 29 b8 3e a6 00 9b 3e 46 44 cd bd 86 f1 e5 bd
       0.3596888 0.30273932 -0.10022788 -0.112277076

encoder.layers.2.linear.bias f4 [4]
000000 ce b3 a9 3e 2b b6 e6 bd 3e 38 99 be 3f 8e 48 3e
       0.33144993 -0.112652145 -0.29925722 0.19585513

decoder.layers.0.linear.weight f4 [12, 4]
000000 ad 61 14 be 8d 24 12 bf 42 cb ac be 87 a9 23 be
       -0.14490385 -0.5708702 -0.33748823 -0.15982638
000010 c0 d6 a0 3d 2d 6b 2c 3f f0 2c 9f be 19 f1 15 3f
       0.0785346 0.6735104 -0.31088972 0.5857101
000020 e5 a3 c0 3e dc f5 e4 3d 8e 0f 6e 3e e0 d3 eb bd
       0.37625042 0.111797065 0.23248121 -0.11515021
000030 3b 3b a3 3e 0f 6a 8e 3e cb 1c 6c 3e 6a 08 df 3e
       0.31881127 0.2781529 0.23057859 0.43561107
000040 2b 16 b9 be 17 48 0c bf 97 54 99 bc 81 cc 19 bb
       -0.36149725 -0.547975 -0.018717093 -0.002346784
000050 28 fb f8 bd 20 e3 0e bd e6 d0 cc 3e d2 22 d2 be
       -0.12157279 -0.034884572 0.40003127 -0.4104219
000060 d9 dc 97 3e e4 04 a0 3e c0 78 b8 be 74 14 80 3e
       0.2966068 0.3125373 -0.36029625 0.25015604
000070 ec b3 dc 3e 71 9d 00 bf 07 03 e5 be 7c 32 1b 3f
       0.4310602 -0.50240237 -0.44728872 0.6062391
000080 0d da 67 3e 7b 84 14 bf 85 02 ad be 19 fd b0 be
       0.22641774 -0.5801465 -0.33790985 -0.34568098
000090 7a 9c ca 3e ac 13 7b be ce 0d 93 3e 76 91 df be
       0.39572507 -0.24519223 0.2872147 -0.43665665
0000a0 4c f2 59 3e d4 9b 26 3e 1c e8 a3 3e 40 88 1e bd
       0.21283835 0.16270381 0.32013023 -0.038704157
0000b0 6c 5f ae 3e ac 56 67 3e f4 e3 c7 3e 68 b3 e3 bd
       0.34057176 0.22591656 0.39041102 -0.111182034

decoder.layers.0.linear.bias f4 [12]
000000 cc 21 f6 3b 60 e1 18 3d c0 0b e1 3e cb 1e e9 3b
       0.007511353 0.03732431 0.43954277 0.0071142665
000010 e3 23 bc 3e 10 e7 91 be 28 84 22 3e bb 51 3b be
       0.3674613 -0.284966 0.15870726 -0.18292896
000020 ac a5 93 be 1c 94 7a be f4 a2 c6 be 4c 86 c2 be
       -0.28837335 -0.24470562 -0.38796198 -0.37993085

decoder.layers.2.linear.weight f4 [6, 12]
000000 fe ae a1 bd 6c 6f fe bd 13 5c 86 be 72 38 90 3e
       -0.07894705 -0.12423596 -0.26242122 0.28168064
000010 84 59 5e be 54 09 c9 bd 5d f7 b7 bd 8d 75 74 3e
       -0.21713835 -0.09816232 -0.08982728 0.23872967
000020 13 1e f9 bd bd 53 53 bc 4a d2 3c 3d 57 ed 93 bc
       -0.12163939 -0.012898383 0.046098985 -0.018057508
000030 15 65 90 bd 42 4e a9 3e 1d 35 4d 3d fa 20 86 3d
       -0.0705053 0.33067518 0.05009948 0.065492585
000040 6f 59 8d bd ac 09 81 b9 95 d2 75 3e 2d 39 4e 3e
       -0.06901824 -0.00024612003 0.24006112 0.20138998
000050 c2 46 b7 3e 87 37 4d 3e 4e 91 da bd a4 c7 10 3e
       0.3579617 0.20040713 -0.10672246 0.14138657
000060 e6 f5 83 3e ef cd a2 be 33 71 bd be b5 8b d6 3d
       0.25773543 -0.3179774 -0.37000427 0.10475866
000070 c2 93 00 be 5d 3e 65 be a3 ae e0 3d ba 1a bc 3e
       -0.12556365 -0.22387071 0.10970809 0.3673914
000080 03 6a 83 bd 79 76 89 be cc e1 87 be 97 bd 11 be
       -0.064167045 -0.268482 -0.26539457 -0.14232479
000090 fe 9f e9 bd e2 90 87 bc 90 ae d8 3d c7 70 1c 3e
       -0.11407469 -0.016548578 0.1058017 0.15277396
0000a0 01 0b 2c 3e 3b ab d8 bd e8 0a a9 be 76 55 77 3d
       0.16801073 -0.105795346 -0.33016133 0.060384236
0000b0 bd 50 7e bd 58 f9 0b be 16 43 b9 3d e8 fc 8c be
       -0.062088717 -0.13669336 0.09045999 -0.27536702
0000c0 df fe 40 be 47 d9 3a 3e 75 f5 5f 3b 7b f1 b0 3d
       -0.18847226 0.18246947 0.0034173403 0.08639809
0000d0 ea 67 ba bd 53 04 2b 3e 12 04 be 3d dd fd 5a be
       -0.09101851 0.16700868 0.0927812 -0.21385904
0000e0 c4 a5 d7 be 74 fc 3b bd 1a 98 ee bd 40 e5 60 be
       -0.42118657 -0.045895055 -0.11650105 -0.21962452
0000f0 39 59 fd bd ba b3 66 3e b9 e2 21 be 91 42 79 3e
       -0.123705335 0.22529498 -0.15809144 0.243418
000100 1e b7 9d be 21 42 e8 bb 18 c4 4d bc b6 4f 56 be
       -0.3080377 -0.0070879613 -0.012558959 -0.20928845
000110 4b 70 c3 bd 3d 20 6d be 96 f1 7f be ad d4 5c be
       -0.095429026 -0.23156829 -0.24994501 -0.21565504

decoder.layers.2.linear.bias f4 [6]
000000 fb 40 95 3c 1f 79 af 3c 42 46 a5 3d d5 cf 7c bc
       0.018219462 0.02142006 0.08070041 -0.01543041
000010 b5 ef 26 be cb b7 81 be
       -0.16302378 -0.25335535

exp_avg f4 [12, 6]
000000 9a 3f 30 3a 2f ee 6f bb 23 4f 02 3a 4f 0e 4c 38
       0.00067233446 -0.0036610474 0.0004970899 4.8650716e-05
000010 fc 12 07 ba 22 bf 02 3a 06 97 e5 3a 47 c5 1a bb
       -0.000515267 0.00049875875 0.0017516322 -0.0023616122
000020 2c 18 65 3b 88 ef 73 ba ce 0c a8 ba e9 6f f9 ba
       0.0034957035 -0.00093054073 -0.0012821199 -0.0019030544
000030 27 0c ab 3a 4e 7e 73 bb c2 2a c6 3a b1 22 bf b9
       0.0013049886 -0.003715414 0.0015118944 -0.00036456206
000040 03 34 04 39 64 50 b1 38 62 e8 03 3a 9b b7 1c bb
       0.00012607877 8.4549916e-05 0.0005031881 -0.0023913148
000050 3f db f9 39 5b 2d a0 b8 7e 60 1e b9 5a 89 04 3a
       0.00047656332 -7.637843e-05 -0.00015104 0.00050558674
000060 66 60 99 3a e7 76 c0 bb 73 d3 7b 3a 4d 43 57 bb
       0.0011701703 -0.0058735493 0.00096063985 -0.003284651
000070 60 f6 5e 3a 0c ef 59 3a 8f fa b7 b9 e0 05 9a bb
       0.00085053407 0.0008313514 -0.0003509116 -0.0047004074
000080 8c 0c 2f bb 72 b8 3a bb 0e 78 1a bb 73 e0 81 ba
       -0.002671036 -0.0028491286 -0.0023570093 -0.000990881
000090 6a b7 16 3a 24 7b 2b bb fb 00 1e 3b 56 d4 5f 3b
       0.0005749377 -0.0026165927 0.002410947 0.0034153662
0000a0 41 bc 92 39 37 ca 7d 3a 00 00 00 00 00 00 00 00
       0.0002798755 0.00096813164 0.0 0.0
0000b0 00 00 00 00 00 00 00 00 00 00 00 00 00 00 00 00
       0.0 0.0 0.0 0.0
0000c0 e8 9d 16 ba b1 b4 ba bb 3b c5 2c bb eb 9a 87 bb
       -0.0005745576 -0.0056978096 -0.0026362676 -0.0041383407
0000d0 2e 99 14 bb 8e 19 b9 ba 3b be 75 3a 09 54 8b bb
       -0.002267431 -0.0014121996 0.0009374355 -0.004251961
0000e0 63 4a 56 39 08 0b 39 bb f1 82 10 bb ff 9b da ba
       0.00020436342 -0.0028235335 -0.0022050703 -0.001667857
0000f0 b5 b5 83 b8 ed c3 9a b9 9e 2e 17 3a 83 06 3c 3b
       -6.280412e-05 -0.00029519145 0.00057671394 0.0028690405
000100 ea 58 3b b9 0a b2 cd 38 c7 29 40 b9 48 7b f4 38
       -0.00017866833 9.808324e-05 -0.0001832611 0.000116577896
000110 ae 0e 86 b9 4f b1 44 37 85 ce c6 38 91 76 aa 38
       -0.0002556941 1.1723793e-05 9.479843e-05 8.1283164e-05

exp_avg_sq f4 [12, 6]
000000 89 06 45 35 25 6a 85 37 f0 15 84 37 7d e7 b1 35
       7.339773e-07 1.5904263e-05 1.5745842e-05 1.32549e-06
000010 f9 da c0 37 d8 b2 9f 37 21 a7 fc 34 13 d0 96 38
       2.299015e-05 1.9037558e-05 4.706026e-07 7.191314e-05
000020 3c 0c 03 36 18 2b c8 35 a9 02 f4 35 77 9f 1c 35
       1.9527643e-06 1.4913703e-06 1.8180191e-06 5.834658e-07
000030 3e ef 4e 35 7d 1e 9b 38 60 75 9c 36 1a c0 1d 36
       7.7089123e-07 7.396655e-05 4.6628265e-06 2.350664e-06
000040 8d 70 49 36 c3 51 be 35 a6 06 f7 34 9b 54 0d 37
       3.0016847e-06 1.4179899e-06 4.6012173e-07 8.423954e-06
000050 ab b4 f4 36 42 77 20 35 40 c1 1f 37 76 12 fe 36
       7.292799e-06 5.977819e-07 9.522133e-06 7.571939e-06
000060 8d 84 17 35 af 85 6c 38 69 fa 31 36 9d ce e4 35
       5.644477e-07 5.6391287e-05 2.6520813e-06 1.7047456e-06
000070 11 40 82 35 b2 7c e0 34 5a f5 f6 35 a8 95 b1 37
       9.7044e-07 4.181398e-07 1.8399835e-06 2.1169733e-05
000080 43 7a 01 38 c3 79 0e 36 a5 f2 ad 37 9c dc 8e 37
       3.086986e-05 2.1230524e-06 2.0736197e-05 1.7030448e-05
000090 c2 f8 64 34 3d e3 1b 36 5b f0 e2 35 a2 60 18 36
       2.1324652e-07 2.322907e-06 1.6908265e-06 2.2706013e-06
0000a0 43 3e cd 34 fe 60 b2 33 00 00 00 00 00 00 00 00
       3.8229527e-07 8.306414e-08 0.0 0.0
0000b0 00 00 00 00 00 00 00 00 00 00 00 00 00 00 00 00
       0.0 0.0 0.0 0.0
0000c0 c6 8e 49 36 0b 0b 47 38 30 40 35 38 2a bc 27 36
       3.003444e-06 4.745558e-05 4.3213542e-05 2.4994465e-06
0000d0 b6 02 ea 37 9c e2 bb 37 83 ad 69 36 9b 51 b3 38
       2.7896236e-05 2.239766e-05 3.4820703e-06 8.550585e-05
0000e0 95 d5 1b 38 c6 86 93 36 9c ee 61 37 7c 96 3b 37
       3.7153794e-05 4.396631e-06 1.3466601e-05 1.1181106e-05
0000f0 60 cf 0e 33 88 b0 5d 34 23 a1 1c 34 e8 c4 3e 35
       3.3250558e-08 2.064645e-07 1.4587253e-07 7.106705e-07
000100 bb 10 05 33 a3 81 ed 31 7f 37 cf 31 47 93 7b 35
       3.0981692e-08 6.912346e-09 6.030802e-09 9.3719103e-07
000110 3e 28 3f 33 07 36 5d 33 39 ad c0 31 d5 c8 a6 31
       4.4507253e-08 5.150471e-08 5.6076286e-09 4.854068e-09

exp_avg f4 [12]
000000 6d 01 15 bb 8c cc 89 ba 72 1b 17 bb 0c 11 c0 ba
       -0.0022736446 -0.001051323 -0.002305713 -0.0014653518
000010 ea e8 32 bb 79 87 de ba d2 c1 93 bb 00 00 00 00
       -0.0027299472 -0.001697763 -0.004509189 0.0
000020 09 f8 c5 ba e8 91 9d ba d6 70 0c bb 0f 95 af 38
       -0.0015103827 -0.0012021633 -0.002142956 8.3724146e-05

exp_avg_sq f4 [12]
000000 5b a2 24 37 a0 bc 2c 38 a0 8b 39 38 39 b9 a0 36
       9.812963e-06 4.1183666e-05 4.4237473e-05 4.7899343e-06
000010 fa 78 e1 37 fc 36 3b 37 66 12 93 36 00 00 00 00
       2.6878424e-05 1.1158871e-05 4.3830833e-06 0.0
000020 1a 58 b2 37 99 b7 47 38 12 40 30 35 4f 77 d0 34
       2.1260279e-05 4.7616286e-05 6.5658344e-07 3.8829828e-07

exp_avg f4 [4, 12]
000000 59 9a c9 3a 4b 15 98 ba de 31 25 ba b0 68 c3 39
       0.0015381082 -0.0011603025 -0.0006301681 0.00037271297
000010 fa 2b 16 bb 32 3c 70 ba d5 d6 eb 3a 00 00 00 00
       -0.0022914396 -0.0009164243 0.0017993102 0.0
000020 68 45 4d 3b 35 b3 35 ba 3d 75 dd 3a 41 c3 47 38
       0.0031321887 -0.0006931306 0.0016895902 4.762714e-05
000030 b8 f9 e7 ba 21 b7 5c bb 46 85 3d 3b 6d 70 1d ba
       -0.0017698323 -0.003367849 0.0028918548 -0.00060058275
000040 05 27 8c 38 37 13 c8 b9 af 72 df bb 00 00 00 00
       6.682988e-05 -0.0003816129 -0.0068190913 0.0
000050 96 4c e2 3a 34 c2 0d ba 9a 3a 2c bb 35 1a 13 b7
       0.0017265256 -0.00054076617 -0.0026280046 -8.767985e-06
000060 64 e7 8c ba 3e 23 ff 3a 2b 16 c0 3a d5 73 a7 b9
       -0.0010750112 0.0019465459 0.0014655044 -0.00031939024
000070 09 90 9e 3a 37 c4 d1 b9 ce 11 f4 3a 00 00 00 00
       0.0012097369 -0.00040009778 0.0018621029 0.0
000080 46 09 bc b9 24 90 45 3b ad 5a 04 3b 6d 44 1c b8
       -0.00035865064 0.003014573 0.0020195649 -3.7257025e-05
000090 ac 3f 0d 3b a2 39 47 b8 68 29 7b bb ec ce eb 39
       0.0021552844 -4.7498972e-05 -0.003832424 0.00044976862
0000a0 9c 3d 6f bb 76 f8 1c ba 8c 49 95 3b 00 00 00 00
       -0.0036505228 -0.00059879513 0.0045558866 0.0
0000b0 34 f3 60 3b 9c 81 91 ba c2 5d 39 3b d7 7e 85 38
       0.0034324648 -0.0011101249 0.0028284644 6.36556e-05

exp_avg_sq f4 [4, 12]
000000 50 68 21 37 73 0b d2 35 59 a9 c8 37 db 47 ed 35
       9.620635e-06 1.5649551e-06 2.3920717e-05 1.7678789e-06
000010 af 3f 8b 36 97 29 46 36 d5 14 9e 35 00 00 00 00
       4.1499366e-06 2.9528508e-06 1.177798e-06 0.0
000020 3e ce 43 38 1f 62 50 38 d0 cc ec 34 a0 6b 4c 33
       4.66837e-05 4.9682447e-05 4.4107446e-07 4.7595336e-08
000030 f1 0e 02 39 62 96 1f 38 96 ff 09 37 92 bd 61 37
       0.00012403332 3.804861e-05 8.225345e-06 1.3455183e-05
000040 3a 88 80 37 c5 fe 8b 37 ee 1f 3c 37 00 00 00 00
       1.5322224e-05 1.6688728e-05 1.1213107e-05 0.0
000050 6e db 67 39 bc ab 4b 38 76 7e 38 36 45 21 a0 34
       0.0002211162 4.855891e-05 2.7491747e-06 2.982653e-07
000060 4b ed 1e 38 ba 49 e7 36 51 1d 17 38 1c 2b ad 36
       3.789113e-05 6.8929194e-06 3.602851e-05 5.1608204e-06
000070 0e 69 e8 36 45 27 18 37 68 14 81 35 00 00 00 00
       6.9263688e-06 9.069049e-06 9.617188e-07 0.0
000080 d6 a0 17 39 1a f3 08 39 d2 fc 0c 35 73 ce 66 33
       0.00014460398 0.00013060533 5.2521966e-07 5.3738813e-08
000090 50 8a 06 37 36 66 27 37 c1 a5 60 38 73 ec 39 36
       8.019226e-06 9.9777735e-06 5.3560132e-05 2.770478e-06
0000a0 5a 92 8c 37 af 56 b1 36 db 99 8e 36 00 00 00 00
       1.675745e-05 5.2851024e-06 4.249841e-06 0.0
0000b0 a5 07 4c 38 0b 8d f8 38 82 11 c1 35 62 3c 92 33
       4.864451e-05 0.00011851833 1.4384716e-06 6.8096384e-08

exp_avg f4 [4]
000000 09 e0 91 ba dc b7 f5 ba d8 57 f4 3a 73 7d f2 b8
       -0.001112939 -0.0018746811 0.0018641902 -0.00011562826

exp_avg_sq f4 [4]
000000 4d a1 4a 38 81 dc 3a 38 dc 50 fd 38 f5 8c e6 38
       4.8310776e-05 4.4551216e-05 0.00012079041 0.0001099351

exp_avg f4 [12, 4]
000000 ab d6 31 3a ae 2e 12 bb 7a b4 c8 39 4b eb 29 39
       0.0006784002 -0.0022305655 0.00038281438 0.0001620475
000010 4c 7c 80 bb cb c1 d0 ba 9b 3a c8 3b 02 65 8e bb
       -0.0039210673 -0.0015926895 0.006110502 -0.004345537
000020 98 ba cf bb c3 d0 df 3a d1 36 f4 3b 44 4e d2 bb
       -0.0063393824 0.0017075766 0.0074528237 -0.0064180214
000030 37 6a be b9 89 96 06 3a 0e 4c af bb 36 f8 8b 3a
       -0.0003631876 0.0005134126 -0.0053496426 0.0010678831
000040 a8 af 93 bb 5c 8d 73 3b 26 a5 a7 3b 23 86 b3 bb
       -0.004507024 0.0037163114 0.005116123 -0.005478637
000050 00 00 00 00 00 00 00 00 00 00 00 00 00 00 00 00
       0.0 0.0 0.0 0.0
000060 28 d6 8c 3b b7 ac a1 bb 9a 90 37 3b 33 0c 1a 3b
       0.0042979904 -0.0049339193 0.0028009773 0.0023505806
000070 af 8a 82 bb f5 89 45 ba 44 19 9b 3a cc 83 9a bb
       -0.0039838175 -0.0007535511 0.0011833091 -0.0047154184
000080 4b 7f 2b ba 28 26 28 3a 89 4d 6f b9 d3 27 24 b9
       -0.00065421005 0.0006414377 -0.000228217 -0.00015655094
000090 00 00 00 00 00 00 00 00 00 00 00 00 00 00 00 00
       0.0 0.0 0.0 0.0
0000a0 00 00 00 00 00 00 00 00 00 00 00 00 00 00 00 00
       0.0 0.0 0.0 0.0
0000b0 00 00 00 00 00 00 00 00 00 00 00 00 00 00 00 00
       0.0 0.0 0.0 0.0

exp_avg_sq f4 [12, 4]
000000 7d 6a 71 36 ed e2 f9 36 30 58 ab 37 f5 02 e6 36
       3.5973783e-06 7.447196e-06 2.0425854e-05 6.8548784e-06
000010 42 99 43 38 fc 61 35 38 ff 69 81 39 5c aa 00 39
       4.6634355e-05 4.3245018e-05 0.0002468377 0.00012270495
000020 43 b0 65 37 6f 8f c0 36 48 dd 4e 38 34 07 f8 37
       1.3690503e-05 5.7387438e-06 4.932031e-05 2.9567258e-05
000030 33 e3 29 37 ee 9f c7 36 f6 5c 5e 38 ff 65 c3 37
       1.0126084e-05 5.9492804e-06 5.30155e-05 2.3293307e-05
000040 b7 1e b0 37 62 bb f7 37 e6 a9 83 38 46 31 29 38
       2.0995138e-05 2.9531951e-05 6.278213e-05 4.033863e-05
000050 00 00 00 00 00 00 00 00 00 00 00 00 00 00 00 00
       0.0 0.0 0.0 0.0
000060 01 7f c9 37 3e e6 b6 37 3e 52 0a 39 c6 bd 90 38
       2.4020208e-05 2.1803306e-05 0.00013191343 6.901803e-05
000070 94 de 67 38 3b d0 db 38 25 0a d7 38 03 03 da 38
       5.5281984e-05 0.0001048152 0.000102538885 0.00010395611
000080 49 f6 82 37 07 ea fa 37 76 90 02 38 0a 2b f2 37
       1.5611893e-05 2.99113e-05 3.1128955e-05 2.886869e-05
000090 00 00 00 00 00 00 00 00 00 00 00 00 00 00 00 00
       0.0 0.0 0.0 0.0
0000a0 00 00 00 00 00 00 00 00 00 00 00 00 00 00 00 00
       0.0 0.0 0.0 0.0
0000b0 00 00 00 00 00 00 00 00 00 00 00 00 00 00 00 00
       0.0 0.0 0.0 0.0

exp_avg f4 [12]
000000 b7 ab 28 3a f3 71 00 bc 26 03 33 bc dd fe cb 3b
       0.0006434279 -0.007839668 -0.010926044 0.0062254504
000010 c8 bd c0 bb 00 00 00 00 86 5b bf ba 6f 27 3f 3a
       -0.0058819987 0.0 -0.001459942 0.0007291948
000020 3c dd ba ba 00 00 00 00 00 00 00 00 00 00 00 00
       -0.0014256607 0.0 0.0 0.0

exp_avg_sq f4 [12]
000000 03 d6 7a 38 74 26 b0 39 eb 22 a0 38 27 70 1c 39
       5.980396e-05 0.00033597986 7.6358985e-05 0.000149191
000010 bc cd 04 39 00 00 00 00 8b 16 5b 39 58 db 02 39
       0.00012665143 0.0 0.00020893865 0.00012479478
000020 a5 f5 a1 37 00 00 00 00 00 00 00 00 00 00 00 00
       1.9307083e-05 0.0 0.0 0.0

exp_avg f4 [6, 12]
000000 3d fb 81 3b ce 86 8e 3b 71 4b 75 3b 76 40 44 3b
       0.0039667175 0.004349566 0.0037429 0.0029945648
000010 86 78 73 3b 00 00 00 00 72 f8 ec 3b 94 fb 82 3c
       0.0037150695 0.0 0.0072317654 0.015989102
000020 c3 bc 2f 3b 00 00 00 00 00 00 00 00 00 00 00 00
       0.0026815392 0.0 0.0 0.0
000030 8b 76 10 39 49 1f d8 bb a4 52 c3 bb c7 06 16 bc
       0.00013777071 -0.0065955264 -0.0059607793 -0.009156889
000040 96 f8 f6 37 00 00 00 00 da 53 22 bc 47 2f b3 bc
       2.9441242e-05 0.0 -0.009907687 -0.02187313
000050 9f fe e5 3a 00 00 00 00 00 00 00 00 00 00 00 00
       0.0017547196 0.0 0.0 0.0
000060 98 b6 cf 3b a2 4a 53 3c 50 7d b3 3b 5e 80 96 39
       0.0063389055 0.012896212 0.005477585 0.0002870587
000070 fd 15 f1 3b 00 00 00 00 04 c1 36 3c 39 27 d6 3a
       0.0073573575 0.0 0.011154417 0.0016338594
000080 6b 6f d7 3b 00 00 00 00 00 00 00 00 00 00 00 00
       0.0065745614 0.0 0.0 0.0
000090 57 9b be 3a db 33 db 3b 10 89 c0 bb 8d 63 3b bc
       0.0014542144 0.0066895313 -0.005875714 -0.011437309
0000a0 ab ba 09 3b 00 00 00 00 a4 69 23 bb 66 e4 05 bd
       0.0021015804 0.0 -0.0024934793 -0.03268852
0000b0 92 75 6c 3b 00 00 00 00 00 00 00 00 00 00 00 00
       0.003608082 0.0 0.0 0.0
0000c0 39 3f ed ba 92 a7 d8 3a d6 b2 c4 39 63 56 27 3b
       -0.0018100507 0.0016529432 0.00037517276 0.0025533668
0000d0 e1 18 e6 ba 00 00 00 00 8b 31 a6 3a 76 d4 12 3b
       -0.0017555022 0.0 0.001267956 0.0022404469
0000e0 2e 83 bc ba 00 00 00 00 00 00 00 00 00 00 00 00
       -0.0014382356 0.0 0.0 0.0
0000f0 b1 78 81 3b 1e 40 ce 3a 7e b5 82 3b 1b 40 0f 3b
       0.003951155 0.0015735661 0.0039889207 0.0021858278
000100 4b 8b 99 3b 00 00 00 00 35 97 b4 3b 1a ea 5b 3c
       0.0046857945 0.0 0.0055111893 0.013422513
000110 c0 cd 2e 3b 00 00 00 00 00 00 00 00 00 00 00 00
       0.002667293 0.0 0.0 0.0

exp_avg_sq f4 [6, 12]
000000 25 56 ff 36 8f 44 43 37 d1 d0 35 36 2f 2c 77 36
       7.6096208e-06 1.1638868e-05 2.709265e-06 3.6831586e-06
000010 b3 28 15 37 00 00 00 00 6f c3 73 37 bd 2e f6 37
       8.890568e-06 0.0 1.4529432e-05 2.934725e-05
000020 b0 40 d0 35 00 00 00 00 00 00 00 00 00 00 00 00
       1.5516034e-06 0.0 0.0 0.0
000030 41 a7 f2 39 4f 34 b1 3a 03 f1 3c 39 6f 38 12 3a
       0.0004628245 0.0013519617 0.00018018861 0.0005577867
000040 64 83 1a 3a 00 00 00 00 13 68 31 3b e1 e6 3d 3b
       0.00058942125 0.0 0.002707009 0.0028976726
000050 bd ec 7d 37 00 00 00 00 00 00 00 00 00 00 00 00
       1.5135095e-05 0.0 0.0 0.0
000060 60 16 0d 38 23 6c 22 39 08 f8 4a 37 d4 2b f2 37
       3.3637858e-05 0.00015489808 1.20978875e-05 2.8869057e-05
000070 96 57 79 37 00 00 00 00 f9 fe aa 38 94 e6 e4 38
       1.4861949e-05 0.0 8.153724e-05 0.00010914836
000080 d0 29 53 37 00 00 00 00 00 00 00 00 00 00 00 00
       1.2586315e-05 0.0 0.0 0.0
000090 16 21 59 38 50 81 e7 38 6a c4 13 37 0c 56 14 38
       5.1767645e-05 0.00011039025 8.807614e-06 3.5366087e-05
0000a0 39 32 22 38 00 00 00 00 45 6a d7 38 65 9d b9 39
       3.8670583e-05 0.0 0.00010271793 0.00035403218
0000b0 84 58 01 38 00 00 00 00 00 00 00 00 00 00 00 00
       3.0838433e-05 0.0 0.0 0.0
0000c0 4d 00 9e 38 e7 f3 29 38 1d 2c 2c 36 f5 cc 09 37
       7.534083e-05 4.051989e-05 2.5655675e-06 8.213557e-06
0000d0 dc 2b 25 38 00 00 00 00 e5 70 a3 37 de 9b 6e 39
       3.9379913e-05 0.0 1.9483685e-05 0.00022755514
0000e0 d1 0f 9b 37 00 00 00 00 00 00 00 00 00 00 00 00
       1.8484805e-05 0.0 0.0 0.0
0000f0 72 53 10 39 ea 3b b9 37 e7 1b 0a 37 74 cd c4 36
       0.00013763996 2.2081618e-05 8.2319375e-06 5.865173e-06
000100 11 80 b8 38 00 00 00 00 10 41 ff 38 04 e3 22 3a
       8.797658e-05 0.0 0.000121714664 0.00062136375
000110 a1 d0 49 38 00 00 00 00 00 00 00 00 00 00 00 00
       4.8116435e-05 0.0 0.0 0.0

exp_avg f4 [6]
000000 93 b8 22 3c eb 35 fd bb 84 78 99 3c 1b cb dd 3a
       0.009931701 -0.007727375 0.018734224 0.0016921492
000010 cf 65 f3 ba e6 fc 22 3c
       -0.001856977 0.009947991

exp_avg_sq f4 [6]
000000 5f 02 a1 38 2b 1a 3a 3c f3 81 71 39 c7 98 f5 39
       7.67752e-05 0.011358778 0.00023031961 0.0004684387
000010 8e 82 a8 38 1a 4c 08 3a
       8.035182e-05 0.00051993283
