lightning_logs/version_45/checkpoints/epoch=9-step=70.ckpt (torch, 19379 bytes, 24 tensors)

encoder.layers.0.linear.weight f8 [12, 8]
-0.38269716581022695 0.3095789380132752 -0.33452327160382694 -0.14605591837024903 -0.03894652058136985 0.16653635090912158 0.2792028235810616 -0.1028829916465779
0.03554663674481848 -0.1829199004021156 -0.07928384652895708 0.006932966209401663 0.1718810919168746 -0.1156082125270082 0.31028971740055417 0.012140823301735415
0.1366249127968456 0.051706381779348685 -0.08053886188603328 0.28812548673330596 -0.35451161955236693 -0.29962965504528133 -0.14407597177855722 0.2067699801764965
-0.061046392805044696 0.3582010789327627 -0.3418313128643587 0.24896642213695871 -0.2287029588771837 0.24639456906578217 -0.009352870746171334 0.2147994632824315
0.017152140198142842 -0.11350635620011336 0.3112635859029662 0.08658222410456641 0.24904593560265764 -0.2493888982113944 -0.27469895041540693 0.3435894539681841
0.2115155990803485 0.1723059471489446 -0.21153889602009854 -0.2686602821434309 -0.3593980654400302 0.15630781532209198 0.38255265397194954 -0.13755688931428858
0.10605786730195166 0.2958395141690274 -0.3689456221172946 -0.18259756167466953 0.22325969806000845 -0.28124687189825437 -0.09716877111182293 0.06783830509628946
-0.1326632342011545 0.261047317766567 0.43125746196989223 -0.33945045699435056 0.036528404522477936 0.2822546773188948 0.2590387314531323 0.16745660024815004
-0.2687923406219639 0.09906462243702148 -0.06185027634209682 0.05932837227191073 -0.17137784927084468 0.026550159463089678 0.11235031053407685 -0.15195032436023595
-0.16468637727491872 -0.3118034902181443 -0.01649315161854209 0.11884375273362942 0.1918694891523834 0.10089477990556316 -0.207637713291964 -0.16898946299332188
-0.3101301820567797 0.2402522526909382 -0.11728846649917135 0.28567261205227584 -0.14361750831939246 0.19476944970951768 -0.024526074964997525 -0.39233800887167025
-0.0500959377680373 0.11809193023336094 -0.1358206843081743 -0.08051099413857575 0.39147621050508297 -0.009179265575050334 0.2256699455366166 -0.20440521214449553
00000000: ec50 db40 1c7e d8bf 1009 932d 24d0 d33f
00000010: e984 d24b d468 d5bf a9cb 64d8 f5b1 c2bf
00000020: 5444 6160 ccf0 a3bf 51fb 5f2a 1051 c53f
00000030: 2dd1 0e85 75de d13f 21cb 6f2c 8a56 babf
00000040: dc83 9a34 2b33 a23f 80e0 0157 eb69 c7bf
00000050: 6b65 f137 f24b b4bf 9271 23f2 bd65 7c3f
00000060: 33b8 4a1a 3300 c63f 34d8 f3f3 7f98 bdbf
00000070: 414f 2167 c9db d33f 5341 38b8 49dd 883f
00000080: c301 24d6 ec7c c13f eb3c 7945 4279 aa3f
00000090: f589 dbe1 319e b4bf ee78 aae1 a570 d23f
000000a0: dbe1 0181 51b0 d6bf 1d33 55dc 212d d3bf
000000b0: 43d3 76d9 1471 c2bf 1489 534f 7077 ca3f
000000c0: 07db 4509 7941 afbf cf1e da37 c4ec d63f
000000d0: 1513 6071 90e0 d5bf e7af 70b8 21de cf3f
000000e0: b31e 7078 2346 cdbf 9457 0674 db89 cf3f
000000f0: d102 d40f 9927 83bf e889 ff7e 8c7e cb3f
00000100: a768 d4a4 5490 913f 5582 c4a7 c00e bdbf
00000110: 2ce4 781a beeb d33f a1ad f1ac 402a b63f
00000120: ccbc 4eba bce0 cf3f 33d6 e6b4 f9eb cfbf
00000130: 94e6 11e8 aa94 d1bf 68ce 029f 5efd d53f
00000140: c66c 5272 f112 cb3f 5a9c f40b 1f0e c63f
00000150: 8f7f 1ee0 b413 cbbf 1f92 62e5 ba31 d1bf
00000160: d5e0 53be 6000 d7bf ae73 75fd e401 c43f
00000170: 89ae 7320 be7b d83f d5e0 78d2 769b c1bf
00000180: b09e 8bbf 9b26 bb3f b11c 8edb 08ef d23f
00000190: ffc0 3f19 ce9c d7bf 176c dc5d 5b5f c7bf
000001a0: 7c5e d716 c693 cc3f 80f0 39e1 f2ff d1bf
000001b0: 6c27 1e76 0de0 b8bf 74fc cde5 d95d b13f
000001c0: 2245 23de 1bfb c0bf ea04 21cf ffb4 d03f
000001d0: 0244 d4e5 b899 db3f 97ca d968 8eb9 d5bf
000001e0: cc23 99dd d9b3 a23f 6992 0eec 7510 d23f
000001f0: 1244 ff2f 1794 d03f d556 c8c6 376f c53f
00000200: 80be 18ca e433 d1bf 8dbe 8e91 4c5c b93f
00000210: ae96 46e4 d6aa afbf 67fa 43d5 4960 ae3f
00000220: a944 f098 b5ef c5bf 7be5 630a f72f 9b3f
00000230: 4076 706d fdc2 bc3f 0535 dfb4 1b73 c3bf
00000240: 070a 3f76 7114 c5bf 5bff 50a0 96f4 d3bf
00000250: d009 3dab 94e3 90bf 4d29 534f 8b6c be3f
00000260: 4a3e 81ee 2d8f c83f 2711 0884 3dd4 b93f
00000270: b8aa 0062 df93 cabf c563 765c 72a1 c5bf
00000280: e5ed 5b43 2cd9 d3bf 3c88 0cf8 95c0 ce3f
00000290: d0da cfef 9d06 bebf a727 88c7 7548 d23f
000002a0: b8b1 aefa 0e62 c2bf e392 6190 34ee c83f
000002b0: ede1 7e07 5d1d 99bf a238 45e1 101c d9bf
000002c0: 8b99 c0bc 2ca6 a9bf af17 46d2 453b be3f
000002d0: 5caa 9c7a 9262 c1bf 5f2b cb56 5e9c b4bf
000002e0: 8601 523c f20d d93f c1b1 912b 94cc 82bf
000002f0: 158b e2b5 c0e2 cc3f 4a72 a532 f329 cabf

encoder.layers.0.linear.bias f8 [12]
0.22480535353976513 -0.18524200349620693 -0.07320820133809654 0.15156628818537346 -0.15385866458536937 -0.07922526348172465 0.2955369961485429 0.2111367301796315
0.2505835191763541 0.27968564001518004 0.06300721261820713 -0.17155609948152162
00000000: 17a2 b5fc 6bc6 cc3f 0d4d 6e8d 02b6 c7bf
00000010: bdcd 8bce c5bd b2bf 4955 772d 8666 c33f
00000020: bdd9 4c06 a4b1 c3bf 08c6 ab5b 1b48 b4bf
00000030: 16d4 4d01 14ea d23f eb8d 8d43 8706 cb3f
00000040: 9fdb f174 8f09 d03f 6eaa 4199 5ee6 d13f
00000050: 3479 9b9d 3d21 b03f 24ea 59de 8cf5 c5bf

encoder.layers.2.linear.weight f8 [4, 12]
-0.20616106713098822 0.0905770125799619 0.15634922399327456 -0.17757610344967567 -0.0024946432717143537 -0.0756663059149329 -0.19973707594680454 0.25325779550498506
-0.29827913944101186 0.08831305960224302 -0.10280089649137819 -0.09401999750695729 -0.060490307035734193 -0.1077615844886538 -0.30245117350977174 -0.21561928889796517
-0.20183160116659227 0.06307762189161976 0.038022951293213925 0.2788620132434034 0.10518018578428424 0.18871565856428402 0.08787210702947529 0.33079414661325146
0.1621107055735743 -0.18906957586592266 -0.2784653699586645 0.12793919988879454 -0.01330302072828506 0.1521758501957297 -0.06258225432562604 0.3566475058926481
0.21859615654325124 0.004210553480633011 -0.2369655597861628 -0.16676281437959034 0.12599499020534285 -0.018637461988056558 0.18805765010414274 -0.2928881149334572
0.28215135612654396 0.20359585536641603 -0.2288370542971598 -0.2440422725522695 -0.06666532920504588 0.14420565520129827 -0.1181150874571324 -0.05968707052247468
00000000: 739d 8460 7c63 cabf 92e1 cc1a 0e30 b73f
00000010: 0c2e e759 4003 c43f 4009 6f52 d0ba c6bf
00000020: 28e6 8c68 a56f 64bf 1c53 50f5 dd5e b3bf
00000030: abbe 7e08 fc90 c9bf 70a9 492f 6035 d03f
00000040: 559a 3e63 0117 d3bf 2124 cd46 af9b b63f
00000050: 3c11 6ed8 2851 babf bd5e 76ce b111 b8bf
00000060: 6d0f e3e4 95f8 aebf 38d7 2461 4396 bbbf
00000070: 651f b72a 5c5b d3bf 7a0d 1ab1 6999 cbbf
00000080: 7ca8 272f 9ed5 c9bf 3d4b 22e3 da25 b03f
00000090: 987f 9a88 be77 a33f 6789 be0e e0d8 d13f
000000a0: e175 21b2 16ed ba3f fa6a e3ae d527 c83f
000000b0: d415 ec51 c97e b63f 9260 5a36 bb2b d53f
000000c0: eb8e 6229 0bc0 c43f 18a1 818e 6e33 c8bf
000000d0: d39f 426a 60d2 d1bf 340b b3cb 4f60 c03f
000000e0: 4a5b ba37 9d3e 8bbf a673 ea8d 7f7a c33f
000000f0: f175 a3ff 6305 b0bf ab91 800f 50d3 d63f
00000100: 4739 b177 f5fa cb3f 6042 f5d7 153f 713f
00000110: deaa c730 e354 cebf 5281 f9e0 7b58 c5bf
00000120: 1b26 3295 9a20 c03f d367 e0e6 b215 93bf
00000130: 23de 7ae8 4512 c83f b3ae c1ca adbe d2bf
00000140: be79 c58f c40e d23f 0530 33d2 6d0f ca3f
00000150: 17de 2858 884a cdbf d00c baf5 c63c cfbf
00000160: 8176 b6a0 fa10 b1bf 2971 7eb6 5475 c23f
00000170: 70e5 ca55 ca3c bebf b0b1 c6bf 4d8f aebf

encoder.layers.2.linear.bias f8 [4]
0.11118253815596874 0.2129495934893019 -0.06735157478117046 -0.0035314381092682815
00000000: ec22 4475 7576 bc3f 75d4 dda9 ee41 cb3f
00000010: f6eb 04eb f33d b1bf 342d fd65 f6ed 6cbf

decoder.layers.0.linear.weight f8 [12, 4]
-0.35778719315708046 -0.2725472531391751 -0.38972833313300864 -0.2617088464100316 0.14811636368502418 -0.34587348032784443 -0.35668275393700793 0.13186623456856764
0.22007118152790245 -0.06630398084009954 0.25252501418599554 0.33204928295436786 -0.0020422213399841353 -0.5435461738232977 -0.4113721837193436 0.5128197673197835
-0.1880890050180942 0.42381899106733517 -0.23436847572425332 0.4427683576429939 -0.2701480525285391 0.044226773822200485 0.170057031252556 -0.42492184897832125
-0.555136655118272 0.07301476211756709 0.1205635577974093 0.39557321891772845 0.2770474518364839 0.4246871336218827 -0.2755568761644968 0.3839761272341873
0.37127626966574634 0.46052705852449194 0.4136212905823692 -0.05173506450704415 -0.1849965570338196 -0.4064713602052798 0.24104071854254805 0.11256092331018576
0.24876009124139561 0.12029307550172816 -0.007505547665230379 -0.0697089539569714 -0.2958926532667316 0.07484129042662525 0.44720739055215397 -0.2953480895218331
00000000: 0d63 6241 fce5 d6bf a53b b608 6a71 d1bf
00000010: 1960 481b 4ff1 d8bf 13eb 1976 d6bf d0bf
00000020: 9eca 031d 7af5 c23f 63f4 a385 ca22 d6bf
00000030: fd39 cde6 e3d3 d6bf bd96 7526 fee0 c03f
00000040: 722a badf 4a2b cc3f cd86 4d35 4cf9 b0bf
00000050: 4b73 56ad 5e29 d03f aec0 bca2 4b40 d53f
00000060: 41c1 b93b d9ba 60bf ddfb 0df2 ba64 e1bf
00000070: 7cc1 e3fe eb53 dabf 832f 2c00 0569 e03f
00000080: 431b a5ee 4c13 c8bf f9b4 83b0 d91f db3f
00000090: 137a 3945 c9ff cdbf 47f0 f117 5156 dc3f
000000a0: e70a ac0e 1b4a d1bf aa0e 5946 e4a4 a63f
000000b0: 40a0 d7c5 6dc4 c53f 77ef 2d69 eb31 dbbf
000000c0: e366 51f2 adc3 e1bf 4990 6b6f 18b1 b23f
000000d0: 9c4b d4d9 40dd be3f b634 9b55 1251 d93f
000000e0: 39fb 443c 25bb d13f ac07 7cf1 122e db3f
000000f0: b71f d44e b9a2 d1bf b098 3a9b 1093 d83f
00000100: 4cb2 ff8a fdc2 d73f 124a d27b 4679 dd3f
00000110: f6c1 fe6e c578 da3f 1379 3ab4 047d aabf
00000120: f59a 2a99 f7ad c7bf 73e8 b573 a003 dabf
00000130: c081 9219 6cda ce3f 79c0 6cec cad0 bc3f
00000140: 3f44 37e4 5ed7 cf3f 1e16 37e9 86cb be3f
00000150: 08f7 2b1c 23be 7ebf b7ca 7b2d 72d8 b1bf
00000160: df10 3abd e7ef d2bf c9d5 c57e cc28 b33f
00000170: 32dd 3cbf 0b9f dc3f aeab 5bac fbe6 d2bf

decoder.layers.0.linear.bias f8 [12]
-0.22671048835191285 0.2671433188182511 0.16321624078374822 -0.15447593886491007 -0.41730545216455894 -0.014891655105161355 0.01801570045065286 -0.12132482232751013
-0.21205943525462428 -0.05634154271423277 0.41858372578083825 -0.3462209659875612
00000000: 0fda 906a d904 cdbf a5d5 6a4a e018 d13f
00000010: 2dcf 2b10 45e4 c43f a4ca b818 dec5 c3bf
00000020: 4050 5fed 21b5 dabf 50a3 471d 847f 8ebf
00000030: ad16 0031 b572 923f 64f4 16c0 240f bfbf
00000040: 1e09 9d79 c324 cbbf 3346 ba76 ccd8 acbf
00000050: 4475 3765 13ca da3f 67ca 86fb 7b28 d6bf

decoder.layers.2.linear.weight f8 [8, 12]
-0.22359643812216873 0.04226615382594556 0.3361579120913482 -0.14619358273958052 -0.01888050848974686 -0.16880799303607025 0.10496838489458284 0.14048351578477722
0.24912102094218688 0.2503995894723644 0.30523738605291234 0.011665445303562914 0.19052451166846102 -0.03738230237113381 -0.08695253658114137 -0.3230922752331239
-0.06644158743305556 0.12053193318003162 -0.07777094521071984 -0.12147979093887996 -0.03993804546398528 -0.04600963250174278 -0.013965905386566842 -0.03541001021850762
0.07144805049143313 -0.14516317247080807 -0.09700134596639161 0.2606197331370887 0.020595285171365364 -0.07907922303071901 -0.23520167587522756 -0.18369450616561775
0.21976092735735384 -0.11476191173603816 0.23747751123290517 0.14284884513558282 0.05301197180121629 0.23983004379713416 -0.049899982660446617 -0.05720260968588446
0.09632186784386475 -0.0010752795866327423 -0.17237205694981217 0.13869932354765563 -0.3511319000322442 -0.07521177848053862 0.07725665731204912 -0.20030875348316948
-0.07394064940194404 -0.23280869435983875 -0.2483488237434025 -0.06812212251070984 0.1619783475080853 -0.0584369088295698 -0.08613193306552734 0.07139910787850169
-0.21188170998780861 0.004051509902148716 0.08820111223021582 0.014511095285692773 0.1681235031015097 -0.17772796330565874 -0.08958698529422655 -0.3435578987246783
0.025224131471883654 0.14953487069336527 -0.013840712714083893 0.11518879713383301 0.06471773379624272 0.001371106735983023 0.14458722323273096 -0.24715780030739273
0.11031586079991068 -0.049179288608334336 0.3345847557644585 -0.0065510024203803245 0.061909294839486345 -0.07547428232048 -0.0007495581649858557 0.25184784218230993
0.062024766146471795 0.14103271207814766 0.06592727079607229 0.2563710733851571 -0.20450153214407366 0.18288719858662508 0.22656864678027083 -0.14266534195499636
0.2513493519825704 -0.19879879178825574 -0.2086918641018592 0.16425324484988965 0.11026118046630562 -0.0022391105883701034 0.18024496467851672 -0.04216267189487831
00000000: 8a4f 9ede ce9e ccbf 10fe d1c8 e8a3 a53f
00000010: bf55 ae79 9c83 d53f 6533 60a8 78b6 c2bf
00000020: 5c33 fb79 6955 93bf 3a58 b214 809b c5bf
00000030: e175 3c44 35df ba3f 9f1b f624 5dfb c13f
00000040: 73ae d896 32e3 cf3f e6cc edff 8b06 d03f
00000050: 4148 a763 0289 d33f 6c9e 9390 0de4 873f
00000060: 96e8 5971 1b63 c83f 2e33 44ec c523 a3bf
00000070: 3b95 eb7c 8542 b6bf 1adb ed38 8bad d4bf
00000080: 548a 1edd 5002 b1bf bfc3 2147 2edb be3f
00000090: 1251 42f2 cbe8 b3bf 9918 35b1 4c19 bfbf
000000a0: c198 446e c272 a4bf c8bb ca15 938e a7bf
000000b0: 0499 2717 289a 8cbf 0cd5 adc7 4221 a2bf
000000c0: ea41 3960 6b4a b23f d240 2cf3 b494 c2bf
000000d0: 5df8 9788 14d5 b8bf db06 a163 fead d03f
000000e0: 8a1d 0d31 ee16 953f 68c4 b534 893e b4bf
000000f0: 789b eca8 161b cebf 5bd5 3734 4d83 c7bf
00000100: ab1f f845 2021 cc3f b393 bb61 0961 bdbf
00000110: 44f1 23c0 a965 ce3f 2479 10f7 de48 c23f
00000120: 9e8a 5d9a 6224 ab3f f97c 5a39 c0b2 ce3f
00000130: b3f6 3193 7d8c a9bf 2686 b113 a949 adbf
00000140: b76e 47c8 8ca8 b83f 4739 27aa 0c9e 51bf
00000150: 20fe ab9d 4910 c6bf 0ea8 4e41 e6c0 c13f
00000160: 1522 ceee f178 d6bf a010 d940 1441 b3bf
00000170: 28b4 8da0 17c7 b33f d507 a89c b7a3 c9bf
00000180: fbbe 063f c6ed b2bf ecfe 3fe0 accc cdbf
00000190: 842e fded e4c9 cfbf 824e 5190 7370 b1bf
000001a0: 6d8a 9adc b4bb c43f c6cb 9a48 71eb adbf
000001b0: 175f a80b be0c b6bf e13e 4d41 3647 b23f
000001c0: 3354 829b f01e cbbf d564 77e8 5098 703f
000001d0: f4e5 7f1c 5994 b63f de13 733d feb7 8d3f
000001e0: ac45 c129 1285 c53f 4fc2 fd36 cabf c6bf
000001f0: 4d66 fc33 2cef b6bf af84 d344 dafc d5bf
00000200: e88b f7ce 5ad4 993f f9aa 9e69 f523 c33f
00000210: 27bd ae03 8558 8cbf 202e 8e54 037d bd3f
00000220: db47 2066 5791 b03f 47a9 c8a5 d676 563f
00000230: af1d 9a89 d581 c23f 2bc2 a2e6 dda2 cfbf
00000240: d49e 5d06 a93d bc3f 133b 6d18 072e a9bf
00000250: 5fe7 ef2d d669 d53f 0cc0 6c52 39d5 7abf
00000260: 1cdb 4e39 93b2 af3f 956a 4156 4852 b3bf
00000270: 8056 0ce7 bf8f 48bf aa6f 6f69 461e d03f
00000280: 1144 48cc b5c1 af3f a25a 0523 5c0d c23f
00000290: 8fd1 fb0f 9ce0 b03f 3e19 f537 6268 d03f
000002a0: 4d35 4530 1b2d cabf b5af 6404 d968 c73f
000002b0: ca30 1c90 3300 cd3f 3014 fca0 db42 c2bf
000002c0: 1fb3 a897 1b16 d03f eb80 9b22 3d72 c9bf
000002d0: 1a1f a13d 6ab6 cabf 2f32 7215 4006 c53f
000002e0: d002 1fa4 133a bc3f dc41 f957 c157 62bf
000002f0: 410d 485a 4412 c73f ce0b cd81 5896 a5bf

decoder.layers.2.linear.bias f8 [8]
-0.09588370646221889 0.3227081457832272 -0.05774162446553484 -0.19627804324470938 -0.15254201404325926 0.16038029606230908 -0.13848935927304223 -0.011926088652685268
00000000: 7078 79a7 d58b b8bf 37ac 1211 40a7 d43f
00000010: ba0f 6569 4f90 adbf da56 5490 a31f c9bf
00000020: 7b77 ca28 7f86 c3bf 4855 416f 5787 c43f
00000030: 9efa 75f2 04ba c1bf 701e dc85 b46c 88bf

exp_avg f8 [12, 8]
0.0011836764157084284 -0.0008044706113297159 0.003097443265324917 0.0029411726562405013 -0.0012833272788987465 -0.00010324545282456878 -0.00018206808581664236 0.0002478307782282537
-0.00025435645646706246 5.713165436100766e-05 -0.0005579610565320343 -0.00027255544333959204 0.0004693797103380383 0.000663782563705232 -0.00010390032741750314 1.3564986921243716e-05
-0.0009306733010440423 0.0011876184458788502 -0.000638371550641194 -0.0009963674666369732 0.004110932161631889 0.009112760036160824 -0.0008527568106345045 -0.00016986899428256564
0.0017530163538231039 -0.002277914121232692 0.0022369259886312605 0.0012293798387972414 -0.0014747085562539384 -0.0005451097782895763 0.00018413776690035235 0.0006940306831593029
-0.0012042872096617566 0.0004725986659132159 -0.0014398789356969961 -0.00010847751417459706 0.00390830050971357 0.00679758395253509 -0.0006620188953990319 6.37442702605488e-06
-0.0009383852554428864 -0.0012997874979430483 -0.00084738255324016 0.003369605384117026 0.0010701124700386983 0.0008967637470858458 -0.0004603046641946685 -9.30397202363554e-05
0.003499697831188306 -0.0013711821428054828 0.004882729508188648 -0.0004964392953416948 -0.004577683970360288 -0.004680180812447591 0.0009617017362259432 0.0010394264332539843
-0.008611634365837714 -0.007504417290941171 -0.017196222427214126 0.008991667786269605 0.008552777535003433 0.0002732671899351665 -0.00030307907849298933 -0.0004813293375145806
0.0020459588825813345 -0.003956837655192821 0.003261855238581124 0.0052037398581741365 -0.003698359580453193 -0.005001861575320408 0.000568209875251206 0.0008739381678162747
-0.0005849057258818072 0.0008214542878269769 -0.0007099895137647939 -0.0003392224241767598 0.0003204478759292765 3.154074296966793e-05 -9.487833008892853e-05 -0.00026553142648975904
0.0004903585654397432 -0.0012181876554892192 0.00022678606154645205 0.0002815138334457259 -0.0005270212324826364 -0.00019573528229149286 0.00023657687304250668 0.00010074816799263085
6.078226353937319e-05 -0.00044673763173928377 -8.618555052153614e-05 0.00042388616118308354 -0.00022451655876226236 -0.0001415983204240584 0.0001431675797572454 0.0001544049050331533
00000000: e41e a6df b264 533f 3038 ae7b 635c 4abf
00000010: 193d d330 cf5f 693f 07aa da0b 1618 683f
00000020: 260b 592c aa06 55bf 451b 955f af10 1bbf
00000030: 7bfc cdf2 30dd 27bf 41fb 6116 e93d 303f
00000040: 7a45 7ca9 64ab 30bf a4a5 45b2 14f4 0d3f
00000050: 5867 c03e 8448 42bf cb5f 2ab7 b8dc 31bf
00000060: 92da 5b81 e2c2 3e3f 53ef 8d33 36c0 453f
00000070: f048 8008 a23c 1bbf 0399 379b a572 ec3e
00000080: f24c 14b2 0d7f 4ebf 45b9 a698 3b75 533f
00000090: dbbc 6277 0ceb 44bf 6eb9 c66b 1153 50bf
000000a0: c366 0bf3 9fd6 703f 5121 a7f2 b5a9 823f
000000b0: a899 7a4e 71f1 4bbf 6f18 d38c db43 26bf
000000c0: 7770 2dfa aeb8 5c3f 16db ebd4 21a9 62bf
000000d0: 3f2e df7e 2c53 623f 3a80 ed8c 6424 543f
000000e0: 47a5 4b41 6029 58bf 9967 d255 b6dc 41bf
000000f0: 63a8 a35f a322 283f 6b5f 158b f3bd 463f
00000100: f71e 8d8b 25bb 53bf d868 71d0 e3f8 3e3f
00000110: 79de 183c 4a97 57bf c1b2 bf80 cd6f 1cbf
00000120: f45d f46d 2602 703f b288 498c c8d7 7b3f
00000130: 763a a6c0 6ab1 45bf f7f6 ac28 7dbc da3e
00000140: 68b4 d8fd bebf 4ebf 9114 e832 b44b 55bf
00000150: 2725 3b2d 5cc4 4bbf 1c4e 9b1d 939a 6b3f
00000160: 367b f583 6088 513f 7bf9 a47b 9962 4d3f
00000170: 2a00 9a7a a12a 3ebf bec6 fa38 ca63 18bf
00000180: fa01 63f7 65ab 6c3f 670f 749d 2777 56bf
00000190: 529d d8b8 e9ff 733f 6d47 db44 6f44 40bf
000001a0: 7c1e 1baf 0cc0 72bf 8415 7678 862b 73bf
000001b0: bc65 b7c0 5683 4f3f c026 65a2 ab07 513f
000001c0: d826 bbff f9a2 81bf 5d2b 71ad f3bc 7ebf
000001d0: 6d2d c2f3 e29b 91bf 8bd1 a038 396a 823f
000001e0: 1b24 6c5e 1e84 813f 93c9 d2a4 a9e8 313f
000001f0: 1f4d f0ba d2dc 33bf 7212 63c3 5d8b 3fbf
00000200: 4f31 abcf afc2 603f f0b3 3185 0b35 70bf
00000210: e724 5e32 9bb8 6a3f 0abe 1f48 8450 753f
00000220: 35f6 4cae 054c 6ebf cb73 29fe d47c 74bf
00000230: 8a8c 6d6a 7d9e 423f d451 bcec 1fa3 4c3f
00000240: 6941 617b 8b2a 43bf c17b 93a6 dbea 4a3f
00000250: afe0 fdde d243 47bf c0e2 c837 353b 36bf
00000260: 1b2c ae25 3900 353f b197 26ad 5389 003f
00000270: 2482 a04c 2ddf 18bf f626 f7ca e066 31bf
00000280: de82 3d00 6d11 403f 5882 0109 73f5 53bf
00000290: 902d 606f adb9 2d3f fadc 40b5 0473 323f
000002a0: 2089 997a f944 41bf 3ce7 b045 c9a7 29bf
000002b0: bad6 8bdd 3302 2f3f d677 bd58 1869 1a3f
000002c0: 0454 31ac 0ede 0f3f a996 a984 0347 3dbf
000002d0: b860 c77b d097 16bf 52fa 1233 a1c7 3b3f
000002e0: 6387 f98d 866d 2dbf 7b42 8f4f 408f 22bf
000002f0: 84c8 5325 e8c3 223f 8e6f f008 f83c 243f

exp_avg_sq f8 [12, 8]
4.403585403336051e-08 2.12557270271609e-07 2.9887995260279907e-07 4.690092512711058e-07 5.187888325100654e-08 2.887322577594591e-09 4.2416880742260736e-09 2.8405981826070033e-09
8.704328144422117e-09 9.116055319957529e-09 4.395682650300369e-08 3.906491835035952e-08 2.9276865063072993e-08 2.8022358775154167e-08 3.872472550058629e-09 2.0517260533344666e-10
1.1827881394353247e-07 5.203546789696757e-08 2.546762209881259e-07 4.9325795033769243e-08 1.273020829926895e-06 3.771915868494636e-06 4.209449487373331e-08 8.112062088118695e-09
1.0879026454345226e-07 6.228610999615889e-07 1.9482234498104118e-07 1.6161649704266056e-07 8.125833254551206e-08 2.622529683152914e-08 1.3248076164040475e-08 3.4888797010072857e-08
7.687998243584905e-08 1.2341311329698607e-08 1.488004991931285e-07 1.0279199350324502e-08 7.207429082112128e-07 1.8509385942819347e-06 1.9647900981717935e-08 2.9143331774418897e-09
3.036335775818222e-08 7.288868293670561e-08 3.283182982186916e-08 3.6861652415916106e-07 4.869557320511385e-08 4.0867403949582615e-08 1.3591067831686218e-08 2.737670010678746e-09
5.113092440758264e-07 1.4325645150986198e-06 9.026725280113721e-07 3.722645141082905e-07 1.0504670890794423e-06 1.1963081696806466e-06 8.804123124237806e-08 8.466670541759593e-08
2.477487172348109e-06 2.179549909388115e-06 1.0029743602514511e-05 3.247735609046475e-06 2.3260894165275243e-06 1.244435257244299e-07 4.831818470809846e-08 1.9440556166584927e-08
1.5377088853424205e-07 3.6833737267111006e-06 4.1065720003154484e-07 2.6555011336167095e-06 6.769904763550704e-07 1.3507825181835946e-06 2.442894422118764e-08 6.598697264569713e-08
3.155610834559823e-08 2.4211118184753983e-07 4.721008593599444e-08 1.7426335855127705e-07 3.3899849887129397e-08 1.2375512399423685e-08 4.800709329579685e-09 1.1351905018530822e-08
9.59339765960386e-09 1.6653612554587494e-07 3.776257205366698e-09 7.046701671530139e-09 1.0861651880875634e-08 1.9381641934009e-09 3.535764547454438e-09 1.2191682153258633e-09
6.9791547731204315e-09 6.219068078733803e-08 2.2018146423239784e-08 3.08912391769194e-08 3.326994765466587e-08 5.701175199273112e-09 1.4601336596126979e-09 1.5253377272455728e-09
00000000: 3894 a1df 3da4 673e 7655 9885 6987 8c3e
00000010: 1ae9 caee b70e 943e e680 5080 8479 9f3e
00000020: 9625 8eee 2dda 6b3e f942 4e1c 4acd 283e
00000030: 1ac1 490d c937 323e 7b97 559d 8a66 283e
00000040: f8de e647 41b1 423e 7a84 bcba 9a93 433e
00000050: 982b eb56 6199 673e 25ae 739f 0af9 643e
00000060: 4dc2 5a3a 906f 5f3e 08bc 2632 ba16 5e3e
00000070: 9d65 ef1e d4a1 303e bbb6 b089 de32 ec3d
00000080: 09e4 66e6 0ec0 7f3e e262 a943 b3ef 6b3e
00000090: d34d 7cdd 4d17 913e 3c86 4420 497b 6a3e
000000a0: c4b2 7434 955b b53e 399a 9ead 20a4 cf3e
000000b0: c9fa da5e 6c99 663e a3c8 603e a76b 413e
000000c0: 8f03 dc92 0234 7d3e 4e19 360b 56e6 a43e
000000d0: c149 2178 0b26 8a3e 2bdb edbd 19b1 853e
000000e0: 1d37 2cb4 07d0 753e 2e12 2734 c128 5c3e
000000f0: 8088 01f7 3473 4c3e 588d 6d6a 14bb 623e
00000100: 4916 40f4 26a3 743e 0f76 d828 b580 4a3e
00000110: eefe 5b08 bff8 833e ee09 e9b2 0c13 463e
00000120: c132 9b6a 222f a83e 91e6 b781 b80d bf3e
00000130: 98d5 281e c618 553e 2695 fbb9 af08 293e
00000140: 77f5 5ead 1b4d 603e b332 5045 df90 733e
00000150: 6073 1a51 5fa0 613e ac21 369e c8bc 983e
00000160: 5baa ae2a ab24 6a3e 70db 65f2 c5f0 653e
00000170: 69c5 2dc0 c42f 4d3e 6385 7a34 3384 273e
00000180: 53e9 22eb 1c28 a13e 101e 8657 d108 b83e
00000190: 6544 99e1 e549 ae3e e55d c1a5 74fb 983e
000001a0: 2017 6fc7 b89f b13e ca1a 33be 1a12 b43e
000001b0: e066 37b8 25a2 773e cd28 f86e 40ba 763e
000001c0: f59d 11fa 5cc8 c43e b30b fe3b 8c48 c23e
000001d0: dbcf dd76 ad08 e53e c698 7588 753e cb3e
000001e0: cf07 2c2e 3d83 c33e 3265 0ad4 d8b3 803e
000001f0: 9a10 4bfd ccf0 693e 5de4 0786 c7df 543e
00000200: a7d0 260a 87a3 843e bba8 f81e fce5 ce3e
00000210: 3b80 4277 098f 9b3e 84b4 de2f a546 c63e
00000220: 6779 21cd 4db7 a63e b0cd d815 91a9 b63e
00000230: 28cb 5d20 fa3a 5a3e c420 6b19 97b6 713e
00000240: 06b0 92db 09f1 603e af73 163d 703f 903e
00000250: f9e3 db3a 8158 693e f163 51b6 a463 873e
00000260: 86a1 a3ee 2833 623e 0e98 3e88 8293 4a3e
00000270: b606 f78b 6f9e 343e d6f2 b099 c660 483e
00000280: af04 00b1 069a 443e 59df 7940 235a 863e
00000290: b0e6 afe8 0938 303e 6f7f 5a30 ee43 3e3e
000002a0: 911e e89a 4153 473e fbfc 4071 11a6 203e
000002b0: 3293 bf7c 3a5f 2e3e 70ab 4b61 f5f1 143e
000002c0: a18f 5e6d a9f9 3d3e a5dc d106 b6b1 703e
000002d0: eebd 1b50 4da4 573e 3c0c 7eda a895 603e
000002e0: b56a b837 96dc 613e 045f 0c28 827c 383e
000002f0: 3323 f159 bc15 193e 37e4 e19a 8134 1a3e

exp_avg f8 [12]
-0.002141559592948661 9.926706376788934e-05 -0.0008039432678086793 -0.0018135099962579846 -0.0010734252286339696 -0.0031176272550599063 0.0007642624759324912 -0.011048855379392793
-0.004399218627651392 0.0005351583945875398 -0.000920476398438896 -0.0005439819051476567
00000000: 9ab6 400d 2d8b 61bf b3ce 782b b305 1a3f
00000010: 7f91 8305 f757 4abf 8450 fe87 69b6 5dbf
00000020: 2498 1b90 4596 51bf cb4f 4063 238a 69bf
00000030: 8ff6 7a2b 190b 493f f10f 1a44 c8a0 86bf
00000040: 27b4 2342 ea04 72bf 1985 c6e6 3b89 413f
00000050: fca5 9603 8429 4ebf 3c3a 013f 40d3 41bf

exp_avg_sq f8 [12]
4.517374783684962e-07 2.810206660796026e-08 1.6391331796993127e-07 4.7125736856819614e-07 8.422162665719908e-08 3.3050923523524047e-07 9.59418872631724e-07 4.618533910708003e-06
3.8903805304999175e-06 3.1851905009819623e-07 8.702393768590783e-08 5.495689554423776e-08
00000000: 37fa cf70 ca50 9e3e 73d8 d022 a32c 5e3e
00000010: 317f ddca 0400 863e 52ad 5ed3 23a0 9f3e
00000020: d90d 6e86 aa9b 763e cb77 29fd 1a2e 963e
00000030: 5b6c d434 ac18 b03e dd0c 3def 1c5f d33e
00000040: 98f4 4da8 4351 d03e fd49 d598 1d60 953e
00000050: 3ca6 554d 3d5c 773e 92c4 96dc 3781 6d3e

exp_avg f8 [4, 12]
0.011383483291252555 9.331209358156602e-05 -0.0014824743579376382 0.003422970340090711 -0.000914222624488854 -0.000843152932864713 0.009090548785084094 -0.006749571201500087
0.0022722357282843352 0.0018912383500000699 0.0020082563899545976 0.0034478186903766543 -0.0008870760075331002 0.00019083221309526872 0.007995380132954958 -8.986613771886673e-05
0.001681049413747615 -0.0023888711408941226 -0.0006246550439462579 -0.01341589943719722 -0.00013749956679472375 -0.00031941601421100514 0.0003185079103119999 0.0004017236090760468
-0.0037321373694211126 1.7559615261530928e-05 0.0019822169028456457 -0.001092296837175687 0.00013173574418818678 -0.006551069992013656 -0.005205352649452522 -0.018501951401792803
-0.0027043055190088426 -0.0005119552066656186 0.0001710230191487297 -0.0004651474142135584 0.0014422503654412048 -0.0002922650958515017 -0.0060706248031198095 0.0017932572760391498
-0.0016544017904063782 -0.0009666988263012381 -0.0015562542598579537 0.004010061188854361 0.00021600527497039803 -0.00010961067699315255 0.002013099709117239 -0.0003339252371247797
00000000: a39b 9a43 3950 873f 80c6 9e8f 1176 183f
00000010: 0da9 9bb8 f249 58bf 92c9 4e35 7d0a 6c3f
00000020: 702d 0023 0ef5 4dbf e6ce d622 e1a0 4bbf
00000030: 0585 e0cd 109e 823f 6cd2 2839 70a5 7bbf
00000040: 857e 8944 399d 623f 6d24 2eb7 6dfc 5e3f
00000050: e3ef 8970 9e73 603f aa0a 9190 993e 6c3f
00000060: 057b 8038 5511 4dbf 7544 813a 4403 293f
00000070: b562 85c1 e15f 803f 7dfa 757d d08e 17bf
00000080: 9904 5210 d58a 5b3f ce7d 956d d391 63bf
00000090: be7b 157e fc77 44bf b92c a28a cb79 8bbf
000000a0: 528a 0249 b805 22bf a10d b955 e9ee 34bf
000000b0: da3a ed0e addf 343f 0bcd 54c3 cd53 3a3f
000000c0: da58 44fe db92 6ebf 9799 8c92 9f69 f23e
000000d0: 4c7e ae98 023d 603f 9549 5dcc 6ce5 51bf
000000e0: 60a9 0e6d 5144 213f bd7e e975 4bd5 7abf
000000f0: 67f6 4b36 3552 75bf 4645 bbf0 2cf2 92bf
00000100: 66b0 66f8 5627 66bf 528d 506f 97c6 40bf
00000110: e2bf 578c 946a 263f 80c8 8eee e07b 3ebf
00000120: e3df bd89 3ca1 573f 9b23 4807 6527 33bf
00000130: 7754 eeef 82dd 78bf 6255 a656 7761 5d3f
00000140: fc2c 6465 101b 5bbf 04ae 09ec 41ad 4fbf
00000150: 1c58 9f49 677f 59bf 63d1 939a da6c 703f
00000160: e057 fb2e ef4f 2c3f 238c 8717 d9bb 1cbf
00000170: 1a80 41ad c67d 603f 33cc 06f9 55e2 35bf

exp_avg_sq f8 [4, 12]
1.291917640498575e-05 1.839948621411535e-08 1.0686727511830033e-07 2.0641488830042485e-06 2.7325054481317802e-08 4.0963167164485923e-07 1.4009504803592327e-05 1.242625601229155e-05
9.621318772102552e-07 7.131755700061865e-07 4.0983249871955493e-07 4.6720882251284523e-07 1.0613980622254838e-06 4.200616940084475e-09 2.7671602773306018e-06 2.1176566630888078e-07
1.0792054265161412e-07 2.4603400725180894e-07 9.048314863484509e-07 7.983430013642002e-06 1.1034294998365154e-07 5.0611928499033154e-08 2.604427872587688e-08 3.3714502504643365e-08
8.483367291396561e-07 1.4551701963454033e-09 3.056128758409024e-07 6.94694838227292e-08 1.2310364192668162e-08 1.3523190095218741e-06 1.6594082431924688e-06 1.49827002974047e-05
3.3507882250006683e-07 3.294796251164909e-08 7.899828125819799e-09 2.308603964199903e-08 8.462367737660781e-07 4.4512386109558165e-09 2.0093305881718473e-06 2.490035007544665e-07
1.0815430544513184e-07 6.438573999763715e-08 5.348803537390972e-07 3.0248903480493945e-06 9.475044731358362e-08 7.73292014702843e-08 2.079423358875713e-07 1.715920217575719e-08
00000000: e5da b615 ee17 eb3e 1be2 07bd 9cc1 533e
00000010: eb9f 66fc dcaf 7c3e 68ae 62d9 b950 c13e
00000020: 8c42 b8c4 0d57 5d3e 2dda f124 6b7d 9b3e
00000030: 0835 caad 4b61 ed3e 1b22 359f 4b0f ea3e
00000040: 52f7 ba2f 5324 b03e 1b8c eaa9 21ee a73e
00000050: 1c22 2164 de80 9b3e 9546 be21 965a 9f3e
00000060: bf7c d882 abce b13e 606d 2d8e a00a 323e
00000070: 61e2 4e73 6e36 c73e 0274 f07f 366c 8c3e
00000080: e8e2 ab43 3ef8 7c3e 474d d801 d582 903e
00000090: 2f10 187b 715c ae3e 3227 2544 12be e03e
000000a0: dbe8 6db4 b59e 7d3e a551 a8ec 0c2c 6b3e
000000b0: fb26 dc2f fff6 5b3e 1173 d599 af19 623e
000000c0: 319e 2732 2877 ac3e 7eb1 0efd e7ff 183e
000000d0: ff6d 70a4 6382 943e 7729 7515 e8a5 723e
000000e0: 6227 babc b16f 4a3e 67e6 b579 2ab0 b63e
000000f0: 7427 9ba8 1ad7 bb3e 90ca 28a6 c66b ef3e
00000100: bbaa 093f 9c7c 963e 2852 615f 55b0 613e
00000110: 2ca5 07f8 f9f6 403e 0ade 1d9e d7c9 583e
00000120: fc00 6058 1e65 ac3e fc50 cb48 301e 333e
00000130: 2d3d 412c 01db c03e 8c8d 4dfa d8b5 903e
00000140: 8982 b3a9 4e08 7d3e 134d a9ea 8d48 713e
00000150: b830 3956 96f2 a13e b27e 220e e75f c93e
00000160: d8f2 367f 336f 793e 8b2a edb2 05c2 743e
00000170: 047b 3521 d8e8 8b3e e94e 1982 af6c 523e

exp_avg f8 [4]
-0.00044422672805182546 -0.008150856626121401 -0.018076028271730306 -0.0006715891250348828
00000000: 74a3 dc44 e31c 3dbf 570b 2675 65b1 80bf
00000010: ca19 13b9 8582 92bf 6829 08aa b201 46bf

exp_avg_sq f8 [4]
3.0065904107078992e-05 5.8568350925254105e-06 1.7625368152130968e-05 3.305162868503122e-06
00000000: b132 a532 c186 ff3e 5012 5192 ba90 d83e
00000010: 7034 a213 467b f23e 6aea b780 c8b9 cb3e

exp_avg f8 [12, 4]
0.000103041091423014 -2.5886841612582786e-05 -2.2830354806912962e-05 8.934232178302178e-05 0.00026705226068646 0.005815996058611283 0.003619612994721723 -0.003838717107913108
-0.002699900379529468 0.001250601974213196 0.001392580632097637 -0.002632386178839983 -0.0007871623634403741 0.0015354790866340855 0.0026384087527431235 -0.0016350045808429321
0.0 0.0 0.0 0.0 0.005581475008603173 -0.00010254730988228104 -0.0005303110796581016 0.0020920739155117847
0.0018057322117082867 -0.0026490127795975914 -0.001076633531531704 0.0007026249191286784 0.0027836001246018148 0.0032472184446112775 0.001662680608257175 -0.0008102877076067227
-0.00691598950393165 -0.015169854209108333 -0.010797779687406419 0.007387778120316482 1.8227326742577639e-06 -3.141590789299206e-07 -7.623457875966793e-07 1.0688569079087369e-06
-0.012421559270610595 0.004469736852086704 0.0017083487407402993 -0.0058946996800214434 -0.0006525994657745886 -0.0006432885705004607 -0.000814034056321362 -0.00011743091514511731
00000000: 3e22 a278 f802 1b3f 153a c035 f224 fbbe
00000010: 4126 3909 7af0 f7be a39b 9c66 a96b 173f
00000020: d63f d9b9 6480 313f 0cae d88d 83d2 773f
00000030: 50dc f7ed e0a6 6d3f 7194 fc8d 5f72 6fbf
00000040: bf24 a4fa 191e 66bf 6d7d 17a5 677d 543f
00000050: 27d9 6611 e8d0 563f fccd 8d91 8390 65bf
00000060: 2f71 c64d 32cb 49bf d481 7d1d 4428 593f
00000070: f9f1 cee9 249d 653f 22a5 06cd b4c9 5abf
00000080: 0000 0000 0000 0000 0000 0000 0000 0000
00000090: 0000 0000 0000 0000 0000 0000 0000 0000
000000a0: fc9a 01ca 99dc 763f 036c 735e d5e1 1abf
000000b0: 6015 365f 9260 41bf d1b4 88a1 6523 613f
000000c0: 5e11 db32 ca95 5d3f ca6e 29e8 61b3 65bf
000000d0: 0e73 b173 baa3 51bf 2109 4686 0b06 473f
000000e0: 6682 02f0 a1cd 663f e7eb b820 e999 6a3f
000000f0: a79c 83b5 c93d 5b3f 3dc4 2d9a 2f8d 4abf
00000100: d764 d2cb f053 7cbf 85a6 b45d 5f11 8fbf
00000110: 21bc 0375 251d 86bf 3679 ab96 a542 7e3f
00000120: 2b55 09c5 9394 be3e 4272 b33d 3615 95be
00000130: f854 9e1d 8094 a9be 02b9 4299 b4ee b13e
00000140: 3429 a976 7970 89bf db7d 9fd9 db4e 723f
00000150: 7963 2f7e 55fd 5b3f 8ee5 8665 0a25 78bf
00000160: fa24 73ae 6662 45bf 97ec a3af 4b14 45bf
00000170: 3c5e 2ad3 9cac 4abf e854 a6c2 a7c8 1ebf

exp_avg_sq f8 [12, 4]
1.9358513596543935e-09 2.9095745043429977e-10 1.5452614227820284e-09 1.6878180117078098e-09 2.041148558800294e-06 1.6921618454361405e-05 2.4295062260850956e-06 1.080073315976323e-05
5.36559509747835e-07 2.5819991939855393e-06 3.6853162262025077e-07 2.785834391260423e-06 1.6593427195323755e-08 8.611629838116108e-08 3.227824796083372e-07 7.44486312056697e-08
0.0 0.0 0.0 0.0 1.188904823317717e-06 1.4043454237692204e-06 8.928938600541716e-08 9.649279065256495e-07
7.166878563261089e-08 1.562711513502975e-07 2.787290427248711e-08 1.5045531993876194e-08 1.7979660794608377e-06 2.874567022558413e-06 3.05327200034457e-07 7.445615664030601e-07
1.490561127956642e-06 6.296846497348468e-06 2.921142091947764e-06 1.6515259630669277e-06 3.868520974324415e-12 6.872926250277824e-13 3.7752682277520156e-13 3.1382789727570994e-12
5.935000679359713e-06 2.7505573168471856e-06 2.0854146681108716e-07 4.113893263914657e-06 4.966690682290769e-08 2.5917496183088368e-08 2.2117583211373147e-08 4.8067515084967005e-08
00000000: 1493 c86e fba0 203e 4b02 88dd 93fe f33d
00000010: 3f25 24b1 218c 1a3e 97e2 6324 1aff 1c3e
00000020: 0f91 8649 551f c13e 5791 05c4 5cbe f13e
00000030: d9ed 332c 5361 c43e 9346 5376 99a6 e63e
00000040: c132 05d7 0201 a23e cb3b 7f11 cda8 c53e
00000050: b4a2 9337 53bb 983e bb2b 33a7 885e c73e
00000060: a477 22a2 2ad1 513e c9c7 4cf1 dd1d 773e
00000070: 79b1 b85b 5ca9 953e 9c8f c12b 12fc 733e
00000080: 0000 0000 0000 0000 0000 0000 0000 0000
00000090: 0000 0000 0000 0000 0000 0000 0000 0000
000000a0: cc5c 74ad 4ef2 b33e fffb 721f 9e8f b73e
000000b0: 7fc9 8a7d ebf7 773e fd4a 0474 5530 b03e
000000c0: 34e5 449c 0a3d 733e f3b6 7e95 6ff9 843e
000000d0: d164 2e45 a5ed 5d3e f6f5 1f31 af27 503e
000000e0: 01c1 579c 342a be3e 282a ddee 151d c83e
000000f0: cd47 133a 7b7d 943e 193b 2033 bcfb a83e
00000100: 0304 c74a e901 b93e 6645 4cfc 2f69 da3e
00000110: 7856 26d9 1a81 c83e 4fc6 fdff 3fb5 bb3e
00000120: 1cb6 6d41 9103 913d a959 0be5 942e 683d
00000130: 1d81 902b eb90 5a3d ddbd 56a8 c69a 8b3d
00000140: 3d08 8090 a8e4 d83e a2b6 59e0 c612 c73e
00000150: f460 1c24 6efd 8b3e d6a1 a95e 4241 d13e
00000160: 9fde 1eee 2aaa 6a3e 9e31 9ca8 25d4 5b3e
00000170: 3b4b 098e a2bf 573e e8f1 0c56 59ce 693e

exp_avg f8 [12]
-0.00017531033209265484 0.009479931119308978 -0.002780528319948352 -0.006036885632871084 0.0 -0.0011320751971411016 -0.005894673418308388 0.010139131394726436
-0.03231772990151064 -3.3555559816472467e-06 0.015578427580313125 -0.0007458741822519219
00000000: b4d5 3549 70fa 26bf f190 01d1 366a 833f
00000010: 0599 64c6 30c7 66bf 8454 ce25 22ba 78bf
00000020: 0000 0000 0000 0000 2f80 b17c 448c 52bf
00000030: 6df4 d558 0325 78bf 3d67 002e d3c3 843f
00000040: f511 0412 f38b a0bf fe89 e468 0026 ccbe
00000050: 392a d827 95e7 8f3f 3b38 1f9c d870 48bf

exp_avg_sq f8 [12]
1.2929677889887648e-08 0.0002204781104066221 4.598760774558277e-05 1.716169677346152e-06 0.0 2.0958549666270018e-05 8.334234104069409e-07 2.9341055660818222e-05
3.098776721429996e-05 4.039480738185645e-11 7.944106563619457e-05 2.268278298421138e-07
00000000: 1321 3764 2ac4 4b3e a9d3 1f8c 04e6 2c3f
00000010: 6355 992b 5a1c 083f 2a69 f683 e4ca bc3e
00000020: 0000 0000 0000 0000 5c3d f390 04fa f53e
00000030: 159e 1176 0df7 ab3e cab7 ecfd 2dc4 fe3e
00000040: b7ae f792 1b3f 003f f106 d750 1035 c63d
00000050: 2f45 8f1d 33d3 143f 4a23 fab0 be71 8e3e

exp_avg f8 [8, 12]
1.2637092123829601e-06 -0.0029270237465243874 -0.003973081128927503 -0.0009012185759030628 0.0 0.00522869638973598 0.0029572210163574687 -0.00035612711804764943
-0.0035269535822973304 1.364745080605886e-06 -0.0037692647789321714 0.0012155600748571004 -2.6549246089936646e-05 -0.003022787753889627 -0.008744225649726715 4.282730615335875e-05
0.0 -0.042512895292714306 -0.007116007683081661 -4.883723568275679e-06 -0.00793779239322566 -3.1855818212093608e-06 -0.07106067229432621 -0.00519135203367719
1.5923765912082332e-05 -0.005320137496807873 -0.013749902651113094 -0.001570797100471441 0.0 0.007182808261944922 0.0073480241811257506 -0.0007605752512918947
-0.013994144675099554 3.327460739085798e-06 -0.0244461259639981 0.00245380605748304 -4.9670705003165375e-06 0.003337527093483946 0.01185356985083477 0.00031005537508294056
0.0 0.01969165878496047 0.005210862876296032 0.0003948354575665456 0.009360875224766387 -4.218699682336113e-08 0.05164650643071339 0.0014823735158298963
-1.0017157229851915e-05 0.0036465810226786613 0.0034178744039735287 0.002191821083261412 0.0 -0.015007606946661771 -0.005091553107985969 0.000451468455160939
0.002903912093999136 2.0208433118027245e-06 -0.012112646032377454 -0.002088032319427445 7.484452190058845e-06 0.011547832032112014 0.009644789479415094 0.0038103630184324884
0.0 0.011824946391672782 0.0015336720717568962 0.0006386028552886238 0.005158496944727169 1.9728142434125924e-06 0.03948991622726524 0.00016650247949588965
-2.3976364206345303e-06 -0.0010895721468470593 -0.002610089828799552 -0.00020990238895809575 0.0 -0.006570548267420367 -0.0019434690376264826 -8.202965211341181e-05
-0.002181084576087509 -1.7827893602099581e-06 -0.01275744043997785 -0.0009594250718686216 -8.711236161028835e-07 0.0004601814509338622 0.0017849939169275486 0.00012978915799139956
0.0 0.0005837276721483523 0.00014340088874962515 7.754222047286979e-05 0.0016703205116323212 -9.475234384194458e-07 0.005531655172368227 -0.00033774123372372724
00000000: 89e1 1ff9 9633 b53e a68f 82e8 69fa 67bf
00000010: a7a6 35d8 1346 70bf 39c3 af27 f887 4dbf
00000020: 0000 0000 0000 0000 6b00 ea7f af6a 753f
00000030: 646f acf1 bd39 683f c37e 4253 d256 37bf
00000040: 9696 4bc9 8ee4 6cbf e48e c715 89e5 b63e
00000050: 5347 939e b8e0 6ebf 8f33 24b1 6dea 533f
00000060: 359b 8d4c c2d6 fbbe d86a 76d1 3ec3 68bf
00000070: 622c 8e19 7ee8 81bf 39c6 d008 2f74 063f
00000080: 0000 0000 0000 0000 a286 e10d 40c4 a5bf
00000090: 2844 6ec4 ac25 7dbf 4311 69b6 db7b d4be
000000a0: b8c9 d975 b041 80bf 54a7 7720 fcb8 cabe
000000b0: 0731 893f 0831 b2bf a981 4ef3 8643 75bf
000000c0: 2ffd 73dc 80b2 f03e bdb7 f188 91ca 75bf
000000d0: c37e adb1 e828 8cbf 5917 368b 66bc 59bf
000000e0: 0000 0000 0000 0000 df80 4169 b86b 7d3f
000000f0: 533b c538 f618 7e3f 300b 4cea 2aec 48bf
00000100: 9569 b84d f6a8 8cbf 1318 05e3 aae9 cb3e
00000110: 83f8 1dbe 6708 99bf 2b50 9018 011a 643f
00000120: e864 59f1 59d5 d4be 78b2 e936 4d57 6b3f
00000130: cf2e cd36 af46 883f 027c 28b2 dd51 343f
00000140: 0000 0000 0000 0000 bb0b f1d9 0c2a 943f
00000150: 90bd 335a fc57 753f aa15 a760 3de0 393f
00000160: ce53 9e67 cb2b 833f 19de 58fe 22a6 66be
00000170: 9827 2530 6971 aa3f a72d 5771 8649 583f
00000180: 7358 3f9b eb01 e5be e2ff 8147 6fdf 6d3f
00000190: ae4c 2e59 cdff 6b3f c99d e1fb 94f4 613f
000001a0: 0000 0000 0000 0000 6992 37e8 4ebc 8ebf
000001b0: b3b6 5a61 e1da 74bf 6a05 0640 6296 3d3f
000001c0: 5f86 2cef f1c9 673f 3f12 105c baf3 c03e
000001d0: e9de 9dd4 83ce 88bf fd3d ccd0 eb1a 61bf
000001e0: 9ee2 788d 5e64 df3e 5f4a 57c7 63a6 873f
000001f0: 598c 20bb a5c0 833f bf0d 9a11 e936 6f3f
00000200: 0000 0000 0000 0000 d1c6 3b70 ad37 883f
00000210: 94e3 05d9 af20 593f a6dc 7530 fdec 443f
00000220: 1f31 c97a 1321 753f 8408 9c19 968c c03e
00000230: 7b8e 6fb5 0538 a43f 79be 8468 e5d2 253f
00000240: 1a51 d48f e21c c4be c096 302f ffd9 51bf
00000250: 5ec2 894e c161 65bf 6cfb b6ca 2783 2bbf
00000260: 0000 0000 0000 0000 3946 ce1e b8e9 7abf
00000270: e5f2 45fd 7fd7 5fbf bed2 48b1 ea80 15bf
00000280: 7c46 92dd 10de 61bf 7d25 a5a1 05e9 bdbe
00000290: c552 c3ab 9220 8abf 7ceb 3fa7 3d70 4fbf
000002a0: 9afc 1b17 e53a adbe e548 3048 9028 3e3f
000002b0: 0af6 ca9f ce3e 5d3f 85d9 bd60 0003 213f
000002c0: 0000 0000 0000 0000 55a9 7da1 a920 433f
000002d0: 1d2d 3a41 bccb 223f 39c6 3634 c553 143f
000002e0: 79c2 29fe d45d 5b3f 9e19 8613 2acb afbe
000002f0: a0db ed60 5ca8 763f 469d a88d 5b22 36bf

exp_avg_sq f8 [8, 12]
1.867464693503233e-12 6.217041439957584e-07 7.298016282612782e-07 2.461396030637973e-08 0.0 8.777646347063217e-07 1.8453555583619405e-07 2.227324691794168e-08
3.061025962570136e-07 1.2839473124304125e-12 2.2534209197167204e-06 3.294780289559985e-08 1.67206178711773e-10 5.071453743851727e-05 1.7669791985266224e-05 4.2840605462488763e-10
0.0 8.673862517137954e-05 1.0133872317219718e-06 8.314308459403116e-08 1.2476344780004922e-06 1.2775782081112765e-11 0.0004787111061988197 5.826855478737334e-07
3.3177658546850803e-11 5.804847105833605e-06 1.2533604475639489e-05 7.355865274101716e-08 0.0 2.0595664339383717e-06 1.1295055104354192e-06 3.580132010436129e-07
4.347919261331436e-06 7.606185222376596e-12 6.276352996583425e-05 1.3055370494547374e-07 2.0093842935756036e-11 3.504998938702911e-05 2.2504182268040027e-05 2.8599151069316063e-09
0.0 2.2757797948523187e-05 5.660893921165036e-07 6.599073035705473e-07 1.8757875379638046e-06 4.210115425881155e-13 0.0003205347293887919 4.9035530632591494e-08
1.4279554611682964e-11 5.339847273773905e-06 1.4567132821708854e-06 1.619610196988718e-07 0.0 9.332836179615203e-06 5.268698056121402e-07 4.698663851120837e-08
2.4977300583299913e-07 2.070230511549181e-12 3.471783960842276e-05 9.244910961829041e-08 2.408045536768119e-11 2.7423313770370903e-05 7.241532447717119e-06 4.292237364407167e-07
0.0 8.580131572280954e-06 5.743168149201506e-08 7.796732255912728e-08 5.506728352436524e-07 2.9811064698025403e-12 0.00014102393209331895 2.2343903037448616e-09
6.753481853957373e-12 3.0346813163119134e-06 1.5609159153850764e-06 1.4239976315175896e-09 0.0 2.921049284689456e-06 8.16416508972038e-08 2.1776082558412468e-08
1.26565077384541e-07 3.0037819326273733e-12 2.5600160529630074e-05 2.1670694915118446e-08 4.101695808279625e-12 3.5336000202200316e-06 1.7305519625836754e-06 8.10208009813559e-10
0.0 8.807525526202936e-07 5.26277642491774e-09 6.510595423737425e-08 6.477543743468454e-08 3.067220326897635e-13 2.1005482782453412e-05 3.3187661718602314e-09
00000000: 3a56 241a 286d 803d da7c e7de 65dc a43e
00000010: a1f0 a2c0 f27c a83e e00e db79 d56d 5a3e
00000020: 0000 0000 0000 0000 5709 39d8 f073 ad3e
00000030: 1610 40ea 97c4 883e db73 146a 6cea 573e
00000040: b12c 9c74 cd8a 943e fdde 9f77 6296 763d
00000050: c5c2 7240 2fe7 c23e 06c5 afc1 4fb0 613e
00000060: 0ba6 475e 0bfb e63d cd2f e33c ca96 0a3f
00000070: 248f f8db 3287 f23e deaf 1459 9970 fd3d
00000080: 0000 0000 0000 0000 0f1d d03b eebc 163f
00000090: 36a4 720b 7700 b13e 05ce cb9c 8c51 763e
000000a0: 4a7b a39d 8cee b43e 4996 c83c 2018 ac3d
000000b0: f571 9c8b 705f 3f3f fde7 0812 3b8d a33e
000000c0: f5de 1620 573d c23d 8619 fb38 e858 d83e
000000d0: c832 7c7b ed48 ea3e ad06 1381 e9be 733e
000000e0: 0000 0000 0000 0000 e36f 039f e246 c13e
000000f0: da8e 3e71 30f3 b23e 3614 b4b5 9e06 983e
00000100: 52ad 34f2 8a3c d23e 9d4c 59d0 e6b9 a03d
00000110: a3a5 fd3b fd73 103f f2dd 7888 ca85 813e
00000120: 7edc 17fa e917 b63d cf61 1377 5460 023f
00000130: 6f9f 3ca1 eb98 f73e c034 8413 0591 283e
00000140: 0000 0000 0000 0000 f8bd 78f7 ffdc f73e
00000150: e99d ecbc abfe a23e 49b3 ce81 8f24 a63e
00000160: 0b00 9035 7278 bf3e a4a3 670b 45a0 5d3d
00000170: a8aa 112e ae01 353f bb3e f85a 6453 6a3e
00000180: 5f09 d1b2 ac66 af3d b988 c10a 9e65 d63e
00000190: c553 2c31 8970 b83e f470 fb31 f0bc 853e
000001a0: 0000 0000 0000 0000 5ba6 c93c 8792 e33e
000001b0: 8048 87f4 c6ad a13e 5085 615f cb39 693e
000001c0: fec9 ff4b 11c3 903e 746e 5ca3 be35 823d
000001d0: facc b9e2 bf33 023f c6ae a0ef 0dd1 783e
000001e0: 7b93 58ad 0b7a ba3d b081 cdc5 63c1 fc3e
000001f0: 4c85 4448 895f de3e 0c8d dff4 01ce 9c3e
00000200: 0000 0000 0000 0000 bd6d cf4d 6cfe e13e
00000210: 1bc0 bba6 59d5 6e3e 5109 d3a4 dfed 743e
00000220: 5d67 f35e 3e7a a23e 14e4 d6e0 da38 8a3d
00000230: 6339 435a fa7b 223f 52eb dbea 7931 233e
00000240: c52f 779d beb3 9d3d f2a4 6ab2 ed74 c93e
00000250: 9428 ee32 1530 ba3e b3b1 f8cc ce76 183e
00000260: 0000 0000 0000 0000 6077 b0d3 e780 c83e
00000270: bcfd 8e1c 5fea 753e 54c0 2e95 c361 573e
00000280: fb6e ac31 befc 803e 4ce9 8364 ea6b 8a3d
00000290: ecdd cda2 fdd7 fa3e 40a8 2d96 cb44 573e
000002a0: 57c9 5f53 190a 923d e9b6 b227 59a4 cd3e
000002b0: d964 5d01 aa08 bd3e 9300 dc3e aad6 0b3e
000002c0: 0000 0000 0000 0000 ec29 7958 9b8d ad3e
000002d0: 139c 23df 7b9a 363e d237 3e0f 0c7a 713e
000002e0: 60c3 e48b 5563 713e 98d5 aeb5 6995 553d
000002f0: 68cb 0fc9 9d06 f63e b794 0943 0b82 2c3e

exp_avg f8 [8]
-0.0017493133788269231 -0.15701195090021824 -0.03125965954186488 0.1070627091742587 -0.033316152002557324 0.08379439755540309 -0.028010434040227933 0.010244933856122632
00000000: 9e3c 29f0 26a9 5cbf cc4a 19b5 f718 c4bf
00000010: e832 d51e 4401 a0bf 344c 8632 7668 bb3f
00000020: ff20 8f8e d00e a1bf 89a6 16b5 8c73 b53f
00000030: 1822 9968 c4ae 9cbf a2d2 e4be 4bfb 843f

exp_avg_sq f8 [8]
5.780489166414365e-06 0.001967818323960992 0.00014736280302962007 0.001192065891988999 0.00015044837350785214 0.0005708776942924517 0.00010144083476674403 7.51353820561447e-05
00000000: 1d88 5fc3 c03e d83e 1d77 116b d01e 603f
00000010: 008f ddd6 ac50 233f ef4a 5401 e387 533f
00000020: b98e 1ab0 35b8 233f e8cc 7483 deb4 423f
00000030: 45ea 6d45 9497 1a3f 2999 e908 40b2 133f
