lightning_logs/version_13/checkpoints/epoch=9-step=160.ckpt (torch, 14835 bytes, 24 tensors)

encoder.layers.0.linear.weight f4 [12, 6]
-0.16924056 -0.11976712 0.0028218098 0.09372599 -0.09184139 -0.14439127 -0.16924241 0.42979237
-0.346973 0.18858303 0.5515602 0.15317397 0.4616993 0.11896307 0.055225197 -0.19952929
-0.43455356 -0.44434485 -0.22535214 0.21837862 -0.19855501 0.17366357 -0.14748208 -0.09600991
-0.27923462 0.46097404 0.12647581 0.38279176 -0.061975352 -0.2128221 0.37727797 0.27396628
0.30969676 -0.3680891 -0.53567433 0.2316039 -0.08793067 0.20235613 -0.48379427 -0.3972754
-0.0704773 0.24309865 -0.46304286 -0.14297442 -0.4045065 -0.11711471 0.2972272 0.3737856
0.20031567 -0.044033233 0.30353206 0.46922114 0.19813061 -0.08433113 0.28283644 0.044050694
0.03920727 0.0007810548 0.22218817 0.22856744 -0.11311477 0.18760097 0.05748542 -0.41389352
-0.37667322 0.39674315 -0.12726973 0.24239197 -0.53378433 0.06283549 0.06874788 -0.029992193
00000000: 664d 2dbe 7748 f5bd 1dee 383b 69f3 bf3d
00000010: 5717 bcbd 4edb 13be e24d 2dbe bf0d dc3e
00000020: 72a6 b1be e91b 413e 0d33 0d3f a3d9 1c3e
00000030: da63 ec3e e9a2 f33d d133 623d 6851 4cbe
00000040: ce7d debe 2b81 e3be b6c2 66be a59e 5f3e
00000050: 0152 4bbe ddd4 313e 8b05 17be d8a0 c4bd
00000060: d7f7 8ebe ca04 ec3e e082 013e 48fd c33e
00000070: ded9 7dbd 09ee 59be 942a c13e 4f45 8c3e
00000080: 9390 9e3e 2d76 bcbe f421 09bf 9329 6d3e
00000090: ff14 b4bd 7236 4f3e e2b3 f7be ae67 cbbe
000000a0: 6756 90bd daee 783e f413 edbe e367 12be
000000b0: 7a1b cfbe d6d9 efbd 2a2e 983e d360 bf3e
000000c0: 8d1f 4d3e 315c 34bd 8e68 9b3e c13d f03e
000000d0: c0e2 4a3e cdb5 acbd f0cf 903e 806e 343d
000000e0: cd97 203d b3bf 4c3a 4c85 633e 950d 6a3e
000000f0: b7a8 e7bd 781a 403e d575 6b3d dae9 d3be
00000100: 50db c0be eb21 cb3e ff52 02be 9a35 783e
00000110: 17a6 08bf e5af 803d b0cb 8c3d 30b2 f5bc

encoder.layers.0.linear.bias f4 [12]
0.0056752814 -0.21595852 -0.2457719 -0.010524198 0.20737043 0.076650575 -0.26943308 0.523805
0.35656765 -0.46806768 0.42551777 -0.019208524
00000000: b6f7 b93b 3b24 5dbe a1ab 7bbe b06d 2cbc
00000010: ea58 543e fafa 9c3d 22f3 89be 1618 063f
00000020: 0990 b63e 91a6 efbe 77dd d93e 325b 9dbc

encoder.layers.2.linear.weight f4 [4, 12]
0.15888186 0.22141835 0.096266195 0.0008209129 0.4309868 0.03278987 -0.15687908 -0.23052397
-0.03301919 0.20701404 0.0431623 0.21771067 -0.147088 -0.0062550306 -0.1736471 0.18137902
0.04154348 -0.24681376 -0.055883642 0.16502526 0.12818424 0.12000874 -0.3083387 -0.027020765
-0.15199667 0.26825693 -0.4451373 0.2271596 -0.21730804 -0.39427155 0.27378935 0.3131179
0.16850714 -0.11857644 0.41089472 0.27811164 0.11147039 -0.16043441 0.3191913 0.18365829
0.31698474 0.2839006 -0.29094142 -0.019217882 0.3518783 0.012484517 0.39836407 -0.3185511
00000000: edb1 223e 7ebb 623e 3627 c53d 8832 573a
00000010: 4daa dc3e ac4e 063d e9a4 20be 7a0e 6cbe
00000020: 213f 07bd 7dfb 533e f4ca 303d 8cef 5e3e
00000030: 3d9e 16be 00f7 ccbb 8cd0 31be 6cbb 393e
00000040: 7f29 2a3d bfbc 7cbe 3fe6 64bd 62fc 283e
00000050: bb42 033e 24c7 f53d 92de 9dbe a75a ddbc
00000060: 04a5 1bbe f958 893e 09e9 e3be 879c 683e
00000070: 0086 5ebe f6dd c9be 1e2e 8c3e fd50 a03e
00000080: 238d 2c3e 34d8 f2bd cb60 d23e a664 8e3e
00000090: 964a e43d eb48 24be 0b6d a33e eb10 3c3e
000000a0: d34b a23e 6b5b 913e 46f6 94be d26e 9dbc
000000b0: 6429 b43e dc8b 4c3c 60f6 cb3e 2119 a3be

encoder.layers.2.linear.bias f4 [4]
0.30915225 -0.36041635 0.007285434 0.21113236
00000000: 3449 9e3e 7e88 b8be a6ba ee3b 1533 583e

decoder.layers.0.linear.weight f4 [12, 4]
-0.1630757 -0.40682745 0.024893215 0.31664407 -0.37098318 -0.33831334 0.45628628 -0.3535281
-0.20916843 0.10401273 0.034842372 -0.2974249 0.3605856 -0.33337668 0.5538588 -0.08001797
-0.25369936 -0.10438296 0.35658038 0.005372709 0.399163 0.4641669 0.058556568 -0.3786271
-0.35488653 -0.23132806 0.56067467 -0.112199545 0.5345154 -0.6075124 -0.51308155 0.2289152
0.25598377 0.08151738 -0.24202089 -0.18910521 -0.38211316 -0.4324563 0.29508924 0.5768961
-0.3721032 -0.27088547 -0.008212209 -0.2727446 0.23867074 0.31804162 0.38263747 0.23684138
00000000: 51fd 26be b04b d0be dbec cb3c 2c1f a23e
00000010: 82f1 bdbe 6837 adbe 5b9e e93e a301 b5be
00000020: 4030 56be a004 d53d e0b6 0e3d 1448 98be
00000030: ad9e b83e 59b0 aabe b1c9 0d3f 76e0 a3bd
00000040: e2e4 81be bcc6 d5bd b491 b63e 8d0d b03b
00000050: 185f cc3e 49a7 ed3e 03d9 6f3d 69db c1be
00000060: b0b3 b5be 43e1 6cbe 6088 0f3f e0c8 e5bd
00000070: 00d6 083f ef85 1bbf 5059 03bf bf68 6a3e
00000080: 4e10 833e 96f2 a63d 53d4 77be cca4 41be
00000090: 56a4 c3be ea6a ddbe f015 973e 76af 133f
000000a0: 5084 bebe 80b1 8abe 808c 06bc 2ea5 8bbe
000000b0: 1a66 743e 5ad6 a23e 0fe9 c33e 8c86 723e

decoder.layers.0.linear.bias f4 [12]
0.12687482 -0.24236517 -0.41562736 0.2594651 0.17898169 -0.29232004 0.2897738 0.38842332
0.5744234 -0.3699836 -0.45291644 0.30308524
00000000: 79eb 013e 932e 78be 1ccd d4be 9cd8 843e
00000010: fa46 373e f9aa 95be 3b5d 943e 6cdf c63e
00000020: 690d 133f 7e6e bdbe aae4 e7be fd2d 9b3e

decoder.layers.2.linear.weight f4 [6, 12]
-0.01696437 -0.19166571 -0.21977122 -0.0145562645 -0.30608943 0.28648415 -0.32113466 0.10073203
0.2211312 0.11145389 0.020403495 0.004252438 0.3383698 0.18711053 0.18666336 0.20548329
-0.026851885 -0.16217977 0.15063192 0.33704904 0.3268865 -0.09556547 0.1047449 0.26290277
0.22782291 -0.013344444 -0.08100161 -0.25660354 -0.43861368 0.033649202 -0.33079958 0.286565
-0.21030645 0.3674085 0.14034875 -0.32675344 0.11476237 -0.24001297 0.011843666 -0.18920437
-0.23536621 0.2137849 -0.18248384 -0.15607882 -0.1476084 -0.43391576 -0.07229518 0.2285314
-0.010638141 0.32134974 -0.2232988 -0.1824871 0.38549078 0.16298153 0.3142466 -0.3165687
0.048744652 -0.29776078 -0.19053635 0.091639824 0.25170374 0.10208462 0.14464535 0.22392695
-0.087615676 -0.17935218 0.3286171 -0.17031659 -0.0855965 -0.027518077 0.23131843 -0.20771384
00000000: ddf8 8abc 0444 44be b50b 61be 667d 6ebc
00000010: c1b7 9cbe 0dae 923e c36b a4be 984c ce3d
00000020: 3870 623e f041 e43d 3b25 a73c 0958 8b3b
00000030: ce3e ad3e e799 3f3e ae24 3f3e 366a 523e
00000040: 7cf8 dbbc 7412 26be 413f 1a3e b191 ac3e
00000050: ab5d a73e d4b7 c3bd 7e84 d63d 319b 863e
00000060: 694a 693e a8a2 5abc 2ce4 a5bd 8a61 83be
00000070: f991 e0be bfd3 093d 905e a9be a6b8 923e
00000080: 935a 57be f81c bc3e 95b7 0f3e 3a4c a7be
00000090: 8908 eb3d f6c5 75be f00b 423c cabe 41be
000000a0: d703 71be 6eea 5a3e 0bdd 3abe 20d3 1fbe
000000b0: a826 17be 352a debe 7f0f 94bd 2304 6a3e
000000c0: 994b 2ebc f487 a43e 71a8 64be e6dd 3abe
000000d0: 0c5f c53e a1e4 263e eee4 a03e 4b15 a2be
000000e0: 79a8 473d 1a74 98be f61b 43be a9ad bb3d
000000f0: 50df 803e be11 d13d e91d 143e 1b4d 653e
00000100: d96f b3bd 19a8 37be 8040 a83e 7967 2ebe
00000110: 384d afbd 976d e1bc bdde 6c3e f0b2 54be

decoder.layers.2.linear.bias f4 [6]
0.0038342753 -0.005264066 0.1972355 -0.13516055 0.23680896 -0.10050726
00000000: 7748 7b3b 307e acbb 1af8 493e 8767 0abe
00000010: 0c7e 723e c0d6 cdbd

exp_avg f4 [12, 6]
-3.42895e-05 -0.00010947324 0.00013886763 -9.636207e-05 -1.0755159e-05 -0.00053481525 0.0012327696 -0.005553435
0.0031902937 9.5573865e-05 -9.7002696e-05 -0.00026809867 -0.0014281089 -0.00016345458 -0.0024363373 0.00069342565
0.0015998378 0.0003057719 0.0007965284 -0.0019433338 0.0012819985 0.0007816217 -0.00026716327 0.00039872335
0.0023005654 -0.0057474184 0.0070014307 -0.0009708675 -0.0014867969 -0.00088356517 -0.0011118905 0.0008334947
-0.0022829182 0.002837264 0.0018746032 0.00089115294 -0.00014465184 0.0007915576 -0.0010882416 0.0029039301
-0.0023836596 -0.00172083 -0.00017241634 0.0004828193 -0.0014190569 0.003747765 -0.0023853616 -0.0006559965
-0.00015831941 0.0002253432 -0.0002643036 0.00062019104 0.0002548576 0.00025601068 -0.00020187435 0.00011847787
-0.00043409163 -0.00017562248 0.00092355337 0.001099815 0.0011364436 -0.003299935 0.0023146803 0.0069394195
-0.000772615 -0.001135784 0.00080551923 -0.006711615 0.0022460297 -1.9814004e-05 -0.00054388057 -0.0007097922
00000000: 12d2 0fb8 0095 e5b8 ff9c 1139 fe15 cab8
00000010: 0e71 34b7 d832 0cba e294 a13a 97f9 b5bb
00000020: 3f14 513b d46e c838 ed6d cbb8 988f 8cb9
00000030: 622f bbba 0165 2bb9 f5aa 1fbb 02c7 353a
00000040: a6b1 d13a 0250 a039 1ece 503a 76b7 feba
00000050: bb08 a83a bfe5 4c3a 0c12 8cb9 be0b d139
00000060: 15c5 163b d754 bcbb 426c e53b d181 7eba
00000070: a0e0 c2ba 0e9f 67ba dbbc 91ba e27e 5a3a
00000080: 039d 15bb 64f1 393b 3fb5 f53a 439c 693a
00000090: afad 17b9 8880 4f3a 54a3 8eba dd4f 3e3b
000000a0: 2c37 1cbb 798d e1ba a9ca 34b9 e922 fd39
000000b0: a6ff b9ba 109d 753b ba53 1cbb 2ef7 2bba
000000c0: 8b02 26b9 1b4a 6c39 3b92 8ab9 5194 223a
000000d0: 689e 8539 2c39 8639 3cae 53b9 5277 f838
000000e0: cb96 e3b9 4d27 38b9 9e1a 723a ab27 903a
000000f0: b8f4 943a b943 58bb e4b1 173b 1264 e33b
00000100: 5189 4aba 96de 94ba 7b29 533a 1bed dbbb
00000110: 2032 133b 4036 a6b7 3593 0eba 5911 3aba

exp_avg_sq f4 [12, 6]
2.3322574e-08 1.1984113e-08 3.287797e-08 2.2596868e-08 1.2092084e-07 1.6975574e-07 1.1438874e-06 4.433008e-06
5.939672e-06 1.9239678e-06 1.7532467e-06 5.5030677e-07 4.713688e-07 1.7912846e-06 2.1654328e-06 8.9216473e-07
1.140709e-06 3.310528e-07 2.7668113e-07 2.0155887e-06 1.9020707e-06 6.0747936e-07 7.247482e-07 1.102807e-07
7.490095e-07 3.5054575e-06 5.9954446e-06 1.7563929e-07 1.6950352e-06 5.88619e-07 1.6974299e-06 6.682095e-06
1.2328788e-05 7.4936986e-07 4.9186974e-06 1.4302367e-06 2.9493235e-06 3.1679226e-06 1.2889325e-05 9.453285e-06
1.2350129e-05 5.441043e-06 1.5775994e-06 5.06962e-07 8.269433e-06 4.1662247e-06 8.118864e-06 2.1732299e-06
1.2697122e-07 9.670154e-07 9.59865e-07 5.1126915e-07 8.067277e-08 2.094888e-08 3.3037784e-07 1.8440953e-07
1.1333167e-06 4.570385e-07 2.3474875e-06 2.6111568e-06 9.4053524e-07 1.953687e-05 4.4639605e-06 1.3328816e-05
1.8650488e-06 1.5110343e-06 2.2073643e-06 7.7797295e-06 9.5179885e-06 4.6847645e-06 4.167752e-06 1.5572705e-06
00000000: e256 c832 b0e2 4d32 b635 0d33 0a1b c232
00000010: 78d6 0134 1a46 3634 ac87 9935 40bf 9436
00000020: 654d c736 841d 0136 1951 eb35 cbb8 1335
00000030: 6f10 fd34 126c f035 da51 1136 187d 6f35
00000040: 761a 9935 8dbb b134 c48a 9434 8d43 0736
00000050: a74a ff35 aa11 2335 518c 4235 75d3 ec33
00000060: 8a0f 4935 4d3f 6b36 7a2c c936 5c97 3c34
00000070: f780 e335 9701 1e35 3fd3 e335 c236 e036
00000080: bed7 4e37 4e28 4935 4a0b a536 8ff6 bf35
00000090: feec 4536 7f98 5436 3b3f 5837 8d99 1e37
000000a0: 6633 4f37 3492 b636 e7bd d335 2a16 0835
000000b0: f2bc 0a37 99cb 8b36 4136 0837 ced7 1136
000000c0: 9555 0834 65ca 8135 b6d4 8035 263e 0935
000000d0: 533e ad33 13f3 b332 c95e b134 1b02 4634
000000e0: 771c 9835 e55e f534 8789 1d36 553b 2f36
000000f0: 1779 7c35 1ce3 a337 21c9 9536 d49e 5f37
00000100: 9752 fa35 bece ca35 3b22 1436 af85 0237
00000110: 73af 1f37 d231 9d36 b8d8 8b36 6803 d135

exp_avg f4 [12]
0.00025999057 -0.0032811607 -0.00034193226 -0.0017878882 -0.0032528136 -0.0006177425 -0.0012606006 -0.0025090172
-0.00016413172 0.00045150094 -0.0040389635 -0.0039245533
00000000: 584f 8839 be08 57bb 5f45 b3b9 9357 eaba
00000010: 282d 55bb ffef 21ba bd3a a5ba 536e 24bb
00000020: c61a 2cb9 6eb7 ec39 4859 84bb 8a99 80bb

exp_avg_sq f4 [12]
6.2094294e-08 4.2670845e-06 1.5211518e-06 1.5032668e-06 1.5126923e-06 2.1988963e-06 1.0035961e-05 3.9502224e-06
7.420665e-07 8.7157673e-07 2.0697706e-05 8.890475e-06
00000000: b358 8533 fa2d 8f36 612a cc35 dbc3 c935
00000010: b607 cb35 c090 1336 2060 2837 278c 8436
00000020: 6c32 4735 4cf6 6935 fc9f ad37 4d28 1537

exp_avg f4 [4, 12]
0.00028443924 -0.0072830333 0.005949726 -0.00641886 -0.0075105643 0.013429724 -0.003035133 -0.0003834218
0.0015024305 0.0005481164 0.008363503 -0.009395359 -0.00055637397 -0.00092538004 0.0019917248 -0.002033318
-0.004293458 0.00681546 0.002107078 0.0027138568 -0.002780805 0.00032127334 0.0070676906 -0.0011818281
0.00019038725 -0.0050437553 0.002487168 -0.0015048466 -0.0011552466 0.0010604504 -0.004362612 -0.008579469
0.001768258 -0.00023858921 -0.0039795954 -0.00421462 -8.597219e-05 0.0007060934 -0.0028736673 -0.00036829483
0.00024659783 -0.004597413 -0.0014718407 -0.0010302621 0.0006259766 0.00025528012 -0.0048617898 -0.0008107749
00000000: ca20 9539 83a6 eebb ebf5 c23b 4d55 d2bb
00000010: 2e1b f6bb 5808 5c3c 15e9 46bb 0106 c9b9
00000020: 34ed c43a 78af 0f3a 1307 093c feee 19bc
00000030: a0d9 11ba 3495 72ba 9987 023b 6a41 05bb
00000040: 23b0 8cbb 3954 df3b e716 0a3b f6da 313b
00000050: 2b3e 36bb 9470 a839 1698 e73b 92e7 9aba
00000060: b0a2 4739 1646 a5bb c1ff 223b 463e c5ba
00000070: a56b 97ba d0fe 8a3a 3ef4 8ebb e790 0cbc
00000080: e5c4 e73a ce2d 7ab9 4467 82bb cc1a 8abb
00000090: f84b b4b8 2019 393a 2354 3cbb b217 c1b9
000000a0: cd49 8139 e5a5 96bb c7ea c0ba dc09 87ba
000000b0: 9418 243a 1ed7 8539 a64f 9fbb 2f8a 54ba

exp_avg_sq f4 [4, 12]
5.4966726e-08 4.830395e-06 2.7008984e-06 3.2692474e-06 3.134271e-06 1.6782647e-05 3.0971273e-06 1.0887476e-05
1.1883296e-06 6.459481e-07 9.703423e-06 7.1205263e-06 2.1407187e-07 9.587529e-07 1.9354143e-06 1.1678834e-06
4.5724105e-06 6.4511296e-05 1.0225647e-06 5.6788954e-06 8.011398e-06 2.4375592e-07 6.644349e-05 3.5051372e-07
5.280603e-08 2.2433718e-05 1.5181233e-06 1.5424753e-06 6.0404466e-07 3.6612007e-06 3.8896094e-05 0.00023119526
3.6791298e-06 9.582095e-07 8.6584205e-06 1.5034132e-05 5.336785e-09 2.4256067e-06 1.110908e-06 1.1190636e-07
1.9819681e-06 9.405058e-06 6.5548325e-06 4.6534253e-05 2.73453e-06 2.6847326e-07 3.4105353e-06 1.2776098e-06
00000000: 8e14 6c33 c714 a236 1541 3536 3e65 5b36
00000010: 5e56 5236 76c8 8c37 3ed8 4f36 5aa9 3637
00000020: b27e 9f35 3765 2d35 e2cb 2237 dbec ee36
00000030: a1db 6534 80ae 8035 2ae2 0136 2bc0 9c35
00000040: b56c 9936 3d4a 8738 0e3f 8935 578d be36
00000050: b168 0637 8fdd 8234 9457 8b38 3d2e bc34
00000060: d8cc 6233 0b30 bc37 52c2 cb35 0c07 cf35
00000070: a225 2235 f3b2 7536 5d24 2338 016d 7239
00000080: f8e6 7636 d49b 8035 a243 1137 1b3b 7c37
00000090: db5e b731 9bc7 2236 821a 9535 2c51 f033
000000a0: f401 0536 6bca 1d37 95f1 db36 c62d 4338
000000b0: de82 3736 af22 9034 8de0 6436 577a ab35

exp_avg f4 [4]
0.0052069635 0.00078577833 -0.004631114 -0.0031224706
00000000: 2d9f aa3b b1fc 4d3a 9ac0 97bb 5da2 4cbb

exp_avg_sq f4 [4]
8.432128e-06 6.7595436e-05 0.00010572504 1.0348833e-05
00000000: b777 0d37 06c2 8d38 b3b8 dd38 e69f 2d37

exp_avg f4 [12, 4]
-0.00829002 -0.0057871942 0.0020296292 -0.0010063555 0.0007503213 -0.0012292438 0.003247011 0.00044930802
0.0 0.0 0.0 0.0 0.0031156368 -0.0049395403 -0.010368537 0.010763556
0.0007708069 0.0045482377 -0.0070710466 -0.0010412368 -2.1503334e-05 8.4743015e-06 -0.0002267947 5.4722037e-05
-0.0045938953 0.0030766067 -0.005571572 -0.003611641 -0.0020878746 0.00093878777 -0.0037577816 0.0006024163
0.0001232023 -0.005176681 -0.008738406 0.009295895 0.007583997 0.011099592 0.0026389845 -0.005626732
0.0 0.0 0.0 0.0 -0.010141994 -0.007960311 -0.012028776 0.0073215934
00000000: ddd2 07bc 81a2 bdbb 8703 053b b0e7 83ba
00000010: 36b1 443a 941e a1ba cecb 543b 1a91 eb39
00000020: 0000 0000 0000 0000 0000 0000 0000 0000
00000030: b62f 4c3b dedb a1bb cce0 29bc a059 303c
00000040: fa0f 4a3a 6209 953b 3db4 e7bb 1c7a 88ba
00000050: 0f62 b4b7 d92c 0e37 bdcf 6db9 5785 6538
00000060: 6388 96bb e5a0 493b bc91 b6bb 48b1 6cbb
00000070: b9d4 08bb fb18 763a 1d45 76bb 79eb 1d3a
00000080: de2f 0139 26a1 a9bb 882b 0fbc cf4d 183c
00000090: 2e83 f83b 10db 353c d0f2 2c3b 7360 b8bb
000000a0: 0000 0000 0000 0000 0000 0000 0000 0000
000000b0: 9b2a 26bc f76b 02bc 5814 45bc fae9 ef3b

exp_avg_sq f4 [12, 4]
2.658681e-05 1.23049995e-05 4.123244e-06 5.0309165e-05 6.129948e-08 1.534743e-07 1.3235713e-06 7.462216e-08
0.0 0.0 0.0 0.0 1.0269663e-05 1.6135451e-05 4.5497873e-05 6.4342516e-05
3.1941017e-06 3.6192396e-06 4.5294597e-05 7.0352335e-06 4.010733e-11 5.13479e-12 6.11795e-09 3.9715248e-10
3.3715569e-06 1.4611536e-05 6.576018e-05 4.639043e-05 2.0103205e-05 2.121008e-05 2.5085808e-06 3.7272326e-05
1.0408912e-05 1.9809022e-05 4.4682598e-05 7.11354e-05 6.064026e-06 1.1159502e-05 2.2336373e-05 1.1195777e-05
0.0 0.0 0.0 0.0 6.742106e-06 5.515843e-06 5.3145657e-05 1.7750008e-05
00000000: bd06 df37 9271 4e37 655a 8a36 0e03 5338
00000010: bfa3 8333 b2ca 2434 90a5 b135 f73f a033
00000020: 0000 0000 0000 0000 0000 0000 0000 0000
00000030: de4b 2c37 9e5a 8737 f8d4 3e38 a0ef 8638
00000040: 405a 5636 10e2 7236 b4fa 3d38 3210 ec36
00000050: d764 302e 14aa b42c 0f36 d231 3e56 da2f
00000060: e842 6236 1224 7537 bae8 8938 5893 4238
00000070: 4ea3 a837 4dec b137 1759 2836 db54 1c38
00000080: f0a1 2e37 8d2b a637 9369 3b38 872e 9538
00000090: 9679 cb36 b239 3b37 ff5e bb37 7fd5 3b37
000000a0: 0000 0000 0000 0000 0000 0000 0000 0000
000000b0: 403a e236 bb14 b936 b7e8 5e38 dae5 9437

exp_avg f4 [12]
0.0031844191 0.0028527193 0.0 0.0036242108 -0.007287311 -9.7989156e-05 -0.006552074 -0.0010732868
0.001818146 -0.004485194 0.0 -0.0017956487
00000000: b0b1 503b b0f4 3a3b 0000 0000 2b84 6d3b
00000010: 65ca eebb 877f cdb8 c8b2 d6bb 87ad 8cba
00000020: db4e ee3a 89f8 92bb 0000 0000 f95b ebba

exp_avg_sq f4 [12]
0.00011644724 1.4325702e-06 0.0 0.00027515157 0.00012397306 1.1296037e-09 0.0003955667 2.6163283e-05
0.00032183278 2.3181172e-05 0.0 0.0001287619
00000000: 2335 f438 bd46 c035 0000 0000 3842 9039
00000010: c4fe 0139 6640 9b30 1064 cf39 3979 db37
00000020: aabb a839 3075 c237 0000 0000 4204 0739

exp_avg f4 [6, 12]
-0.0018152025 -0.0015831504 0.0 2.7250455e-05 -0.0021284907 -4.9631285e-07 -0.0038188172 0.00073342014
0.0008824289 -0.002207857 0.0 0.0016863957 0.013547427 0.0073496928 0.0 -0.004146872
0.005187778 3.126343e-05 0.008004587 0.014905967 -0.0014549278 0.014031488 0.0 -0.0073329816
-0.0092899725 0.006270509 0.0 0.015912475 0.0101232175 5.7528873e-06 0.017290872 -0.025132269
-0.0020076195 -0.007118572 0.0 0.009424319 0.0041078413 0.0028067934 0.0 -0.0115060685
0.0044016805 -3.5437337e-05 0.00695754 -0.012255966 -0.008948144 0.009467435 0.0 -0.014171709
-0.00016598536 -0.00050873944 0.0 0.0007530429 0.0011508898 -6.7033194e-05 0.0023029547 -0.0032843694
-0.002119938 0.0012655233 0.0 -0.0014969241 0.0032241163 -0.0012419908 0.0 -4.9175545e-05
-9.365761e-05 -8.268086e-05 0.00016760042 0.007313776 0.0033669053 0.00048586234 0.0 -0.000770572
00000000: 17ec edba b681 cfba 0000 0000 e897 e437
00000010: 267e 0bbb 5c3a 05b5 1f45 7abb fe42 403a
00000020: cd52 673a b2b1 10bb 0000 0000 0d0a dd3a
00000030: 07f6 5d3c b1d5 f03b 0000 0000 7ce2 87bb
00000040: 3cfe a93b da20 0338 ac25 033c 2838 743c
00000050: 47b3 beba 54e4 653c 0000 0000 8249 f0bb
00000060: f834 18bc d878 cd3b 0000 0000 e15a 823c
00000070: dadb 253c ed08 c136 96a5 8d3c 30e2 cdbc
00000080: 4492 03bb e942 e9bb 0000 0000 7568 1a3c
00000090: 129b 863b 2ef2 373b 0000 0000 f383 3cbc
000000a0: f93b 903b 8da2 14b8 13fc e33b 3fcd 48bc
000000b0: 3c9b 12bc 4d1d 1b3c 0000 0000 7530 68bc
000000c0: 5b0c 2eb9 ed5c 05ba 0000 0000 db67 453a
000000d0: 74d9 963a 2c94 8cb8 2bed 163b 933e 57bb
000000e0: a8ee 0abb eadf a53a 0000 0000 7034 c4ba
000000f0: b24b 533b 4cca a2ba 0000 0000 d741 4eb8
00000100: 0c6a c4b8 f364 adb8 e5bd 2f39 66a8 ef3b
00000110: 4ca7 5c3b 57bb fe39 0000 0000 3600 4aba

exp_avg_sq f4 [6, 12]
7.3826614e-06 3.737997e-07 0.0 7.1920235e-06 2.1318788e-06 8.170474e-12 7.827793e-06 6.307926e-05
5.0490744e-06 1.0339378e-06 0.0 1.9605395e-06 0.00011485558 2.826446e-06 0.0 0.00046060095
1.8305484e-05 2.1521829e-10 5.221215e-05 0.00083246885 0.00037090163 9.069549e-06 0.0 0.0002398134
3.1040818e-05 1.8216699e-05 0.0 0.00018829007 7.300627e-05 2.0040254e-11 0.00024328224 0.00021936628
0.00012760844 3.929358e-06 0.0 0.00012784934 1.5553862e-05 1.1018685e-06 0.0 5.5884688e-05
3.1809825e-06 1.911597e-10 1.3221327e-05 0.00012013297 3.7258378e-05 4.689198e-06 0.0 3.2003896e-05
7.868375e-06 1.3613067e-06 0.0 1.0825307e-05 4.1959524e-06 9.853072e-10 1.4058788e-05 6.410434e-05
4.3804694e-06 1.8436133e-06 0.0 5.6442677e-06 2.2132825e-05 3.6728472e-06 0.0 7.9651414e-05
9.192971e-06 1.7305035e-09 2.7450924e-05 0.00014309159 7.191955e-05 7.7642864e-07 0.0 5.325e-05
00000000: 94b8 f736 a4ae c834 0000 0000 0353 f136
00000010: 6611 0f36 8bbc 0f2d 1d54 0337 6b49 8438
00000020: 386b a936 d5c5 8a35 0000 0000 d091 0336
00000030: 9fde f038 f9ad 3d36 0000 0000 d07c f139
00000040: ba8e 9937 90a2 6c2f 5ffe 5a38 0a3a 5a3a
00000050: 9375 c239 6b29 1837 0000 0000 6b76 7b39
00000060: d331 0238 10d0 9837 0000 0000 bb6f 4539
00000070: f11a 9938 a446 b02d 9419 7f39 b005 6639
00000080: a1ce 0539 eed8 8336 0000 0000 4c0f 0639
00000090: aa79 8237 eae3 9335 0000 0000 ba65 6a38
000000a0: dd78 5536 ac2e 522f 2bd1 5d37 e6ef fb38
000000b0: e145 1c38 e757 9d36 0000 0000 ec3b 0638
000000c0: 6a02 0437 24b6 b635 0000 0000 579e 3537
000000d0: f5ca 8c36 6a6b 8730 09de 6b37 c16f 8638
000000e0: f2fb 9236 1272 f735 0000 0000 e463 bd36
000000f0: e1a9 b937 097b 7636 0000 0000 870a a738
00000100: 833b 1a37 aed6 ed30 6946 e637 db0a 1639
00000110: 84d3 9638 c56b 5035 0000 0000 c158 5f38

exp_avg f4 [6]
-0.0009146911 0.006430634 0.0026978333 -0.0070315017 -0.0033294137 0.004081061
00000000: e1c7 6fba 11b8 d23b 22ce 303b 8368 e6bb
00000010: 4b32 5abb 6cba 853b

exp_avg_sq f4 [6]
1.4608501e-05 0.0022606 0.0011535197 0.00017720071 2.5641877e-05 0.00051175745
00000000: 0917 7537 9326 143b b331 973a f4ce 3939
00000010: 8319 d737 7627 063a
