lightning_logs/version_15/checkpoints/epoch=9-step=380.ckpt (torch, 14835 bytes, 24 tensors)

encoder.layers.0.linear.weight f4 [12, 6]
0	0x3ea5e391	0.32400182
1	0xbdfb712f	-0.122774474
2	0x3dcb81f1	0.09936894
3	0x3e96f9bb	0.29487404
4	0x3e7db895	0.24777444
5	0x3c738c78	0.014865033
6	0x3ea8aed3	0.3294588
7	0x3cf829f2	0.030293439
8	0xbe227560	-0.15865088
9	0xbd4c83f4	-0.049930528
10	0x3d4db068	0.050217062
11	0xbf15e752	-0.5855609
12	0xbe313d80	-0.17308617
13	0xbc3cafb0	-0.011516497
14	0x3eaaa14e	0.3332619
15	0xbe826bc2	-0.25472838
16	0xbe905932	-0.2819305
17	0x3e38e3b5	0.18055613
18	0x3ea8e944	0.32990468
19	0x3ef76b1a	0.483239
20	0x3eedf55c	0.46476257
21	0x3eb7671a	0.35820848
22	0xbed3f697	-0.4139907
23	0xbc57e44e	-0.013176991
24	0x3eea042b	0.45706305
25	0x3ef9cdd5	0.4878985
26	0x3e439584	0.19100004
27	0x3e5b400f	0.21411155
28	0xbdc7d1ea	-0.09756835
29	0x3a24d231	0.00062874245
30	0xbe256147	-0.1615039
31	0xbdea127e	-0.11429308
32	0x3e267f02	0.16259387
33	0xbe09c946	-0.13455686
34	0xbe22cb29	-0.15897812
35	0xbe167f68	-0.14697039
36	0xbe230475	-0.15919669
37	0x3d8c7c87	0.06859689
38	0xbe2a5d83	-0.16637234
39	0x3e8c5c3f	0.27414128
40	0xbe9cfde7	-0.30662462
41	0x3e28cd67	0.16484605
42	0xbe6b7ebc	-0.22997564
43	0xbedb74ec	-0.42862642
44	0x3d97b631	0.07407797
45	0x3e917bab	0.28414664
46	0x3ce14a4e	0.027501252
47	0xbde081e5	-0.109622754
48	0x3dc7fe43	0.097652934
49	0x3e9c0cc6	0.30478495
50	0x3ee323c7	0.44363233
51	0xbd8a8783	-0.06764128
52	0xbeeda89b	-0.46417698
53	0xbe9794ec	-0.29605806
54	0x3f293542	0.6609689
55	0x3e591b12	0.21201733
56	0x3f153846	0.5828899
57	0xbf1d6e2f	-0.6149625
58	0xbddf74f4	-0.10910979
59	0x3e3a4696	0.18190989
60	0x3daf3773	0.08555498
61	0xbe495d7d	-0.19664569
62	0x3e8fdedb	0.28099713
63	0xbd11a4fa	-0.035557725
64	0x3e7436e3	0.23849063
65	0xbd8429fc	-0.064533204
66	0x3d7b2c36	0.06132146
67	0x3da4b214	0.08041778
68	0xbde540ea	-0.11194022
69	0xbe779a1d	-0.24179883
70	0xbbf9327d	-0.0076048956
71	0xbf2ef98a	-0.68349516

encoder.layers.0.linear.bias f4 [12]
0	0xbe156ca9	-0.14592232
1	0xbd7732c0	-0.060351133
2	0x381081e8	3.445326e-05
3	0x3f1f74ce	0.62287605
4	0x3e266635	0.16249926
5	0xbecdb13d	-0.40174285
6	0xbe8c7e56	-0.27440137
7	0xbea3d02c	-0.3199476
8	0x3eff2b06	0.49837512
9	0x3e3fa79e	0.18716285
10	0xbede4918	-0.4341514
11	0x3ee79cca	0.45236808

encoder.layers.2.linear.weight f4 [4, 12]
0	0x3e38dbd3	0.18052606
1	0x3e8950cc	0.26819456
2	0x3e2e38f2	0.1701391
3	0x3ecf7cd3	0.4052492
4	0x3ee6204e	0.44946522
5	0xbdbb767e	-0.0915346
6	0x3e478a76	0.19486412
7	0xbdc676d3	-0.09690633
8	0x3eb79cfd	0.3586196
9	0x3dcc7776	0.09983723
10	0xbbe27954	-0.006911436
11	0xbdaf0120	-0.085451365
12	0x3e2d0b32	0.16898802
13	0xbdd17136	-0.102266714
14	0x3db2ffc3	0.08740189
15	0xbd5fff79	-0.054686997
16	0x3ec815f9	0.39079264
17	0xbe157064	-0.14593655
18	0x3e386988	0.18009007
19	0xbd41cd0b	-0.047314685
20	0xbec441b0	-0.38331366
21	0x3e0ff476	0.14058098
22	0x3d24a708	0.040198356
23	0xbf203f69	-0.62596756
24	0x3e3a3ce3	0.18187289
25	0xbd644842	-0.055732973
26	0x3eeec9af	0.46638247
27	0xbec47ace	-0.38374943
28	0xbe7a1f19	-0.24425925
29	0xbdad8899	-0.084733196
30	0xbcdc5343	-0.026895171
31	0x3e417068	0.18890536
32	0x3e23564a	0.15950885
33	0x3ea47d4a	0.32126838
34	0xbc08a908	-0.008341081
35	0x3e34717e	0.17621419
36	0x3e5d6837	0.21621786
37	0xbf1d7c9f	-0.6151828
38	0xb9ab7174	-0.0003270019
39	0x3e88ba2c	0.26704538
40	0xbee5c3ea	-0.44876033
41	0xbd951163	-0.07278707
42	0x3e5f64ad	0.21815749
43	0x3e4571f6	0.19281754
44	0x3ec5f5a9	0.38663986
45	0x3e7f54bd	0.24934669
46	0xbcac2131	-0.02101192
47	0x3ea44fa4	0.3209201

encoder.layers.2.linear.bias f4 [4]
0	0xbd29eccd	-0.041485596
1	0xbe5c8cfe	-0.21538159
2	0xbdd063fa	-0.10175319
3	0x3dc498e1	0.09599472

decoder.layers.0.linear.weight f4 [12, 4]
0	0x3c2d7877	0.010587803
1	0x3ea92327	0.33034632
2	0x3e0531d9	0.13007297
3	0xbe12cae6	-0.14335212
4	0xbd8650bf	-0.0655837
5	0x3e540964	0.20706707
6	0xbef29a26	-0.4738323
7	0xbcecc9a8	-0.028904751
8	0x3f355025	0.70825416
9	0xbf0b3c26	-0.54388654
10	0xbe8a4212	-0.27003533
11	0xbef5b64c	-0.47990644
12	0xbe7a2458	-0.24427927
13	0xbcba2000	-0.022720337
14	0xbeb3d172	-0.35120732
15	0xbecfa94a	-0.40558845
16	0x3dc30939	0.095232435
17	0xbf0ab3e8	-0.54180765
18	0x3f0b251e	0.5435351
19	0x3f0d27ac	0.5513866
20	0xbc16b014	-0.009197254
21	0xbe568b3c	-0.20951551
22	0xbf37c5c2	-0.7178613
23	0xbe215d63	-0.1575828
24	0x3efae7b2	0.49004894
25	0xbeb28e49	-0.3487418
26	0x3f1c56c7	0.6106991
27	0x3ea1ba3b	0.31587395
28	0x3e43ed3d	0.19133468
29	0xbe826b15	-0.25472322
30	0x3e172188	0.14758885
31	0x3e87c054	0.26513922
32	0xbec24979	-0.3794668
33	0xbf3c7fc6	-0.73632467
34	0x3ed4e98d	0.41584435
35	0x3dd75768	0.10514718
36	0xbd9cb2d5	-0.07651297
37	0x3e964af9	0.29354075
38	0x3eb0950f	0.34488723
39	0xbe0f010d	-0.13965245
40	0x3e85b923	0.2611781
41	0xbf087671	-0.5330573
42	0x3f0c3da3	0.5478155
43	0x3e6e99e8	0.23300898
44	0x3f38e491	0.72223765
45	0x3e422eaf	0.18963121
46	0xbef105b1	-0.47074655
47	0x3ea7481c	0.32672203

decoder.layers.0.linear.bias f4 [12]
0	0xbd9c0e88	-0.07619959
1	0x3f35fa50	0.7108507
2	0xbde475c6	-0.11155276
3	0xbe7bd47c	-0.24592775
4	0x3f25d4c3	0.64777774
5	0x3f092a26	0.5357994
6	0xbd245b26	-0.04012599
7	0xbde8d389	-0.11368472
8	0x3e214a01	0.15750886
9	0xbe0153c8	-0.12629616
10	0xbcaddb86	-0.021222841
11	0xbd93e296	-0.07220952

decoder.layers.2.linear.weight f4 [6, 12]
0	0x3de8a1af	0.11358964
1	0xbc6bd47b	-0.014393921
2	0x3e586615	0.21132691
3	0xbdd611ed	-0.10452638
4	0xbe3df53b	-0.18550579
5	0xbec047aa	-0.37554675
6	0x3e83d012	0.25744683
7	0x3e520c51	0.20512511
8	0xbea8ee54	-0.3299433
9	0xbe8ef7d2	-0.27923447
10	0x3e1b2790	0.1515181
11	0xbd125f26	-0.035735272
12	0xbe7d4fa5	-0.24737413
13	0x3ee3694e	0.4441628
14	0x3e9c3496	0.3050887
15	0x3e6a3b6d	0.22874232
16	0x3e1a92f8	0.15095127
17	0x3ea6fa20	0.32612705
18	0x3dd8a105	0.10577587
19	0xbe64154a	-0.22273746
20	0xbea67575	-0.32511488
21	0x3e2d322a	0.16913667
22	0xbde6959b	-0.11259004
23	0x3e1d15c2	0.15340331
24	0xbe2634f1	-0.16231133
25	0xbef19bc7	-0.4718916
26	0x3e0f32e3	0.13984255
27	0x3e1b4564	0.15163189
28	0xbdac1330	-0.08402097
29	0xbeb5cb49	-0.35506657
30	0x3e1fd29e	0.15607688
31	0x3e8f209a	0.2795456
32	0xbe30abf0	-0.17253089
33	0xbdf92d90	-0.121668935
34	0x3e613847	0.21994124
35	0x3f0e4aac	0.5558269
36	0xbe81658d	-0.2527279
37	0x3c67db26	0.01415137
38	0x3f1ea315	0.61967593
39	0xbe809970	-0.25117064
40	0xbee0e5f4	-0.4392544
41	0x3e163a01	0.14670564
42	0xbdd54bef	-0.10414874
43	0xbd9997ff	-0.07499694
44	0xbe7290e0	-0.23688078
45	0xbd1ac507	-0.037785556
46	0xbe9171f2	-0.28407246
47	0x3e03ebc1	0.12882902
48	0xbe612bbf	-0.21989344
49	0x3e1e56bd	0.15462776
50	0xbc525660	-0.012837976
51	0xbe4e37f8	-0.20138538
52	0x3e35a1db	0.17737524
53	0x3e5eb65e	0.21749255
54	0xbeb89f5a	-0.36059076
55	0xbeb041b1	-0.3442512
56	0x3d94fa13	0.0727426
57	0x3e67dcfe	0.22642896
58	0xbe232e1b	-0.15935557
59	0xbdfbbe81	-0.12292195
60	0xbe528f04	-0.20562369
61	0x3eede7a7	0.464658
62	0xbec9fa28	-0.39448667
63	0xbdce403c	-0.100708455
64	0x3e0352f8	0.12824619
65	0x3d9c6d35	0.07638017
66	0xbca79f53	-0.020461714
67	0xbe5f6e45	-0.21819408
68	0xbeb461eb	-0.35230955
69	0xbe343b15	-0.17600663
70	0xbe3a2b3d	-0.18180557
71	0xbd7018e8	-0.058617502

decoder.layers.2.linear.bias f4 [6]
0	0x3dc19ff2	0.09454335
1	0x3ea36889	0.31915691
2	0xbea8015c	-0.32813537
3	0x3d17bd04	0.037045494
4	0x3e4d296b	0.20035331
5	0x3e534aaf	0.20633958

exp_avg f4 [12, 6]
0	0xb8214f3c	-3.8459184e-05
1	0xb903bd5b	-0.00012563674
2	0xb8bef9e5	-9.1064525e-05
3	0xb8cd8927	-9.800708e-05
4	0x38b310b5	8.538497e-05
5	0x39471ae9	0.00018988144
6	0x39919af7	0.00027772013
7	0xba50a35b	-0.0007958912
8	0x39272bd0	0.00015942683
9	0xba6eb302	-0.0009105654
10	0x3a7f1d77	0.00097318686
11	0x3b4858f8	0.0030570608
12	0xba05bb5f	-0.0005101468
13	0x3b2de49c	0.0026533967
14	0xba3dc3d8	-0.0007238961
15	0x3a1ab4a1	0.00059015496
16	0x3a5eac06	0.00084942614
17	0x3a5a784e	0.0008333967
18	0x3a2aca2c	0.00065151113
19	0xbb0180d9	-0.0019760637
20	0xba4d07a1	-0.0007821266
21	0x3a43bfe8	0.0007467256
22	0xbaf654ed	-0.001879362
23	0xba753cde	-0.0009355078
24	0x3962b87e	0.00021621768
25	0x3a9fc599	0.0012189626
26	0xbaf32ca0	-0.0018552728
27	0x3a4f7128	0.0007913285
28	0xb994870c	-0.00028329378
29	0xb9310683	-0.00016882461
30	0x37bded0f	2.2640945e-05
31	0xb8828b23	-6.224799e-05
32	0x37c0a48e	2.296481e-05
33	0x396ceb53	0.00022594379
34	0x39adc3f5	0.0003314313
35	0x3a2b3748	0.000653137
36	0x350ab449	5.1671356e-07
37	0x38e15966	0.00010745488
38	0xb83a1cb8	-4.4372602e-05
39	0x37df1389	2.6592768e-05
40	0xb8472e73	-4.7488556e-05
41	0xb8cf7992	-9.8931734e-05
42	0xa6815010	-8.972874e-16
43	0x2426f4aa	3.620275e-17
44	0x279b2221	4.3058145e-15
45	0xa76e6a68	-3.3086818e-15
46	0xa81eeec2	-8.822534e-15
47	0xa8a550e2	-1.8353757e-14
48	0x3a7cbe6d	0.0009641413
49	0xbb39f1e6	-0.0028372942
50	0x3b1d032f	0.0023958196
51	0x3ab89f2f	0.0014085526
52	0xba76d86a	-0.00094164035
53	0x3a0100d7	0.00049210846
54	0xba582cfa	-0.0008246448
55	0x3a279c00	0.000639379
56	0xba5bf821	-0.0008391161
57	0x3a8df4d2	0.0010830408
58	0xb999519d	-0.0002924324
59	0xbac812aa	-0.0015264351
60	0x21032f8d	4.444746e-19
61	0x9fb7d2bb	-7.785214e-20
62	0x214bfd70	6.9114497e-19
63	0xa13df2e0	-6.4357133e-19
64	0xa09025da	-2.4419597e-19
65	0x9ecee566	-2.1905975e-20
66	0x3aa304d3	0.0012437351
67	0xbaf7b999	-0.0018899917
68	0x3b45c808	0.0030179042
69	0x3b325074	0.0027208598
70	0x3aaa6b34	0.001300192
71	0x3b6f54fc	0.003651916

exp_avg_sq f4 [12, 6]
0	0x3283ec02	1.5357731e-08
1	0x3463289d	2.1155797e-07
2	0x349fd20f	2.9768896e-07
3	0x32f3263e	2.8306314e-08
4	0x34a474e5	3.0632432e-07
5	0x3500b508	4.794715e-07
6	0x32a5902b	1.9274088e-08
7	0x343b90f5	1.7468467e-07
8	0x3359317a	5.056925e-08
9	0x34b46fbf	3.360892e-07
10	0x34accb8e	3.2185602e-07
11	0x358cf716	1.0502724e-06
12	0x34b42ce6	3.356028e-07
13	0x3711e967	8.697017e-06
14	0x3629189e	2.5197292e-06
15	0x37a0b771	1.9158908e-05
16	0x36137661	2.1973613e-06
17	0x36952047	4.4443036e-06
18	0x350879e9	5.084135e-07
19	0x3748eb8f	1.1975774e-05
20	0x366836b2	3.460253e-06
21	0x37111a3f	8.648784e-06
22	0x360941c7	2.0452878e-06
23	0x35c3ecaf	1.4597516e-06
24	0x3489e317	2.5683468e-07
25	0x37c23ffd	2.3156399e-05
26	0x361abbad	2.305703e-06
27	0x35de007f	1.6540433e-06
28	0x35becf1c	1.421638e-06
29	0x356c9ecb	8.8147925e-07
30	0x33378e9a	4.2737703e-08
31	0x3409d39c	1.2836102e-07
32	0x3449746b	1.8761936e-07
33	0x35ea009b	1.7434535e-06
34	0x34b074e6	3.286761e-07
35	0x34e99488	4.3507703e-07
36	0x33985e4d	7.095205e-08
37	0x3641d238	2.8881605e-06
38	0x35ede4fb	1.7724518e-06
39	0x333cf89b	4.3998266e-08
40	0x357e3d00	9.471114e-07
41	0x35867429	1.0017585e-06
42	0x2e04e356	3.021524e-11
43	0x2b055a2c	4.737623e-13
44	0x30221203	5.8960853e-10
45	0x2fd609c6	3.8933318e-10
46	0x3126e0d4	2.428398e-09
47	0x32370f22	1.0655443e-08
48	0x34e9dded	4.3561104e-07
49	0x36b225d3	5.3092167e-06
50	0x36230b91	2.4295625e-06
51	0x38eef0ab	0.00011393552
52	0x3627ee48	2.5023637e-06
53	0x37076a76	8.071414e-06
54	0x34258296	1.541433e-07
55	0x36afc9b5	5.238888e-06
56	0x3518a791	5.6868254e-07
57	0x3780ce17	1.5354757e-05
58	0x35481c66	7.454713e-07
59	0x3603b37e	1.9625e-06
60	0x2f4870ea	1.8230009e-10
61	0x2c9a258b	4.3811114e-12
62	0x2fc66f65	3.609514e-10
63	0x2fc1163d	3.5122297e-10
64	0x2e22362c	3.688265e-11
65	0x2c3b91f8	2.6655327e-12
66	0x3522f923	6.0712244e-07
67	0x364a1709	3.0113754e-06
68	0x3691f6f3	4.3500854e-06
69	0x38a96706	8.0777376e-05
70	0x3607618b	2.0173345e-06
71	0x36887567	4.0667833e-06

exp_avg f4 [12]
0	0xb841b0de	-4.6179506e-05
1	0xba039009	-0.00050187163
2	0xba0b9518	-0.0005324646
3	0xba90abf9	-0.001103758
4	0xb89ccbd4	-7.4766256e-05
5	0xb98420ad	-0.00025201347
6	0x38ac2fc2	8.210495e-05
7	0x2798c8f9	4.240637e-15
8	0xbb9ef07c	-0.0048504453
9	0xbadb6652	-0.0016738868
10	0x21137890	4.99651e-19
11	0xbb74b215	-0.003733759

exp_avg_sq f4 [12]
0	0x34162c42	1.398594e-07
1	0x3492463e	2.7245727e-07
2	0x35cb38d9	1.5141223e-06
3	0x36551a08	3.1754626e-06
4	0x37604369	1.3367136e-05
5	0x357f25be	9.5049825e-07
6	0x35e4af09	1.7038266e-06
7	0x303461c9	6.562258e-10
8	0x3810e4db	3.4545414e-05
9	0x36261694	2.474907e-06
10	0x2f8109ac	2.3471836e-10
11	0x379d3c64	1.874398e-05

exp_avg f4 [4, 12]
0	0xb77b20f6	-1.496844e-05
1	0x392419b5	0.00015649835
2	0x3880621f	6.121792e-05
3	0xbb353fbd	-0.00276564
4	0xb9e9d657	-0.0004460092
5	0xb8c43d44	-9.35742e-05
6	0xb7ad248e	-2.064023e-05
7	0xa6a4ea7b	-1.1443342e-15
8	0xbaf953ae	-0.0019022131
9	0xb9cf9d25	-0.00039599198
10	0x9f94e772	-6.306333e-20
11	0x39b14359	0.0003381025
12	0x35b79ac8	1.367961e-06
13	0x3b843594	0.0040347073
14	0xbb2152af	-0.0024615934
15	0x3acab399	0.0015464901
16	0x3a54d125	0.0008118323
17	0x39f6a0ab	0.00047040483
18	0x34d838a2	4.027434e-07
19	0x26b347de	1.24401e-15
20	0x3b4b0a1c	0.0030981367
21	0xbba774d5	-0.005110363
22	0x1f551f51	4.513041e-20
23	0x3c0c29dc	0.008554902
24	0xb71a7073	-9.205297e-06
25	0xba647cbd	-0.0008716097
26	0xba01039d	-0.0004921498
27	0xbad9ff93	-0.0016631953
28	0x39b9b1de	0.0003541847
29	0xb91e5872	-0.00015101003
30	0xb7cd6dcd	-2.4489034e-05
31	0xa5f21658	-4.199545e-16
32	0xbaf8e44e	-0.0018988939
33	0xba867dbb	-0.0010260859
34	0x9f486fa2	-4.2443988e-20
35	0xbac1f019	-0.0014796286
36	0x362149d3	2.403384e-06
37	0x3b0d544d	0.002156514
38	0xba700f93	-0.0009157594
39	0xba0791a8	-0.0005171546
40	0xba95323d	-0.001138277
41	0x39ac738b	0.00032892483
42	0x36b6f493	5.452495e-06
43	0x25f3e55e	4.2309206e-16
44	0x3a444881	0.00074876106
45	0xbb88951e	-0.004168167
46	0x9ee5f424	-2.4347292e-20
47	0x3aa44e71	0.0012535584

exp_avg_sq f4 [4, 12]
0	0x342fc56a	1.6369964e-07
1	0x34a87d40	3.138357e-07
2	0x35c38a36	1.4568857e-06
3	0x382fb305	4.1889976e-05
4	0x3714cb58	8.868832e-06
5	0x3575aa04	9.151702e-07
6	0x362cff7d	2.577871e-06
7	0x30b29f80	1.2996537e-09
8	0x38557dd9	5.0900362e-05
9	0x37a5bb11	1.9756642e-05
10	0x2eb01b69	8.0084224e-11
11	0x37d3e28c	2.5258654e-05
12	0x3387d02c	6.3242936e-08
13	0x3603c5b5	1.9635602e-06
14	0x360008bf	1.9078577e-06
15	0x36d0e469	6.2254735e-06
16	0x361c5aa1	2.3298564e-06
17	0x3407d42d	1.2650044e-07
18	0x3467d39d	2.1590536e-07
19	0x2e6d3bec	5.3940782e-11
20	0x37341e37	1.0735871e-05
21	0x38101618	3.435285e-05
22	0x2d9503ab	1.6940968e-11
23	0x37ed9fe6	2.832706e-05
24	0x3384624f	6.164611e-08
25	0x3511ab92	5.4266377e-07
26	0x3609a278	2.050916e-06
27	0x37d82b4a	2.5769365e-05
28	0x37b0d3ce	2.1079464e-05
29	0x33d4007b	9.872107e-08
30	0x340e75eb	1.3267679e-07
31	0x2dbd5d28	2.1528182e-11
32	0x3700ddb2	7.681012e-06
33	0x3845b2d9	4.7135025e-05
34	0x2e5c80e5	5.013669e-11
35	0x378e1400	1.6937032e-05
36	0x328b93db	1.6248967e-08
37	0x35076f7b	5.0453644e-07
38	0x369e72ce	4.722132e-06
39	0x37299c5f	1.0109593e-05
40	0x3689f628	4.1115745e-06
41	0x33b40c63	8.384156e-08
42	0x33a9b48b	7.902516e-08
43	0x2da4c879	1.8733669e-11
44	0x37a77c15	1.9965732e-05
45	0x38894c18	6.5468426e-05
46	0x2d8ba16d	1.5874158e-11
47	0x37b11b92	2.1112883e-05

exp_avg f4 [4]
0	0x3af800c6	0.0018921129
1	0x3b70c923	0.003674098
2	0x3b92acb0	0.0044761524
3	0xbb5d6cbc	-0.0033786735

exp_avg_sq f4 [4]
0	0x38017a1a	3.0869713e-05
1	0x384cb7cd	4.8808568e-05
2	0x38cd3938	9.7858196e-05
3	0x38b4a563	8.6138745e-05

exp_avg f4 [12, 4]
0	0x237406db	1.3228718e-17
1	0x229ab376	4.1931795e-18
2	0x238ea80b	1.546684e-17
3	0x22cb5362	5.5111545e-18
4	0x3b42dfdf	0.0029735488
5	0x3ab13a80	0.0013521463
6	0x3aae1198	0.001328039
7	0x3a7e1d0d	0.000969366
8	0xba196ec4	-0.0005852992
9	0x3b75aec7	0.0037488209
10	0x3b02d58d	0.0019963712
11	0x3a5999a0	0.0008300785
12	0x00000000	0.0
13	0x00000000	0.0
14	0x00000000	0.0
15	0x00000000	0.0
16	0x3b3e60d7	0.002904942
17	0xbae58a0c	-0.0017512455
18	0x3ac89199	0.001530218
19	0x3aa239ca	0.0012376842
20	0x3ae014c4	0.0017096032
21	0x3b3d7e9c	0.0028914576
22	0x3ada1f9a	0.0016641498
23	0x3a520b74	0.0008012571
24	0x39a0b43d	0.00030651866
25	0x3aa5688d	0.001261966
26	0x39866e3e	0.00025640609
27	0xb901add3	-0.00012367153
28	0xbb5b58f7	-0.0033469775
29	0x3b6f3271	0.0036498571
30	0xba30d915	-0.0006746215
31	0xbb297d9e	-0.0025862227
32	0xbad2bc5b	-0.0016077863
33	0x3bd6c532	0.006554269
34	0x39ea77d8	0.0004472125
35	0xba91973c	-0.0011107693
36	0x382add81	4.073745e-05
37	0x36b5c1f9	5.4168017e-06
38	0x3868bda7	5.5489738e-05
39	0x384d3992	4.8929425e-05
40	0xbac434b5	-0.0014969321
41	0x3a729ead	0.0009255212
42	0xb949af2b	-0.00019234109
43	0xba8d27da	-0.0010769323
44	0xbb0863c8	-0.0020811427
45	0xbafda6d9	-0.0019352093
46	0xba5d9f23	-0.0008454194
47	0xbb00aa7a	-0.0019632862

exp_avg_sq f4 [12, 4]
0	0x34888456	2.542826e-07
1	0x33652847	5.335485e-08
2	0x335f94c0	5.205652e-08
3	0x328c1f13	1.6312276e-08
4	0x381f1a34	3.7932958e-05
5	0x370d5b97	8.42558e-06
6	0x36c9d975	6.015582e-06
7	0x37e64058	2.7448099e-05
8	0x36fc6b61	7.522686e-06
9	0x3699913b	4.5766624e-06
10	0x36ca39ab	6.0267826e-06
11	0x3696c4a5	4.493241e-06
12	0x00000000	0.0
13	0x00000000	0.0
14	0x00000000	0.0
15	0x00000000	0.0
16	0x38125516	3.4888355e-05
17	0x3732f771	1.0667239e-05
18	0x37502ea6	1.2408627e-05
19	0x3809e89a	3.2879972e-05
20	0x372bf293	1.0248873e-05
21	0x3657a173	3.2131472e-06
22	0x35c076ce	1.4339691e-06
23	0x36b5b1d0	5.4149205e-06
24	0x37178d9a	9.0332705e-06
25	0x36b5369c	5.4005777e-06
26	0x35f3fc0d	1.8178267e-06
27	0x37a69c5f	1.9861558e-05
28	0x37328d7e	1.06425705e-05
29	0x370026d9	7.6384395e-06
30	0x3626043b	2.473839e-06
31	0x372208b2	9.657977e-06
32	0x36adfa4b	5.1849397e-06
33	0x37307597	1.0517796e-05
34	0x35b4a717	1.3459675e-06
35	0x370d5c05	8.42568e-06
36	0x33027992	3.037855e-08
37	0x31e5fcee	6.693532e-09
38	0x32b54347	2.1101767e-08
39	0x31d935e4	6.321658e-09
40	0x364c98e0	3.0487354e-06
41	0x368e19c0	4.2349275e-06
42	0x365783e9	3.2114278e-06
43	0x370c941a	8.379133e-06
44	0x3777f932	1.4780368e-05
45	0x36c92350	5.9943777e-06
46	0x36082b9b	2.029096e-06
47	0x37956a9f	1.7811833e-05

exp_avg f4 [12]
0	0x23e23714	2.4526296e-17
1	0xbc38d729	-0.011281767
2	0x3a8483d9	0.0010110094
3	0x00000000	0.0
4	0xbc03778b	-0.008024107
5	0xbbd87408	-0.006605629
6	0xb9449f16	-0.00018751281
7	0xba14b180	-0.00056722015
8	0xba905d73	-0.0011014178
9	0x38b4576a	8.599351e-05
10	0x3a1af5d1	0.0005911263
11	0x3a97db78	0.0011585793

exp_avg_sq f4 [12]
0	0x35b1c255	1.3244086e-06
1	0x3965dae5	0.00021920686
2	0x36b5c951	5.4176567e-06
3	0x00000000	0.0
4	0x39eba65c	0.0004494664
5	0x38857a5d	6.364726e-05
6	0x37928301	1.746556e-05
7	0x381fb70d	3.8079033e-05
8	0x37c96e62	2.4012468e-05
9	0x33c7bd6b	9.3011145e-08
10	0x37ac44ef	2.0536098e-05
11	0x37e00a92	2.6707803e-05

exp_avg f4 [6, 12]
0	0x20557def	1.808347e-19
1	0xbaf9a962	-0.0019047672
2	0x3aa09d9f	0.0012254006
3	0x00000000	0.0
4	0x39af4618	0.00033430825
5	0xba1dfa79	-0.0006026398
6	0x3a77f331	0.00094585406
7	0x3a753c8a	0.00093550293
8	0x3ae41ffe	0.0017404554
9	0x345d1df0	2.059312e-07
10	0x3ac91b15	0.0015343154
11	0xba226186	-0.00061943417
12	0x21087464	4.6232634e-19
13	0xbc001fb9	-0.007820063
14	0x3b0e7423	0.0021736703
15	0x00000000	0.0
16	0x3bc604af	0.006043039
17	0xbc0770eb	-0.008266668
18	0x3c364cff	0.011126756
19	0x3baa7416	0.005201827
20	0x3ae2f1cb	0.0017314492
21	0x34fde680	4.7292633e-07
22	0x3c0c149b	0.008549835
23	0x3ba61d59	0.0050694165
24	0x21a25955	1.1001193e-18
25	0x3bc1e293	0.0059169023
26	0x3b496dc1	0.0030735584
27	0x00000000	0.0
28	0x3bf5134a	0.007479106
29	0x3c1554ae	0.0091144275
30	0xbaf84340	-0.001894094
31	0xb905fc85	-0.00012777939
32	0x3c0f8f4d	0.008762193
33	0xb4869e36	-2.507456e-07
34	0x3aebe34f	0.001799682
35	0xbbb6e7e3	-0.0055818423
36	0x214e16fd	6.982594e-19
37	0x3bffcca5	0.007806378
38	0xbb16bddd	-0.002300135
39	0x00000000	0.0
40	0x3bbad276	0.0057013584
41	0x3bd199fa	0.0063965293
42	0xbb2427f9	-0.002504824
43	0xbae92dc9	-0.0017790134
44	0x3ae24f4f	0.0017266067
45	0x32f00f3c	2.7946605e-08
46	0xbacd8322	-0.0015679339
47	0xbad3c3f2	-0.0016156419
48	0xa2119153	-1.9728098e-18
49	0xbc1a5af8	-0.009421103
50	0x3b7b22b2	0.003832024
51	0x00000000	0.0
52	0xb9ee5ed9	-0.00045465564
53	0xbba92891	-0.0051623066
54	0x3b932307	0.0044902596
55	0x3b540556	0.0032351813
56	0x3bb25e86	0.005443397
57	0x34e18593	4.2006704e-07
58	0x3bbf1f92	0.005832621
59	0xbb0dc390	-0.0021631457
60	0xa2b34416	-4.8590136e-18
61	0xbb176131	-0.0023098702
62	0x3c0fc70e	0.008775486
63	0x00000000	0.0
64	0xba6be614	-0.0008998823
65	0x3b80c897	0.003930162
66	0x38e0e25f	0.00010723317
67	0x3ac68deb	0.0015148496
68	0x3ba1c67f	0.0049369927
69	0xb62aed88	-2.5470235e-06
70	0x3b2cdf14	0.0026378082
71	0xb9336dc3	-0.0001711166

exp_avg_sq f4 [6, 12]
0	0x30be6457	1.3852838e-09
1	0x371e4fe9	9.436139e-06
2	0x35e7d2e5	1.727222e-06
3	0x00000000	0.0
4	0x37ecbb95	2.8220742e-05
5	0x367d34ca	3.7730665e-06
6	0x37566917	1.2779862e-05
7	0x359d0622	1.1699196e-06
8	0x35b33e55	1.335468e-06
9	0x2f2da035	1.5791175e-10
10	0x36f6424c	7.3390893e-06
11	0x369222c8	4.355188e-06
12	0x31b5dd11	5.2929257e-09
13	0x399c8b8c	0.0002985861
14	0x3734d95a	1.0779442e-05
15	0x00000000	0.0
16	0x3b43ed1b	0.0029895965
17	0x38e7b9dd	0.00011049558
18	0x3a08742b	0.00052052987
19	0x3807fa74	3.241976e-05
20	0x37c84309	2.3873074e-05
21	0x2fc7ed7d	3.6366635e-10
22	0x3a270da4	0.0006372577
23	0x39a6404c	0.00031709892
24	0x32138218	8.586106e-09
25	0x3879b1a7	5.9531678e-05
26	0x3774d132	1.459224e-05
27	0x00000000	0.0
28	0x394fb4e0	0.0001980844
29	0x38058728	3.1835545e-05
30	0x38561905	5.1044877e-05
31	0x369de474	4.70556e-06
32	0x381f766c	3.8018843e-05
33	0x3115aed8	2.178174e-09
34	0x3812815f	3.49296e-05
35	0x3828a1d3	4.0205032e-05
36	0x3143c58a	2.8488523e-09
37	0x39298ed3	0.00016170302
38	0x3701527f	7.708207e-06
39	0x00000000	0.0
40	0x3aba0d33	0.0014194608
41	0x38a73782	7.97352e-05
42	0x390970e4	0.00013107393
43	0x3711c21c	8.687868e-06
44	0x381e1428	3.7688907e-05
45	0x30bf0d7f	1.3900915e-09
46	0x39879a55	0.00025864193
47	0x38b17a84	8.462838e-05
48	0x32a161f7	1.8787416e-08
49	0x38b58b86	8.656741e-05
50	0x36f507f4	7.302495e-06
51	0x00000000	0.0
52	0x38e106e0	0.000107301166
53	0x38290a24	4.0302184e-05
54	0x385dafd2	5.285425e-05
55	0x36e32586	6.7694955e-06
56	0x370e249f	8.472386e-06
57	0x3202d0ce	7.614473e-09
58	0x381610ac	3.5778314e-05
59	0x37617e3b	1.3440435e-05
60	0x32d88781	2.520733e-08
61	0x3795fded	1.7880428e-05
62	0x375d690d	1.31970855e-05
63	0x00000000	0.0
64	0x39110ec3	0.00013833777
65	0x3710e6f3	8.636841e-06
66	0x382c0ef4	4.102192e-05
67	0x36aed19b	5.2100054e-06
68	0x37756fad	1.46291395e-05
69	0x33330173	4.1678003e-08
70	0x380cd329	3.357526e-05
71	0x379d2d4c	1.8736951e-05

exp_avg f4 [6]
0	0xbb08e159	-0.002088627
1	0xbbb42ac7	-0.0054982635
2	0x3c0dfea9	0.008666673
3	0x3c2a3bcd	0.010390234
4	0xbc288f96	-0.01028814
5	0xbb86b64c	-0.004111087

exp_avg_sq f4 [6]
0	0x38078d4c	3.23181e-05
1	0x3b808901	0.003922582
2	0x397457e2	0.00023302392
3	0x3b12dec7	0.0022410618
4	0x393d5754	0.00018056977
5	0x38f56e29	0.00011703029
