lightning_logs/version_8/checkpoints/epoch=9-step=70.ckpt (torch, 14835 bytes, 24 tensors)

encoder.layers.0.linear.weight f4 [12, 6]
0	0x3ed8faf4	0.42378962
1	0xbebd5425	-0.3697826
2	0xbe8d7529	-0.2762845
3	0x3ce98d76	0.028509837
4	0xbe036e3c	-0.1283502
5	0x3e01404e	0.12622187
6	0xbd6126bd	-0.054968584
7	0xbd500855	-0.050789196
8	0x3ed7befb	0.42137894
9	0xbe95b30f	-0.29238173
10	0xbd24d043	-0.040237676
11	0xbe85f0db	-0.2616032
12	0x3ea8ac6c	0.32944047
13	0xbec75e32	-0.38939053
14	0xbea39460	-0.3194914
15	0x3d3e8007	0.046508815
16	0xbe88194d	-0.26581803
17	0x3d24df65	0.040252108
18	0xbd995ffc	-0.07489011
19	0x3e47ea31	0.1952293
20	0x3e1d7a14	0.153786
21	0xbe283def	-0.16429876
22	0xbd064dc6	-0.032789014
23	0x3ebbe8d5	0.36701074
24	0xbe2e5e85	-0.17028244
25	0xbe4c1df8	-0.19933307
26	0xbec1b9d8	-0.378371
27	0xbd35f285	-0.044420738
28	0x3dd027aa	0.10163815
29	0xbe9d9327	-0.3077633
30	0xbea555d2	-0.32292038
31	0xbeac67d2	-0.3367296
32	0xbe0fd8b7	-0.14047514
33	0x3e1cc07c	0.15307802
34	0xbd69d4c8	-0.05708769
35	0x3e260df9	0.16216268
36	0xbedfff1e	-0.43749326
37	0x3d1666ee	0.036719255
38	0x3e1d19b4	0.15341836
39	0x3d7132a2	0.058886178
40	0xbecb8b54	-0.39754736
41	0xbe9df8c9	-0.3085387
42	0xbde4872f	-0.11158597
43	0xbcd41ef6	-0.02589367
44	0xbd75e401	-0.060031895
45	0xbe3ecfe5	-0.18633993
46	0x3cf6bac2	0.03011835
47	0xbe6c4ce9	-0.23076214
48	0x3d03e8ab	0.03220431
49	0xbc7408d4	-0.014894683
50	0xbed2e0e0	-0.4118719
51	0x3d113477	0.035450425
52	0xbea802a8	-0.32814527
53	0x3dd56529	0.104196854
54	0x3e554eb2	0.20830801
55	0xbe2f7186	-0.1713315
56	0x3e8b0a4e	0.271563
57	0xbe0aa02a	-0.1353766
58	0x3e099c5d	0.13438554
59	0x3e53d67c	0.20687288
60	0xbe879e8e	-0.26488155
61	0x3c2afcd0	0.010436252
62	0xbe65da71	-0.2244661
63	0xbd657779	-0.05602214
64	0xbea522ba	-0.32253057
65	0xbea29089	-0.31750897
66	0xbe7e06bd	-0.24807258
67	0xbd798276	-0.060915433
68	0x3e916b32	0.28402096
69	0xbd12216b	-0.0356764
70	0x3e9e81fd	0.30958548
71	0x3ea30494	0.3183943

encoder.layers.0.linear.bias f4 [12]
0	0x3e9d6571	0.30741456
1	0x3eb98e0e	0.36241192
2	0xbe3ebcc6	-0.18626699
3	0xbed06651	-0.4070306
4	0x3ed58f35	0.4171082
5	0xbda18bce	-0.07887994
6	0x3e909862	0.2824126
7	0x3d97b428	0.07407409
8	0x3dd8a32d	0.10577998
9	0xbdb3c41d	-0.0877764
10	0xbde6eea4	-0.11275986
11	0x3e4be827	0.19912778

encoder.layers.2.linear.weight f4 [4, 12]
0	0xbe6cedb6	-0.23137555
1	0xbe46dd31	-0.19420315
2	0xbe7d15c4	-0.24715334
3	0xbde0098e	-0.109393224
4	0x3c7ac579	0.01530587
5	0xbe0ba00b	-0.1363527
6	0x3eaf4423	0.34231672
7	0x3ca36cb5	0.019949296
8	0xbd1ba834	-0.038002208
9	0x3dac8ecf	0.08425676
10	0x3df2b10a	0.11850174
11	0x3e689794	0.22714072
12	0xbd345230	-0.044023693
13	0x3ead6c39	0.3387163
14	0xbdd9ca6e	-0.106343135
15	0xbe856a23	-0.26057538
16	0x3e867261	0.2625914
17	0xbe6ee333	-0.23328857
18	0x3d4cf489	0.050037894
19	0x3e56aba0	0.20963907
20	0x3dfaff53	0.122557305
21	0xbdfdfc13	-0.12401595
22	0xbd389f3b	-0.04507373
23	0x3cce63c0	0.025194049
24	0x3e4243c7	0.18971168
25	0xbdd54d6d	-0.104151584
26	0xbe63494c	-0.2219593
27	0x3e1e039d	0.15431066
28	0x3e886cf9	0.2664564
29	0xbd8fce65	-0.070217885
30	0x3e0314f3	0.1280096
31	0xbd954d1c	-0.07290098
32	0x3e191bc1	0.14951994
33	0xbcfa64ad	-0.030565584
34	0x3e6013e9	0.21882595
35	0xbe386165	-0.18005903
36	0xbba059a2	-0.0048934976
37	0xbd636771	-0.05551857
38	0x3e292fba	0.16522112
39	0x3c959e6c	0.018264018
40	0xbe848858	-0.25885272
41	0xbd8c1cb8	-0.06841415
42	0xbe77ab2d	-0.24186392
43	0xbe7ce3b8	-0.24696243
44	0xbdf5183b	-0.11967512
45	0xbea692f2	-0.32533985
46	0xbe208b1e	-0.15678069
47	0xbe24633f	-0.16053484

encoder.layers.2.linear.bias f4 [4]
0	0x3e095850	0.13412595
1	0x3e158e11	0.14604975
2	0x3df4368e	0.11924468
3	0xbe2f4d58	-0.17119348

decoder.layers.0.linear.weight f4 [12, 4]
0	0x3da79a98	0.08183783
1	0xbd4c6660	-0.04990232
2	0xbe90c878	-0.28277946
3	0xbe59c0f0	-0.21265006
4	0x3e2e8002	0.17041019
5	0xbee5c440	-0.4487629
6	0xbef9bf53	-0.4877878
7	0x3ed83884	0.42230618
8	0x3e86a4be	0.26297563
9	0xbee8db66	-0.45479888
10	0x3e6b068c	0.22951716
11	0xbef6673e	-0.48125643
12	0x3ebd8a19	0.37019423
13	0xbd31a0c5	-0.043366212
14	0x3ebdb80b	0.37054476
15	0xbda3f98b	-0.08006581
16	0xbe807f7e	-0.2509727
17	0x3e85115c	0.25989807
18	0x3ee9dfa0	0.45678425
19	0x3d32aaa0	0.043619752
20	0xbdbdf873	-0.092759036
21	0xbe6e54d6	-0.2327455
22	0xbedddd94	-0.43333113
23	0xbe9f27c8	-0.31085038
24	0xbf00e8cc	-0.5035522
25	0xbe272a86	-0.16324815
26	0xbee48713	-0.44634303
27	0x3ee4adee	0.44663948
28	0x3e174514	0.14772445
29	0x3ef618d8	0.4806583
30	0xbec9c480	-0.3940773
31	0x3e8ee53c	0.27909267
32	0xbecb0cf4	-0.3965832
33	0x3d10f668	0.03539124
34	0xbec34868	-0.3814118
35	0x3ea4f88e	0.32220882
36	0x3e8c433a	0.2739504
37	0x3e6c3f84	0.23071104
38	0xbd9f3848	-0.07774407
39	0x3e1ac208	0.1511308
40	0xbe9d71bb	-0.30750832
41	0xbd69e2a0	-0.057100892
42	0x3eb30463	0.34964284
43	0x3f088a0a	0.5333563
44	0xbebdebda	-0.37094003
45	0xbea306c8	-0.3184111
46	0x3ec08eb6	0.3760888
47	0x3e27caf8	0.1638602

decoder.layers.0.linear.bias f4 [12]
0	0xbef0a1a6	-0.46998328
1	0x3e83cc4c	0.25741804
2	0xbe9117a8	-0.2833836
3	0x3eac2ca3	0.33627805
4	0xbef7d54e	-0.48404926
5	0x3dff36db	0.12461635
6	0x3ea34369	0.31887367
7	0xbe27a418	-0.1637119
8	0x3ed45ac4	0.414755
9	0xbe8cf44e	-0.2753014
10	0x3e762ef0	0.24041343
11	0xbe8e6914	-0.27814543

decoder.layers.2.linear.weight f4 [6, 12]
0	0x3ae39592	0.0017363301
1	0xbe35afe2	-0.17742875
2	0x3d194c2a	0.03742615
3	0xbe4ca905	-0.19986351
4	0x3e8c4c87	0.27402136
5	0x3e8e7b8c	0.27828634
6	0x3e0cd4a9	0.13752998
7	0x3e16e2e8	0.14734995
8	0xbba04c5b	-0.004891915
9	0x3dd746e6	0.1051157
10	0xbd067923	-0.03283037
11	0xbda81814	-0.082077175
12	0xbd86fe74	-0.06591502
13	0xbe57b238	-0.21064079
14	0x3e59c5a0	0.21266794
15	0x3d966923	0.07344272
16	0xbcdde2d2	-0.027085695
17	0xbe6790d1	-0.22613837
18	0xbe5a74c2	-0.21333602
19	0xbe41dfff	-0.18933104
20	0xbe1b8b35	-0.15189822
21	0xbc1c99c2	-0.009558143
22	0xbe2cd411	-0.16877772
23	0xbe445ca7	-0.19175969
24	0xbe696b82	-0.22794917
25	0xbe5f6663	-0.21816401
26	0xbe04a038	-0.12951744
27	0xbdc375b5	-0.09543935
28	0xbddf2206	-0.10895161
29	0xbe21bd99	-0.15794982
30	0x3e29314c	0.16522712
31	0x3e30cd16	0.17265734
32	0xbdb87fae	-0.09008728
33	0x3e3bbe66	0.1833435
34	0xbb7ab3b4	-0.0038254084
35	0x3c2e30cd	0.010631752
36	0x3e1e0296	0.15430674
37	0xbe04036d	-0.12891932
38	0x3d7e2464	0.062046424
39	0xbd926cd9	-0.07149667
40	0x3ccb8bbd	0.024846906
41	0x3e1523bd	0.14564414
42	0x3e34066f	0.17580579
43	0x3e567819	0.20944251
44	0xbdd66b47	-0.1046968
45	0x3d701ba2	0.058620103
46	0x3e5d80a0	0.21631098
47	0xbd29b8e4	-0.04143609
48	0x3e8c060b	0.2734836
49	0x3e839957	0.25702927
50	0xbe393c8d	-0.18089505
51	0xbe5bfae3	-0.21482424
52	0x3da5f047	0.0810247
53	0x3e719605	0.23592384
54	0x3df3ddd3	0.11907544
55	0x3d761fad	0.060088802
56	0x3e1a10cd	0.15045471
57	0xbe527690	-0.2055304
58	0x3e8662ce	0.26247257
59	0xbc170540	-0.00921756
60	0xbe8a37be	-0.26995653
61	0x3d98210d	0.07428179
62	0x3e1c2741	0.15249349
63	0x3e534605	0.20632179
64	0xbd1673cb	-0.036731523
65	0xbe46e13c	-0.19421858
66	0x3d0edc1a	0.034877874
67	0xbe8e0dd0	-0.27744913
68	0x3df99c03	0.1218796
69	0xbe6cfa07	-0.23142253
70	0x3c3e519b	0.011616136
71	0x3dc09a4a	0.09404428

decoder.layers.2.linear.bias f4 [6]
0	0xbe4b84be	-0.19874856
1	0xbe1ed2c8	-0.15510094
2	0xbe2d3f91	-0.1691878
3	0xbd4e8e17	-0.050428476
4	0xbe389e4f	-0.1802914
5	0x3e2d34fe	0.16914746

exp_avg f4 [12, 6]
0	0x3912457b	0.00013949529
1	0x3a324da5	0.0006801731
2	0xb960abd6	-0.00021426319
3	0xba7d19b6	-0.00096550153
4	0x396ba8a0	0.00022474164
5	0x37bc9e79	2.2485141e-05
6	0xba007300	-0.0004899949
7	0x3b3fa6d1	0.0029243717
8	0xb96fba70	-0.0002286227
9	0xb8abe8e2	-8.197293e-05
10	0xb9a43119	-0.00031317098
11	0xb8c95745	-9.600682e-05
12	0x38097b1b	3.2777996e-05
13	0x3761c341	1.3456506e-05
14	0xb5d2517e	-1.5669937e-06
15	0xb6f70c20	-7.362585e-06
16	0xb7a99d80	-2.0219712e-05
17	0x384c7901	4.8750084e-05
18	0x38cefb4b	9.8696524e-05
19	0x3937fa7f	0.00017545557
20	0x391efae0	0.00015161512
21	0xb88291c6	-6.2260355e-05
22	0xb84bb5c2	-4.8568247e-05
23	0xb728805f	-1.0043469e-05
24	0x3a82a221	0.0009966531
25	0xbc58412e	-0.013199134
26	0x3b1d068a	0.0023960196
27	0x3b629553	0.0034573867
28	0x37f6d138	2.942291e-05
29	0xb95aa94c	-0.00020853168
30	0x386ba29d	5.617981e-05
31	0xb812da3e	-3.5012366e-05
32	0x38e787fc	0.000110402674
33	0x38962105	7.158708e-05
34	0xb8ae1326	-8.300533e-05
35	0xb7e649f3	-2.7452572e-05
36	0x3905144c	0.0001269143
37	0xbcd2864d	-0.025698805
38	0x3a1132e5	0.0005538895
39	0x3bdecc63	0.006799267
40	0x3908be76	0.00013040923
41	0xb9d31b57	-0.00040265426
42	0xb9b952ad	-0.00035347548
43	0xbc038908	-0.008028276
44	0x3a0d4590	0.0005389089
45	0x3b413a2b	0.0029484134
46	0xb9dcc743	-0.00042110131
47	0xb8883606	-6.495048e-05
48	0x3a0c3c76	0.00053495856
49	0xbb82238f	-0.003971524
50	0x3a7afa9a	0.00095740857
51	0x3a6a457e	0.0008936747
52	0x39498fcd	0.00019222424
53	0xb73a45f1	-1.1102748e-05
54	0xb9ae34a6	-0.00033227092
55	0xba07d230	-0.00051811617
56	0xb9a553ec	-0.0003153378
57	0x39a5a917	0.00031597234
58	0x378b3341	1.6593958e-05
59	0xb6a1175c	-4.8008933e-06
60	0x39e35916	0.00043363188
61	0xbb449d8e	-0.0030001136
62	0x39b51bb2	0.00034543645
63	0x3a36a508	0.00069673406
64	0x3a159720	0.00057064183
65	0x39437b84	0.00018642662
66	0xba1b78f4	-0.0005930804
67	0xbbf1ab14	-0.0073751304
68	0x3960ace6	0.00021426714
69	0x3b1c317f	0.0023833213
70	0xb9da0ed0	-0.00041591236
71	0xb952f612	-0.00020118829

exp_avg_sq f4 [12, 6]
0	0x33ef3c93	1.1140323e-07
1	0x35c49de1	1.4649087e-06
2	0x35154934	5.561335e-07
3	0x35cdd61d	1.5336005e-06
4	0x33d2ed78	9.822082e-08
5	0x326a1343	1.3624972e-08
6	0x3487a7bf	2.526776e-07
7	0x36907d3e	4.3061145e-06
8	0x35377f70	6.835826e-07
9	0x357e987b	9.484426e-07
10	0x331e4a54	3.6854843e-08
11	0x31f1d68b	7.038414e-09
12	0x31a77a32	4.8742317e-09
13	0x3050e643	7.599718e-10
14	0x2d575473	1.22400865e-11
15	0x2ff29891	4.4127949e-10
16	0x309832b6	1.1073868e-09
17	0x32458bed	1.1498725e-08
18	0x33332050	4.1706073e-08
19	0x35309137	6.5776425e-07
20	0x34512990	1.9479762e-07
21	0x342254e1	1.5118304e-07
22	0x3221047f	9.372456e-09
23	0x30bab330	1.3584209e-09
24	0x359dc77e	1.1755471e-06
25	0x38956bcd	7.124953e-05
26	0x36f2e75c	7.239096e-06
27	0x371729ec	9.010062e-06
28	0x348d4006	2.630988e-07
29	0x33fd5338	1.1796368e-07
30	0x30a76b01	1.2181262e-09
31	0x2f2dfb31	1.58235e-10
32	0x314f6217	3.0178222e-09
33	0x310c97bb	2.045893e-09
34	0x30818b24	9.425531e-10
35	0x2e8350f8	5.971573e-11
36	0x35195c71	5.713146e-07
37	0x390b1cf8	0.00013266865
38	0x35b36761	1.3366626e-06
39	0x378ca6ad	1.6766915e-05
40	0x3313f9f3	3.4453432e-08
41	0x32ea6f0c	2.7291684e-08
42	0x338ff15f	6.7028616e-08
43	0x36bd6743	5.64466e-06
44	0x341ce89d	1.4613256e-07
45	0x3652c7b3	3.1408679e-06
46	0x32896d32	1.5998555e-08
47	0x311acbce	2.25258e-09
48	0x3317b749	3.5324124e-08
49	0x3681f010	3.8724465e-06
50	0x34abbf21	3.1990297e-07
51	0x345692c6	1.9983699e-07
52	0x31a9174c	4.921196e-09
53	0x322fbb5b	1.022894e-08
54	0x321b2b83	9.032081e-09
55	0x327e0df0	1.4787915e-08
56	0x32a53cc6	1.9236165e-08
57	0x329a82c4	1.7987425e-08
58	0x3142fbfa	2.8373948e-09
59	0x307aa141	9.1178626e-10
60	0x3399025f	7.125049e-08
61	0x3508ae8c	5.091795e-07
62	0x33fb9dd3	1.17168064e-07
63	0x3411fc4a	1.359596e-07
64	0x332b3bc7	3.9868407e-08
65	0x313e5d16	2.7701552e-09
66	0x332d8f90	4.041027e-08
67	0x3604f3dc	1.9811478e-06
68	0x341977db	1.4292839e-07
69	0x35813ec0	9.629512e-07
70	0x3310e790	3.3738218e-08
71	0x320f6241	8.346036e-09

exp_avg f4 [12]
0	0x3aa20ca6	0.0012363389
1	0x3aca8a36	0.0015452567
2	0x38738263	5.8057147e-05
3	0x39063ffe	0.00012803075
4	0xbc28fa90	-0.010313645
5	0xb8843a94	-6.3051615e-05
6	0xbca8ee74	-0.020621516
7	0xbbebba06	-0.0071938066
8	0xbb4037d4	-0.002933015
9	0xba10640d	-0.0005508073
10	0xbb08f634	-0.0020898702
11	0xbbd39a7f	-0.0064576264

exp_avg_sq f4 [12]
0	0x3632f631	2.666737e-06
1	0x365c10a7	3.2792248e-06
2	0x328335ae	1.5274818e-08
3	0x351e0550	5.886732e-07
4	0x38607312	5.351293e-05
5	0x30d81379	1.5721603e-09
6	0x38cfee76	9.914946e-05
7	0x36e74834	6.892742e-06
8	0x362434fd	2.4468748e-06
9	0x3309a83d	3.205081e-08
10	0x34b1f35c	3.3145886e-07
11	0x361667e3	2.2412212e-06

exp_avg f4 [4, 12]
0	0x3910b265	0.00013799367
1	0xbc51cb77	-0.012804857
2	0xb6d484c0	-6.3335465e-06
3	0xb83dae33	-4.5223347e-05
4	0xbbd03c2e	-0.00635483
5	0x36e176a4	6.719334e-06
6	0xbc1c7c5f	-0.009551137
7	0xbb2c61ba	-0.0026303367
8	0xbb863b68	-0.0040964372
9	0xb92b8061	-0.00016355656
10	0xba39efb3	-0.0007092908
11	0xbb3c1dc0	-0.0028704256
12	0xb98501fc	-0.00025369215
13	0xbbfecea5	-0.007776099
14	0xb643aff0	-2.9159673e-06
15	0xb7ac5513	-2.0543614e-05
16	0xbb73b376	-0.0037185824
17	0x36994e9a	4.5689058e-06
18	0xbb9af0a4	-0.0047283936
19	0xbae71a1c	-0.0017631683
20	0xbaf30c3c	-0.0018543075
21	0xb92cf0fb	-0.0001649297
22	0xb9ebcc3c	-0.0004497486
23	0xbb0fe2f3	-0.002195534
24	0x3a9a9d8e	0.0011796223
25	0xbc102222	-0.0087972
26	0x355e1fe2	8.274784e-07
27	0xb799f9ee	-1.8355404e-05
28	0xbae4ea74	-0.0017464892
29	0x37997237	1.8292207e-05
30	0xbbf31871	-0.007418685
31	0xba9c02e0	-0.0011902712
32	0xbaf966c0	-0.0019027814
33	0xb8b1a93e	-8.4715415e-05
34	0xba6777e0	-0.00088298135
35	0xbaf6ff62	-0.001884442
36	0x3a33f9b0	0.00068655144
37	0x3c3a7edc	0.011382785
38	0x37082dd4	8.116902e-06
39	0x38516cd7	4.9930848e-05
40	0x3b9ae260	0.004726693
41	0x35b42319	1.342126e-06
42	0x3bd9b6a9	0.0066440892
43	0x3ad1950f	0.0015989857
44	0x3b33989e	0.00274042
45	0x39183b13	0.00014517856
46	0xb8cbac89	-9.7119315e-05
47	0x3b2329d9	0.002489677

exp_avg_sq f4 [4, 12]
0	0x352daaeb	6.469624e-07
1	0x38539cfd	5.0452527e-05
2	0x2e5c074a	5.0028683e-11
3	0x32267e48	9.691185e-09
4	0x37847837	1.5791606e-05
5	0x2f5a3bad	1.9848186e-10
6	0x37332fd3	1.0680366e-05
7	0x3528e51f	6.291829e-07
8	0x3606437f	2.0006844e-06
9	0x312e7483	2.5386562e-09
10	0x3385a41a	6.223145e-08
11	0x34e0b517	4.1855012e-07
12	0x349a2396	2.8710627e-07
13	0x38090597	3.266855e-05
14	0x2f8851c5	2.4796357e-10
15	0x32b99e39	2.1608786e-08
16	0x368c83bc	4.187661e-06
17	0x2e25c820	3.7694403e-11
18	0x36b636fe	5.4304246e-06
19	0x34563a2c	1.9951466e-07
20	0x351961eb	5.713943e-07
21	0x30c225e1	1.4126124e-09
22	0x32870056	1.5716221e-08
23	0x34d67c69	3.9951126e-07
24	0x3438b13a	1.720081e-07
25	0x383ab751	4.4516582e-05
26	0x2f5a8ba5	1.9876596e-10
27	0x330f8ce4	3.342292e-08
28	0x366a82bb	3.4944812e-06
29	0x2ecf066a	9.4144095e-11
30	0x371a52a0	9.198353e-06
31	0x33bda32f	8.830681e-08
32	0x35352ff5	6.749754e-07
33	0x309eff88	1.1568639e-09
34	0x330096ed	2.993959e-08
35	0x349d1cc8	2.926447e-07
36	0x35dafb9f	1.6315497e-06
37	0x38f08b9d	0.00011470097
38	0x302d358b	6.301312e-10
39	0x3358f765	5.0516423e-08
40	0x37bd119f	2.2538761e-05
41	0x2f90ec5f	2.63614e-10
42	0x3799b2da	1.8322306e-05
43	0x354e583c	7.686938e-07
44	0x36330911	2.6678356e-06
45	0x3185d851	3.895402e-09
46	0x3340d064	4.4893014e-08
47	0x35823f08	9.704099e-07

exp_avg f4 [4]
0	0xbd04e678	-0.032446355
1	0xbc8fb74e	-0.017543461
2	0xbc9949a5	-0.018711874
3	0x3ce9c5c4	0.028536685

exp_avg_sq f4 [4]
0	0x3992a650	0.00027971203
1	0x391af035	0.00014776069
2	0x3958d7c4	0.00020679744
3	0x3a15d23b	0.00057152257

exp_avg f4 [12, 4]
0	0x00000000	0.0
1	0x00000000	0.0
2	0x00000000	0.0
3	0x00000000	0.0
4	0x3a0cc8ba	0.0005370487
5	0x3ac8ba8a	0.0015314382
6	0x3996d10b	0.0002876598
7	0xbaa6e221	-0.0012732187
8	0xb7bd232a	-2.254693e-05
9	0xb7c0a7d2	-2.2966331e-05
10	0xb78aeb25	-1.656038e-05
11	0x38021463	3.1013402e-05
12	0x3aee974e	0.0018203051
13	0x3bff6adf	0.0077947224
14	0x3af24268	0.0018482925
15	0xbbd42b90	-0.0064749196
16	0x00000000	0.0
17	0x00000000	0.0
18	0x00000000	0.0
19	0x00000000	0.0
20	0x3c18420b	0.00929309
21	0x3cb2bba7	0.021817995
22	0x3c160c64	0.009158228
23	0xbcb0a00a	-0.021560688
24	0x3a8da400	0.0010806322
25	0x3b76c601	0.003765464
26	0x3a5e8296	0.0008488087
27	0xbb4a7cbb	-0.00308971
28	0x00000000	0.0
29	0x00000000	0.0
30	0x00000000	0.0
31	0x00000000	0.0
32	0x3bded62c	0.0068004336
33	0x3c70e27d	0.0147024365
34	0x3bb045df	0.005379423
35	0xbc62f2fb	-0.013851876
36	0x00000000	0.0
37	0x00000000	0.0
38	0x00000000	0.0
39	0x00000000	0.0
40	0x3bf772e3	0.0075515374
41	0x3ca5a163	0.020218557
42	0x3c17f968	0.009275772
43	0xbca1394e	-0.019680645
44	0x00000000	0.0
45	0x00000000	0.0
46	0x00000000	0.0
47	0x00000000	0.0

exp_avg_sq f4 [12, 4]
0	0x00000000	0.0
1	0x00000000	0.0
2	0x00000000	0.0
3	0x00000000	0.0
4	0x34a2d479	3.0329446e-07
5	0x379085a4	1.7228369e-05
6	0x3539ad84	6.917037e-07
7	0x372216ba	9.661244e-06
8	0x2f1dcc85	1.4351727e-10
9	0x30913a85	1.0566771e-09
10	0x304a5707	7.3610845e-10
11	0x30e17b39	1.6405927e-09
12	0x34b6578e	3.3963846e-07
13	0x3789231f	1.6348027e-05
14	0x360451fc	1.9717254e-06
15	0x37348364	1.0759428e-05
16	0x00000000	0.0
17	0x00000000	0.0
18	0x00000000	0.0
19	0x00000000	0.0
20	0x3656fd6e	3.2036e-06
21	0x3856fe62	5.125849e-05
22	0x36df9db5	6.6642774e-06
23	0x3820e5bf	3.836094e-05
24	0x3557ebdf	8.043698e-07
25	0x3841bd2c	4.6190966e-05
26	0x370176e2	7.716679e-06
27	0x38079238	3.2322685e-05
28	0x00000000	0.0
29	0x00000000	0.0
30	0x00000000	0.0
31	0x00000000	0.0
32	0x35f87c23	1.8513568e-06
33	0x37f6e970	2.9434188e-05
34	0x36282265	2.505397e-06
35	0x37a3b257	1.951416e-05
36	0x00000000	0.0
37	0x00000000	0.0
38	0x00000000	0.0
39	0x00000000	0.0
40	0x365e66da	3.3140445e-06
41	0x38a5b97f	7.9023645e-05
42	0x374f1bf9	1.2344674e-05
43	0x3876b977	5.8823698e-05
44	0x00000000	0.0
45	0x00000000	0.0
46	0x00000000	0.0
47	0x00000000	0.0

exp_avg f4 [12]
0	0x00000000	0.0
1	0x3ba707a9	0.0050973487
2	0xb857dee2	-5.146757e-05
3	0x3ca8b48c	0.020593904
4	0x00000000	0.0
5	0x3d61dce2	0.05514229
6	0x3c2dedcb	0.010615776
7	0x00000000	0.0
8	0x3d2c861f	0.042120095
9	0x00000000	0.0
10	0x3d5d0c44	0.053966776
11	0x00000000	0.0

exp_avg_sq f4 [12]
0	0x00000000	0.0
1	0x3974c12e	0.00023341618
2	0x31269937	2.4243272e-09
3	0x392fd7cf	0.00016769696
4	0x00000000	0.0
5	0x3a00c282	0.00049117964
6	0x3a0e0b89	0.0005418589
7	0x00000000	0.0
8	0x39aed860	0.00033349078
9	0x00000000	0.0
10	0x3a466445	0.0007568042
11	0x00000000	0.0

exp_avg f4 [6, 12]
0	0x00000000	0.0
1	0xb8edc48e	-0.00011337652
2	0x36f981db	7.4358954e-06
3	0xbcbb3e9d	-0.022857005
4	0x00000000	0.0
5	0xbbdd7489	-0.006758277
6	0xbb00b767	-0.0019640566
7	0x00000000	0.0
8	0xbc90ae7f	-0.017661331
9	0x00000000	0.0
10	0xbb93bc40	-0.004508525
11	0x00000000	0.0
12	0x00000000	0.0
13	0xb9ca2b00	-0.0003856048
14	0xb6df0e13	-6.6475563e-06
15	0xbe490f52	-0.1963475
16	0x00000000	0.0
17	0xbcedb2e1	-0.02901596
18	0xbb8e5480	-0.0043435693
19	0x00000000	0.0
20	0xbd8cbb0a	-0.06871612
21	0x00000000	0.0
22	0xbc985a43	-0.018597728
23	0x00000000	0.0
24	0x00000000	0.0
25	0xb8eb1b2d	-0.00011210735
26	0x3730680d	1.0514644e-05
27	0x3c62c23d	0.013840255
28	0x00000000	0.0
29	0xbb949d0e	-0.004535324
30	0xbaed3d05	-0.001809985
31	0x00000000	0.0
32	0xbc3373cb	-0.0109529
33	0x00000000	0.0
34	0xb7c9adb8	-2.4041961e-05
35	0x00000000	0.0
36	0x00000000	0.0
37	0x38932906	7.0171474e-05
38	0x3753982a	1.26120085e-05
39	0x3d9f27b8	0.077712476
40	0x00000000	0.0
41	0x3c32de96	0.010917326
42	0x3acc895b	0.00156049
43	0x00000000	0.0
44	0x3cc59e16	0.024123233
45	0x00000000	0.0
46	0x3b932888	0.0044909157
47	0x00000000	0.0
48	0x00000000	0.0
49	0xb880839f	-6.128032e-05
50	0xb6d6c2fb	-6.4003957e-06
51	0xbd792cad	-0.06083362
52	0x00000000	0.0
53	0xbbe058ff	-0.0068465467
54	0xba5d88ac	-0.00084508467
55	0x00000000	0.0
56	0xbc81c23c	-0.015839688
57	0x00000000	0.0
58	0xbb9b8aca	-0.0047467696
59	0x00000000	0.0
60	0x00000000	0.0
61	0x387f590f	6.087968e-05
62	0x37064cd3	8.004909e-06
63	0x3d285174	0.041093305
64	0x00000000	0.0
65	0x3bc1cc7c	0.005914269
66	0x3a1eb016	0.00060534605
67	0x00000000	0.0
68	0x3c63b5db	0.013898338
69	0x00000000	0.0
70	0x3b3e0ec4	0.00290005
71	0x00000000	0.0

exp_avg_sq f4 [6, 12]
0	0x00000000	0.0
1	0x359529da	1.1113545e-06
2	0x2d07c61d	7.7178515e-12
3	0x385ecb11	5.3118045e-05
4	0x00000000	0.0
5	0x37093a65	8.179432e-06
6	0x374483ab	1.1713167e-05
7	0x00000000	0.0
8	0x38598b5a	5.1866613e-05
9	0x00000000	0.0
10	0x37363824	1.0861117e-05
11	0x00000000	0.0
12	0x00000000	0.0
13	0x3798e828	1.8227918e-05
14	0x2c2d10f5	2.4594192e-12
15	0x3b4005a1	0.002930023
16	0x00000000	0.0
17	0x396b9f88	0.00022470776
18	0x393de2be	0.00018108913
19	0x00000000	0.0
20	0x3a9be02d	0.0011892371
21	0x00000000	0.0
22	0x39add449	0.00033155296
23	0x00000000	0.0
24	0x00000000	0.0
25	0x34e97c02	4.348986e-07
26	0x2da74f2b	1.902086e-11
27	0x375ea481	1.3270533e-05
28	0x00000000	0.0
29	0x35b166f4	1.3217491e-06
30	0x368cfa08	4.2014326e-06
31	0x00000000	0.0
32	0x37123d9a	8.716621e-06
33	0x00000000	0.0
34	0x34e5b141	4.2783543e-07
35	0x00000000	0.0
36	0x00000000	0.0
37	0x3597cff2	1.1310897e-06
38	0x2df08985	2.7345912e-11
39	0x3a058d4c	0.0005094602
40	0x00000000	0.0
41	0x3822ca0e	3.8811988e-05
42	0x380504d6	3.1714175e-05
43	0x00000000	0.0
44	0x395c4a84	0.00021008594
45	0x00000000	0.0
46	0x387c0bcf	6.009248e-05
47	0x00000000	0.0
48	0x00000000	0.0
49	0x34b70cb8	3.409566e-07
50	0x2d0ea1c3	8.107684e-12
51	0x396806e5	0.00022127813
52	0x00000000	0.0
53	0x372e1d7b	1.0378072e-05
54	0x36bf6a44	5.7046145e-06
55	0x00000000	0.0
56	0x386597d0	5.473924e-05
57	0x00000000	0.0
58	0x37a450eb	1.9588004e-05
59	0x00000000	0.0
60	0x00000000	0.0
61	0x3563900a	8.4773694e-07
62	0x2d90a871	1.6445708e-11
63	0x3927636e	0.00015963402
64	0x00000000	0.0
65	0x3763d47f	1.357973e-05
66	0x373c3a45	1.121924e-05
67	0x00000000	0.0
68	0x3895a300	7.135235e-05
69	0x00000000	0.0
70	0x379ef043	1.8946948e-05
71	0x00000000	0.0

exp_avg f4 [6]
0	0xbd6d79da	-0.057977535
1	0xbec8b1da	-0.3919819
2	0x3bf57091	0.0074902256
3	0x3e1d4741	0.15359212
4	0xbdec76ac	-0.11546072
5	0x3da75f13	0.08172431

exp_avg_sq f4 [6]
0	0x39aeb620	0.0003332356
1	0x3c4ed33f	0.012623607
2	0x37a56a9d	1.9719178e-05
3	0x3b0fff6b	0.002197231
4	0x3a5ac85f	0.00083458977
5	0x3a372f6a	0.0006987961
