lightning_logs/version_4/checkpoints/epoch=9-step=80.ckpt (torch, 14835 bytes, 24 tensors)

encoder.layers.0.linear.weight f4 [12, 6]
0	0x3e479a06	0.19492349
1	0xbe381b5e	-0.1797919
2	0xbef8785a	-0.4852932
3	0xbe5c2aa9	-0.21500649
4	0xbdd8fdab	-0.10595258
5	0xbeaa4ba1	-0.33260825
6	0xbe3e9104	-0.18610007
7	0x3ea2adc4	0.31773198
8	0xbecd9686	-0.40153903
9	0x3e5e0772	0.21682528
10	0x3ecac3c0	0.3960247
11	0x3ee3854a	0.4443763
12	0xbee8619b	-0.45386967
13	0x3ee0651a	0.43827134
14	0x3e589c6b	0.21153419
15	0xbd6f106f	-0.05836528
16	0x3ec8e240	0.39235115
17	0xbe234252	-0.15943268
18	0x3e7d7f5e	0.24755618
19	0xbeb87b18	-0.36031413
20	0x3e817f3a	0.2529238
21	0x3e8721fd	0.26393119
22	0xbe2bca02	-0.16776279
23	0xbe5a8866	-0.21341094
24	0xbe1df759	-0.15426387
25	0x3db05c41	0.08611346
26	0x3e31ec65	0.17375334
27	0x3c012438	0.00788217
28	0x3e95422c	0.29152048
29	0xbea90037	-0.33007976
30	0x3eb2d85a	0.34930688
31	0x3ec813bd	0.3907756
32	0x3dd1d220	0.10245156
33	0xbdaef145	-0.08542112
34	0xbe9d0265	-0.3066589
35	0xbdcd6d8a	-0.100306585
36	0xbe5fc487	-0.21852313
37	0x3eafad4b	0.343119
38	0xbe8c1223	-0.27357587
39	0xbd830982	-0.06398298
40	0x3df21856	0.11821048
41	0xbd453e8e	-0.04815536
42	0x3dd41064	0.10354689
43	0xbd38aac9	-0.04508475
44	0xbef51405	-0.47866836
45	0xbe06c217	-0.13159977
46	0x3e27312d	0.16327353
47	0xba9a88d4	-0.0011790046
48	0xbe930c8b	-0.28720507
49	0x3e5c7573	0.21529178
50	0xbe19b1d9	-0.1500925
51	0x3e33c899	0.1755699
52	0x3ecba995	0.39777818
53	0x3ee9eeec	0.45690095
54	0x3ead26b3	0.33818588
55	0xbe9d5c42	-0.3073445
56	0xbde4068c	-0.11134061
57	0xbe00568e	-0.12533018
58	0x3c211dac	0.0098337345
59	0x3ed052ea	0.40688258
60	0x3e2e5637	0.17025076
61	0x3e762c5c	0.2404036
62	0xbe52a97e	-0.20572469
63	0xbe2e516b	-0.17023246
64	0x3ec7a83d	0.38995543
65	0x3d4f6278	0.050631016
66	0x3e227764	0.15865856
67	0x3e8a30d4	0.26990378
68	0x3e963659	0.2933834
69	0xbde10751	-0.109877236
70	0x3e539727	0.20663129
71	0xbdf54168	-0.11975366

encoder.layers.0.linear.bias f4 [12]
0	0xbe521e3f	-0.2051935
1	0x3e35ff1d	0.17773099
2	0x3e5e15a9	0.2168795
3	0xbec22940	-0.37922096
4	0xbe4e4407	-0.20143138
5	0x3ea22b67	0.31673738
6	0x3eb1bd11	0.3471456
7	0x3d64f3a7	0.055896427
8	0x3edd888f	0.43268248
9	0xbdd832f9	-0.10556597
10	0x3e166265	0.14685972
11	0xbd921367	-0.07132607

encoder.layers.2.linear.weight f4 [4, 12]
0	0xbbde9474	-0.0067925993
1	0xbcc70c3c	-0.024297826
2	0xbd98e731	-0.07465971
3	0xbe1ee9fe	-0.15518948
4	0x3dae1df3	0.08501806
5	0x3cd17f3d	0.025573367
6	0x3e8bcd8b	0.27305254
7	0xbeb366af	-0.3503928
8	0xbb6eb45d	-0.0036423423
9	0x3ceee65a	0.029162575
10	0xbe12bcb3	-0.14329796
11	0x3db8a0bd	0.090150334
12	0x3eb9d1a2	0.3629275
13	0x3ea2bd2d	0.31784955
14	0x3e3f8cd5	0.18706067
15	0x3e0a6e77	0.13518701
16	0x3c2f2403	0.010689738
17	0xbe3783f2	-0.17921427
18	0x3e32d05e	0.17462298
19	0x3db1421c	0.086551875
20	0x3e83cb2e	0.2574095
21	0xbe66b087	-0.22528277
22	0xbd2a52ed	-0.04158299
23	0xbddfa3e2	-0.1091993
24	0x3e9099b9	0.2824228
25	0xbe1f7708	-0.1557275
26	0x3e630649	0.22170366
27	0xbe50c928	-0.20389235
28	0xbd8a3aba	-0.067494825
29	0x3e1f1834	0.15536577
30	0x3e4f0d8f	0.20220016
31	0x3e8ae3ca	0.27126914
32	0xbdccdf97	-0.10003584
33	0xbe784bd6	-0.24247679
34	0xbe2fe739	-0.17178048
35	0x3d94d59c	0.07267305
36	0xbe811416	-0.25210637
37	0x3de4a3ed	0.11164079
38	0xbe1ea7d9	-0.15493716
39	0xbe54937a	-0.20759383
40	0x3dbeafc4	0.093108684
41	0xbeb373d2	-0.350493
42	0xbe14bb47	-0.14524566
43	0x3c387830	0.011259124
44	0xbe36126a	-0.17780462
45	0xbe4c2b4f	-0.19938396
46	0x3de269b5	0.11055318
47	0xbe67d593	-0.22640066

encoder.layers.2.linear.bias f4 [4]
0	0x3cc9a9f4	0.024617173
1	0x3ea89b6d	0.3293108
2	0x3d8fc537	0.070200376
3	0xbe373242	-0.17890266

decoder.layers.0.linear.weight f4 [12, 4]
0	0xbecb68a9	-0.39728287
1	0x3e87e516	0.26541966
2	0xbeafe5ae	-0.3435492
3	0xbef146ec	-0.47124422
4	0x3da414d0	0.08011782
5	0x3e169d28	0.14708388
6	0xbda471db	-0.08029529
7	0xbe08d1dc	-0.13361305
8	0x3e5c0bfc	0.21488947
9	0xbe9361b6	-0.28785485
10	0xbdc7fdc0	-0.09765196
11	0x3e86af0e	0.2630543
12	0xbedd7cde	-0.4325933
13	0x3ea5803c	0.32324398
14	0x3e3c388d	0.18380947
15	0x3ef7cdc0	0.48399162
16	0x3e97ca16	0.29646367
17	0xbe8e15c4	-0.2775098
18	0x3e461694	0.1934455
19	0x3ed8c38b	0.42336687
20	0x3eb830f2	0.35974842
21	0x3f0eefe7	0.5583481
22	0xbe2b154d	-0.16707344
23	0xbe0e0152	-0.13867691
24	0xbf05711e	-0.5212573
25	0x3ee735b3	0.45158157
26	0x3ef5a8f2	0.47980458
27	0xbe9e2a3e	-0.30891603
28	0xbe455e49	-0.19274248
29	0xbed54cab	-0.41660056
30	0x39e5fdc8	0.00043867365
31	0xbebe2863	-0.37140188
32	0x3ebb03d4	0.36526358
33	0xbe04f078	-0.12982357
34	0x3eab25b6	0.3342721
35	0xbeb2cf43	-0.34923753
36	0x3cb3936d	0.021920884
37	0xbd645127	-0.055741455
38	0xbf090a9d	-0.5353182
39	0xbe567002	-0.20941165
40	0x3d4890ce	0.04896622
41	0xbe113e47	-0.14183913
42	0x3e9fe572	0.3122974
43	0xbe1996a2	-0.14998868
44	0x3d5c8e81	0.05384684
45	0xbd0ed5e4	-0.03487195
46	0x3e844e4c	0.25840986
47	0xbe5c0822	-0.21487477

decoder.layers.0.linear.bias f4 [12]
0	0x3ece6b47	0.4031622
1	0x3edfa8ba	0.43683416
2	0xbd2eafe0	-0.042648196
3	0x3e07114d	0.13190193
4	0x3e23a0ee	0.15979359
5	0xbcd368dd	-0.025806839
6	0x3c19e79d	0.0093936
7	0x3dd63487	0.104592375
8	0x3ec1f494	0.3788191
9	0xbe98b375	-0.29824415
10	0x3eb50499	0.3535507
11	0x3e378f99	0.17925872

decoder.layers.2.linear.weight f4 [6, 12]
0	0xbe43251a	-0.19057122
1	0x3dd3cfe3	0.103423856
2	0xbe27a6eb	-0.16372268
3	0x3e563507	0.20918666
4	0xbc1f50db	-0.009723867
5	0x3d2af541	0.0417378
6	0xbe12bb05	-0.14329155
7	0x3e5b3434	0.21406633
8	0x3ea291f7	0.31751987
9	0xbe539b0b	-0.20664613
10	0xbd8dd010	-0.069244504
11	0x3e4182ce	0.18897554
12	0x3dff47ba	0.12464853
13	0xbddd5bc2	-0.10808517
14	0xbe29ca38	-0.16581047
15	0xbdea2fcb	-0.11434897
16	0xbbafefd1	-0.0053691645
17	0x3ea7ece7	0.3279793
18	0x3ddd09fa	0.107929185
19	0xbcd1726c	-0.025567256
20	0x3ebbb2ca	0.36659843
21	0xbe6c07c5	-0.23049839
22	0xbd8884f3	-0.06665983
23	0x3e9fff51	0.31249478
24	0xbe8dc360	-0.27688122
25	0x3d9b8e7a	0.075955346
26	0xbe6cb0b8	-0.23114288
27	0xbe7927d5	-0.24331601
28	0xbe10fd41	-0.14159109
29	0x3e2e4829	0.17019714
30	0xbe58a18a	-0.21155372
31	0x3e63af7b	0.22234909
32	0xbdaef520	-0.08542848
33	0xbe4fb2a9	-0.20282997
34	0x3e1b3da5	0.15160234
35	0x3e417a9c	0.18894428
36	0xbde1b25f	-0.1102035
37	0xbd8afbc3	-0.06786301
38	0x3dab660b	0.083690725
39	0x3de6e9d4	0.11275068
40	0xbd5e50b9	-0.054276202
41	0xbcbc5492	-0.022989545
42	0xbeb47342	-0.35244185
43	0x3e1b6e25	0.15178736
44	0xbe9e05e6	-0.30863875
45	0xbe204a21	-0.15653278
46	0xbdc30885	-0.09523109
47	0x3e42fb92	0.19041279
48	0x3e216bfc	0.15763849
49	0xbd6d667d	-0.05795907
50	0xbe8beac5	-0.27327552
51	0x3e8d10a1	0.2755175
52	0x3d6c6a76	0.057718717
53	0x3e7e4e88	0.24834645
54	0x3e1bcded	0.15215273
55	0xbe17cfd9	-0.14825381
56	0xbe222617	-0.15834843
57	0xbde65f8b	-0.11248692
58	0xbe8b68d9	-0.2722843
59	0x3d86ad77	0.065760545
60	0xbdff80cc	-0.12475738
61	0x3e82ee1e	0.25572294
62	0x3e82400d	0.25439492
63	0xbd2d1d39	-0.042264197
64	0x3e1d223e	0.15345094
65	0x3e7ca16c	0.24670953
66	0xbe7eef0c	-0.24895877
67	0x3e3d7fed	0.18505831
68	0x3e115080	0.14190865
69	0x3ce69660	0.028147876
70	0xbc945315	-0.018106023
71	0xbe78c30b	-0.24293153

decoder.layers.2.linear.bias f4 [6]
0	0xbe45e228	-0.19324553
1	0xbe547c35	-0.20750506
2	0x3dd27ad6	0.10277335
3	0xbc613ad2	-0.013746934
4	0x3cc8ce59	0.024512457
5	0x3d15d6fc	0.03658198

exp_avg f4 [12, 6]
0	0x3b9dab68	0.004811693
1	0xbb7a2005	-0.0038166058
2	0x3c1cfcc9	0.009581753
3	0x3c14c19c	0.009079363
4	0xbbb77210	-0.005598314
5	0xba2458ec	-0.0006269354
6	0x3b61e699	0.0034469722
7	0x3b904c9e	0.0044036647
8	0x3c07e875	0.008295168
9	0x3b5889df	0.0033041162
10	0xbba63bfd	-0.005073069
11	0xbaeb6f83	-0.001796231
12	0x3b89c017	0.004203807
13	0xbc9d1f63	-0.019180005
14	0x3c1a2477	0.009408108
15	0x3c82ba86	0.015958082
16	0xbbc5e589	-0.0060393256
17	0xba9cc3a4	-0.0011960161
18	0x3a0f72cb	0.00054721226
19	0x39a82b69	0.000320758
20	0x3a7c6422	0.0009627958
21	0xba1b4cda	-0.00059242325
22	0xba195ccc	-0.00058503146
23	0xb9471379	-0.00018985373
24	0x372c242a	1.0260419e-05
25	0x388b92d1	6.655383e-05
26	0x380ea74f	3.4011257e-05
27	0xb83eded2	-4.5507048e-05
28	0xb6e08732	-6.691459e-06
29	0xb77cd19b	-1.5069173e-05
30	0xbb33dc1a	-0.0027444423
31	0xbcea28c0	-0.028583884
32	0xbbb36bbe	-0.0054754904
33	0x3c6ec983	0.014574411
34	0x3b0a7ee7	0.0021132769
35	0x38048320	3.1593372e-05
36	0xbb74c719	-0.0037350117
37	0xbd0fa147	-0.035065915
38	0xbbec7f87	-0.007217351
39	0x3c5524e3	0.013009283
40	0x3b057144	0.00203617
41	0xba628ff9	-0.00086426694
42	0x3bbdc8de	0.0057917675
43	0xba19ed2d	-0.0005871829
44	0x3c33437c	0.0109413825
45	0x3c30b619	0.010785603
46	0xbbd30fc0	-0.0064410865
47	0x3a857568	0.0010182085
48	0x3ba7d067	0.005121279
49	0xbc882f58	-0.016624138
50	0x3c412af1	0.011790023
51	0x3c4b8700	0.012422323
52	0xbbe9b802	-0.007132531
53	0xbb2ba397	-0.0026190036
54	0x38acbf05	8.237179e-05
55	0x37fd458b	3.0192334e-05
56	0x3915a9f6	0.00014273063
57	0xb94aa9e5	-0.00019327512
58	0xb84d8c68	-4.9006572e-05
59	0xb9ffeba3	-0.00048812953
60	0x3b328678	0.0027240794
61	0x3cc97216	0.024590533
62	0x3bb293a6	0.00544973
63	0xbc24451f	-0.010026245
64	0xbae41f21	-0.0017404297
65	0x3906148a	0.00012786887
66	0xbb2a53a3	-0.0025989793
67	0xbca7c803	-0.020481115
68	0xbbac5116	-0.0052586896
69	0x3c137a1c	0.009001281
70	0x3b088be4	0.0020835334
71	0x39549fc3	0.00020277411

exp_avg_sq f4 [12, 6]
0	0x3559cf8c	8.114082e-07
1	0x34be2dec	3.542367e-07
2	0x3650c089	3.1106485e-06
3	0x363868f6	2.7479232e-06
4	0x358ce113	1.0496318e-06
5	0x324b25c2	1.182474e-08
6	0x34eed8fa	4.4488826e-07
7	0x37b1a103	2.1175021e-05
8	0x36467be3	2.957641e-06
9	0x364bd740	3.037465e-06
10	0x35827925	9.721012e-07
11	0x344ea7d2	1.9246298e-07
12	0x3608a73a	2.0362918e-06
13	0x37755b12	1.4624342e-05
14	0x371eaf86	9.458401e-06
15	0x3755134d	1.2700283e-05
16	0x366451fe	3.4022373e-06
17	0x3430f073	1.6478752e-07
18	0x343e6190	1.7730622e-07
19	0x33ea41ae	1.0908421e-07
20	0x3521969b	6.0196334e-07
21	0x345cd491	2.0566428e-07
22	0x34608e21	2.0913332e-07
23	0x32b1b7ef	2.0689155e-08
24	0x31b04f83	5.1313136e-09
25	0x33b291c4	8.3152855e-08
26	0x33227ee3	3.7833967e-08
27	0x32b619e1	2.1199357e-08
28	0x319d4ec0	4.578254e-09
29	0x30d97305	1.5821519e-09
30	0x34dd77a6	4.1251513e-07
31	0x38622a1c	5.3921816e-05
32	0x35e1d1df	1.6824887e-06
33	0x37856349	1.5901069e-05
34	0x348179cd	2.4116744e-07
35	0x32e95396	2.716278e-08
36	0x356be77d	8.788118e-07
37	0x38b8ed23	8.817974e-05
38	0x368b85a2	4.1580797e-06
39	0x373db1fc	1.1306718e-05
40	0x34f514dc	4.5649983e-07
41	0x33a709c1	7.778318e-08
42	0x35eef2e7	1.7803076e-06
43	0x3633cbb9	2.679166e-06
44	0x36c1c9bc	5.775333e-06
45	0x36b6c70e	5.4471957e-06
46	0x36118e77	2.168961e-06
47	0x349e110b	2.9442194e-07
48	0x35e05767	1.6714738e-06
49	0x374eddcb	1.2330197e-05
50	0x370ea7b9	8.5029105e-06
51	0x36e5c946	6.848163e-06
52	0x3643d1cc	2.9179382e-06
53	0x34f115d2	4.4905624e-07
54	0x32be098e	2.2123256e-08
55	0x320e2d7f	8.2758325e-09
56	0x33f2bc13	1.1303214e-07
57	0x343ae851	1.7407116e-07
58	0x338d644a	6.5840666e-08
59	0x331b4249	3.6149036e-08
60	0x351e75f6	5.903124e-07
61	0x38b30026	8.535413e-05
62	0x36372fe8	2.729701e-06
63	0x37a3b12c	1.9513616e-05
64	0x349e56e5	2.9493017e-07
65	0x339293d5	6.825545e-08
66	0x34c84aac	3.7307234e-07
67	0x37b00d00	2.0986889e-05
68	0x35df206f	1.6624234e-06
69	0x3686f04b	4.021485e-06
70	0x34809f5b	2.3957804e-07
71	0x320ba890	8.1291915e-09

exp_avg f4 [12]
0	0xbc0da613	-0.008645552
1	0x398fe7e6	0.00027447863
2	0xbcb82c61	-0.022482099
3	0x3a195131	0.0005848585
4	0x388689ea	6.4153064e-05
5	0xbce07608	-0.027400032
6	0xbcf73997	-0.030178828
7	0xbbf6c4c8	-0.0075307824
8	0xbc99a929	-0.01875742
9	0x38da6440	0.00010413723
10	0x3cb204b9	0.021730768
11	0xbc99187c	-0.018688433

exp_avg_sq f4 [12]
0	0x361bce0e	2.321674e-06
1	0x37790e8b	1.4844943e-05
2	0x37b478b6	2.1513883e-05
3	0x3483af93	2.4528399e-07
4	0x33943b52	6.902577e-08
5	0x3858704b	5.1602994e-05
6	0x38864b44	6.403637e-05
7	0x361faa58	2.3792e-06
8	0x378147e5	1.5411477e-05
9	0x340dd54f	1.320925e-07
10	0x389d3011	7.4952964e-05
11	0x37917c2d	1.734317e-05

exp_avg f4 [4, 12]
0	0x3bc448c3	0.005990119
1	0x3b9f4b1b	0.004861248
2	0xbc9b632f	-0.018968193
3	0xb8e980ac	-0.00011134273
4	0xb9a9979d	-0.00032347153
5	0xbd449dcc	-0.04800205
6	0xbb8e2a53	-0.0043385415
7	0x3c84af58	0.016196892
8	0xbae97829	-0.00178123
9	0xba945a39	-0.0011318392
10	0xbb111fc0	-0.0022144169
11	0xbca1ac89	-0.019735591
12	0xbb768d55	-0.0037620862
13	0xbd11af1c	-0.035567388
14	0xbcd51da4	-0.02601511
15	0x38d6aa52	0.0001023604
16	0x384b0179	4.8400343e-05
17	0xbbc7c76e	-0.006096772
18	0xbd1eecbe	-0.038799994
19	0xbca39ce0	-0.019972265
20	0xbd11ba62	-0.03557814
21	0xba0ba828	-0.00053274864
22	0xbcf88435	-0.030336479
23	0x39cfa1a9	0.00039602563
24	0xb9215be3	-0.00015388387
25	0xbbdcff02	-0.0067442665
26	0xbcae5d27	-0.021284653
27	0xb8d3eb57	-0.000101050995
28	0xb8ff05ed	-0.00012160451
29	0xbd011efa	-0.031523682
30	0xbc9766ea	-0.01848169
31	0xbadb2426	-0.0016719147
32	0xbc33603c	-0.010948237
33	0x3a826b58	0.0009950204
34	0xbc61d114	-0.013782758
35	0xbc482b6f	-0.012217387
36	0x3b0edbe6	0.002179855
37	0x3d37b5d5	0.044851143
38	0x3d612e79	0.05497596
39	0x38378b4b	4.3760327e-05
40	0x39413b5d	0.00018428029
41	0x3d5b5d06	0.05355551
42	0x3d7e4bf3	0.06208415
43	0x3c91330e	0.01772454
44	0x3d4eaa73	0.05045552
45	0x394ea62d	0.00019707596
46	0x3d3cc9db	0.046090942
47	0x3c8e5d91	0.0173786

exp_avg_sq f4 [4, 12]
0	0x358efd1e	1.0653491e-06
1	0x378f7bd1	1.7104585e-05
2	0x38bb7fa8	8.940633e-05
3	0x33766adf	5.7373537e-08
4	0x3481dc7e	2.4188552e-07
5	0x398435c1	0.00025217052
6	0x378b59f8	1.6611986e-05
7	0x375f9f07	1.3328862e-05
8	0x3793e92c	1.7632345e-05
9	0x3455bd21	1.9905976e-07
10	0x3843a3c7	4.6644152e-05
11	0x37b14731	2.1133195e-05
12	0x34dac76c	4.0750763e-07
13	0x3883a7b1	6.277802e-05
14	0x37e88e77	2.7722896e-05
15	0x330d328c	3.2875093e-08
16	0x3328a0ea	3.92619e-08
17	0x3730da33	1.0541221e-05
18	0x389c72e4	7.46006e-05
19	0x37934447	1.755556e-05
20	0x3861e402	5.385653e-05
21	0x341d66b3	1.4659126e-07
22	0x3840064f	4.5782243e-05
23	0x3523338d	6.079725e-07
24	0x31925753	4.259087e-09
25	0x37585f9c	1.2896864e-05
26	0x380c9f9e	3.3527256e-05
27	0x328ca35f	1.6372438e-08
28	0x32eeb4c2	2.7789046e-08
29	0x38858a5b	6.367705e-05
30	0x37f3c9db	2.9061854e-05
31	0x35864a64	1.0005429e-06
32	0x37557aa8	1.27243475e-05
33	0x34423931	1.8088464e-07
34	0x3812e425	3.502159e-05
35	0x36c4fddb	5.870808e-06
36	0x34233ff1	1.520382e-07
37	0x394733b7	0.00018997384
38	0x394ee9bd	0.00019732765
39	0x319bf308	4.538723e-09
40	0x32f71203	2.8762775e-08
41	0x39491310	0.00019175955
42	0x3996ab59	0.00028737893
43	0x37b7e955	2.1923954e-05
44	0x39343fac	0.00017189857
45	0x3420adb3	1.4964353e-07
46	0x396caa38	0.00022570125
47	0x3761b216	1.3452509e-05

exp_avg f4 [4]
0	0xbcfa500c	-0.030555747
1	0xbd0a14aa	-0.033711113
2	0xbd12a63c	-0.035803065
3	0x3da5b9e4	0.080920964

exp_avg_sq f4 [4]
0	0x3979121e	0.0002375324
1	0x386fc590	5.7166035e-05
2	0x39074a4f	0.00012902285
3	0x3a14691b	0.0005661414

exp_avg f4 [12, 4]
0	0x3b8cf959	0.0043021855
1	0xbd41d96a	-0.047326483
2	0xbbdd2806	-0.006749156
3	0x3c4c7df8	0.012481205
4	0x3a58b64c	0.00082669104
5	0x3cbc721d	0.023003632
6	0x3bf87389	0.0075821322
7	0xbc7d50fe	-0.015461205
8	0x00000000	0.0
9	0x00000000	0.0
10	0x00000000	0.0
11	0x00000000	0.0
12	0x3ac8ddd0	0.0015324894
13	0xbbaec23a	-0.005333212
14	0xb915c0c4	-0.00014281558
15	0xba7f6f71	-0.0009744084
16	0xb1892df3	-3.9924486e-09
17	0xb24a0f94	-1.176149e-08
18	0xb21e8cbd	-9.228811e-09
19	0x2fc2b7c1	3.541896e-10
20	0xbb923e1c	-0.0044629704
21	0xbd33fb88	-0.04394105
22	0xbc929a4a	-0.017895836
23	0x3d410ba9	0.04713026
24	0x3b8f2918	0.0043689124
25	0xbd19441a	-0.037418462
26	0xbbf8dee8	-0.007594932
27	0x3c3b3827	0.011426962
28	0xbadd7625	-0.0016896172
29	0xbbb83299	-0.005621266
30	0xbbc2c06c	-0.0059433486
31	0x3c5bfc3f	0.013426839
32	0xbb847e0d	-0.0040433467
33	0xbd8dcf8c	-0.06924352
34	0xbcdeff61	-0.027221384
35	0x3d877d88	0.0661574
36	0x39280f66	0.00016027465
37	0xba692f91	-0.00088953326
38	0x39cb9ac9	0.000388345
39	0x398f0e4f	0.00027285746
40	0xbada9ec5	-0.0016679397
41	0x3cd2b6af	0.025721876
42	0x3b3e8b07	0.0029074566
43	0xbbf987a0	-0.0076150447
44	0xbc173def	-0.009231075
45	0xbcc3b05c	-0.023887806
46	0xbca10e0c	-0.019660018
47	0x3d4910a1	0.049088124

exp_avg_sq f4 [12, 4]
0	0x36464a52	2.954756e-06
1	0x390b5381	0.0001328718
2	0x3691c1db	4.3439045e-06
3	0x3700c81c	7.675986e-06
4	0x370e2f4a	8.47487e-06
5	0x38bc512c	8.979658e-05
6	0x36d90d30	6.468639e-06
7	0x378ad82e	1.6551548e-05
8	0x00000000	0.0
9	0x00000000	0.0
10	0x00000000	0.0
11	0x00000000	0.0
12	0x369c5bfd	4.659871e-06
13	0x37a86ac7	2.0076883e-05
14	0x35ef8df5	1.7848203e-06
15	0x37407993	1.1472398e-05
16	0x2d248353	9.3514805e-12
17	0x2decb1c1	2.6909032e-11
18	0x2c831d98	3.7265295e-12
19	0x2cb24a2a	5.067298e-12
20	0x364d6a82	3.0609376e-06
21	0x38cc9d81	9.7568154e-05
22	0x3728347a	1.00257985e-05
23	0x38b1eca4	8.4840955e-05
24	0x36c00146	5.722194e-06
25	0x38fdc9d9	0.00012101577
26	0x36bbcb92	5.596733e-06
27	0x3726559e	9.914305e-06
28	0x355cf730	8.231609e-07
29	0x368549fa	3.972321e-06
30	0x358f2977	1.0666398e-06
31	0x36a304a5	4.8583192e-06
32	0x37e0c3b2	2.6794009e-05
33	0x39e07df0	0.0004281844
34	0x3801875d	3.0882064e-05
35	0x397243e4	0.0002310421
36	0x31eec0e0	6.948639e-09
37	0x33d6bbcc	9.9993116e-08
38	0x33447422	4.574043e-08
39	0x31e7791d	6.736754e-09
40	0x36e5425a	6.832456e-06
41	0x38bbd76f	8.9569825e-05
42	0x36b8e5f8	5.510399e-06
43	0x36c5b4df	5.8921137e-06
44	0x3688d0b4	4.077412e-06
45	0x3818f24f	3.646529e-05
46	0x37355d66	1.0810187e-05
47	0x38c799ad	9.517684e-05

exp_avg f4 [12]
0	0xbd07ada5	-0.033124585
1	0x3cd02b29	0.025411205
2	0x00000000	0.0
3	0x3944df7f	0.00018775275
4	0xb1d09c89	-6.0713927e-09
5	0xbd8e731b	-0.069555484
6	0xbd065068	-0.032791525
7	0xbc8ce6c9	-0.01719989
8	0xbddad8a5	-0.10685853
9	0xba000d2d	-0.0004884776
10	0x3c923376	0.017846804
11	0xbd7a32ce	-0.061083607

exp_avg_sq f4 [12]
0	0x390f270d	0.0001365209
1	0x39939880	0.00028151646
2	0x00000000	0.0
3	0x391c2173	0.0001488978
4	0x2fe880bb	4.2292023e-10
5	0x39b2bb23	0.00034090233
6	0x3981643a	0.00024679472
7	0x37fa6701	2.9850287e-05
8	0x3ae6240c	0.001755835
9	0x334922e9	4.683071e-08
10	0x394ee879	0.00019732294
11	0x398f954e	0.00027386326

exp_avg f4 [6, 12]
0	0xbbb2c327	-0.005455393
1	0xbbe944a2	-0.0071187774
2	0x00000000	0.0
3	0x3c25b054	0.010112841
4	0x30114c36	5.2858995e-10
5	0x3be8696f	0.007092647
6	0x3b76908f	0.0037622785
7	0xbc059e64	-0.008155439
8	0xbc90e911	-0.01768926
9	0x37fe58e4	3.0320552e-05
10	0xbc516cbe	-0.012782274
11	0xbc05dd59	-0.008170449
12	0xbe3e92a8	-0.18610632
13	0xbe1f1897	-0.15536724
14	0x00000000	0.0
15	0xbcca60c4	-0.024704345
16	0xb114e9c9	-2.1669726e-09
17	0xbdc7670f	-0.09736454
18	0xbe17abf8	-0.14811695
19	0xbc89a070	-0.016800135
20	0xbe17037c	-0.14747423
21	0x380a6e4e	3.3004493e-05
22	0xbde6f571	-0.11277283
23	0xbda90dbc	-0.08254573
24	0x3d22c0b0	0.039734542
25	0x3cdc349d	0.026880557
26	0x00000000	0.0
27	0x3d057c48	0.032589227
28	0x31ac1f4f	5.009418e-09
29	0x3d2e7217	0.042589273
30	0x3d3c2e09	0.04594234
31	0xbc7991f1	-0.015232549
32	0xbbbda8d0	-0.0057879463
33	0x392a3439	0.00016231918
34	0xba8877e7	-0.001041171
35	0x39d69a10	0.00040932046
36	0x3c97bce6	0.018522691
37	0x3c840ec8	0.01612033
38	0x00000000	0.0
39	0x3c3eeb88	0.011652835
40	0x32096fc2	7.99986e-09
41	0x3b8bfed9	0.0042723236
42	0x3c628cfa	0.013827557
43	0x3b94a3eb	0.004536142
44	0x3c1a8dd0	0.009433225
45	0x3806a5f5	3.210265e-05
46	0x3c389175	0.011265148
47	0x3bbbf0f0	0.005735509
48	0x3bff742a	0.0077958303
49	0x3c0ceb77	0.008601061
50	0x00000000	0.0
51	0xbbf9b598	-0.0076205246
52	0xaeee20c8	-1.082881e-10
53	0xbad68ff4	-0.0016369806
54	0x3b3135f8	0.0027040225
55	0x3bb75bd3	0.005595663
56	0x3c973409	0.01845743
57	0xb8b03a05	-8.403141e-05
58	0x3c4f8efb	0.012668367
59	0x3c178bc2	0.009249629
60	0xbc4948cd	-0.012285423
61	0xbbe2fa13	-0.006926784
62	0x00000000	0.0
63	0xbbeb8498	-0.0071874373
64	0x31a4b2e9	4.793368e-09
65	0xbc3ecb2d	-0.011645121
66	0xbc1e76c4	-0.009671871
67	0x3b4b0f09	0.0030984303
68	0x3b385cda	0.0028131516
69	0xb9f8537c	-0.00047364447
70	0x3ae8de35	0.0017766418
71	0x3a5fe881	0.00085414207

exp_avg_sq f4 [6, 12]
0	0x38a83fc6	8.022743e-05
1	0x38ab0806	8.15541e-05
2	0x00000000	0.0
3	0x37434503	1.1638974e-05
4	0x2a6340d5	2.0184143e-13
5	0x35e71ed8	1.7219818e-06
6	0x371d6624	9.381711e-06
7	0x36f5810c	7.316592e-06
8	0x3821fb78	3.861959e-05
9	0x30940d07	1.077212e-09
10	0x385f0956	5.3176038e-05
11	0x370206b7	7.750167e-06
12	0x3b85b802	0.0040807733
13	0x3b7bb97b	0.0038410116
14	0x00000000	0.0
15	0x3a391577	0.00070603885
16	0x2a84fe4c	2.3624364e-13
17	0x39d37ed0	0.0004033954
18	0x3a940314	0.0011292421
19	0x3807f696	3.241616e-05
20	0x3a986104	0.0011625593
21	0x3003ea84	4.799079e-10
22	0x3acf42dd	0.0015812773
23	0x39955d70	0.0002848911
24	0x3946b06e	0.00018948477
25	0x39294727	0.00016143602
26	0x00000000	0.0
27	0x3911fe2d	0.00013922965
28	0x2c1d114c	2.2320644e-12
29	0x38c46182	9.3641705e-05
30	0x38cd17d7	9.779602e-05
31	0x373ed607	1.1374715e-05
32	0x36eeef10	7.1207833e-06
33	0x32a9e4c7	1.9778225e-08
34	0x37881a3f	1.6224685e-05
35	0x360d028f	2.1012127e-06
36	0x39d22da0	0.00040088315
37	0x39dadf8d	0.00041746759
38	0x00000000	0.0
39	0x3901310d	0.00012320672
40	0x2c57acf2	3.0649342e-12
41	0x378c1c02	1.6702343e-05
42	0x388a256d	6.587324e-05
43	0x36ca48dc	6.028551e-06
44	0x38819ef3	6.180806e-05
45	0x31343d66	2.6228348e-09
46	0x3924a119	0.00015700272
47	0x374f9df9	1.2374942e-05
48	0x371489f1	8.853604e-06
49	0x3713dfff	8.814036e-06
50	0x00000000	0.0
51	0x36c090d7	5.7389075e-06
52	0x27121781	2.0274312e-15
53	0x36271835	2.489903e-06
54	0x3616e8cd	2.248725e-06
55	0x36306d51	2.6289674e-06
56	0x377aa130	1.4938691e-05
57	0x31f3e513	7.0982735e-09
58	0x3743c04e	1.166768e-05
59	0x365e0374	3.3082588e-06
60	0x379fd22f	1.9052151e-05
61	0x3780a6a4	1.5336387e-05
62	0x00000000	0.0
63	0x368ac285	4.1353655e-06
64	0x2bdef5dd	1.584229e-12
65	0x36bdb3da	5.6535764e-06
66	0x369a1e52	4.5930874e-06
67	0x359392bb	1.0995058e-06
68	0x36a27b65	4.8423412e-06
69	0x33c41c9c	9.132165e-08
70	0x3716a9f4	8.980267e-06
71	0x356fa631	8.927628e-07

exp_avg f4 [6]
0	0xbc8415ce	-0.016123679
1	0xbe7ce97c	-0.24698442
2	0x3d03f835	0.03221913
3	0x3cf9461e	0.030428942
4	0x3c87805c	0.016540699
5	0xbbfee852	-0.0077791596

exp_avg_sq f4 [6]
0	0x397c7a96	0.0002407826
1	0x3c26fede	0.010192601
2	0x39c1d632	0.00036971417
3	0x3a9e2a73	0.0012067094
4	0x37dcc0f4	2.6315895e-05
5	0x382a5303	4.060847e-05
