lightning_logs/version_10/checkpoints/epoch=9-step=70.ckpt (torch, 14835 bytes, 24 tensors)

encoder.layers.0.linear.weight f4 [12, 6]
0.33446288 0.4247076 -0.07718697 -0.30251226 0.19060978 0.29616404 0.07506365 0.07194441
0.25516653 0.27001593 0.0473351 0.08458345 0.22697113 0.25294766 0.28350982 -0.14540458
-0.15113738 0.28485584 0.47053838 -0.055083983 0.33330253 -0.18919277 -0.38949287 -0.22640267
0.08880455 0.03647202 -0.11648004 0.4324042 0.033628803 0.2524904 -0.05352716 -0.11468287
0.48503497 -0.047308207 -0.31356728 0.13128848 0.15886033 0.34342477 0.2574905 -0.03416882
-0.037231304 -0.3403234 -0.28518233 -0.12715499 0.16379988 -0.04790931 0.4014068 -0.27255777
-0.22552337 0.1818128 0.36914325 0.39051625 -0.22480315 -0.27611917 -0.28278846 0.3111637
0.21443786 -0.28619528 0.18611978 -0.37083557 -0.26507494 0.0247184 -0.1180556 -0.14896087
-0.32012233 0.2470546 0.053482983 -0.33322683 -0.28985068 0.0076515586 0.35870335 -0.25702083
00000000: b83e ab3e 4673 d93e 3414 9ebd e3e2 9abe
00000010: 362f 433e d0a2 973e f9ba 993d 9757 933d
00000020: 30a5 823e 873f 8a3e 73e2 413d 163a ad3d
00000030: 1f6b 683e 5b82 813e 3328 913e f0e4 14be
00000040: c2c3 1abe a0d8 913e 68ea f03e be9f 61bd
00000050: a1a6 aa3e c0bb 41be 9c6b c7be 1ad6 67be
00000060: 29df b53d af63 153d 168d eebd 1564 dd3e
00000070: 5bbe 093d 6c46 813e 4c3f 5bbd dade eabd
00000080: 8156 f83e 40c6 41bd e48b a0be 7d70 063e
00000090: 48ac 223e 5fd5 af3e cbd5 833e 9bf4 0bbd
000000a0: da7f 18bd de3e aebe 6b03 92be eb34 02be
000000b0: 28bb 273e 8d3c 44bd 3185 cd3e b18c 8bbe
000000c0: 99ef 66be 222d 3a3e 5800 bd3e bff1 c73e
000000d0: cc32 66be 7e5f 8dbe a6c9 90be d950 9f3e
000000e0: 9995 5b3e 3088 92be 2f96 3e3e 29de bdbe
000000f0: e7b7 87be 3e7e ca3c 22c7 f1bd 3389 18be
00000100: 13e7 a3be e2fb 7c3e f910 5b3d b59c aabe
00000110: 4f67 94be edb9 fa3b f7a7 b73e 3c98 83be

encoder.layers.0.linear.bias f4 [12]
-0.29282433 0.16146258 -0.2640095 -0.19749296 0.15409979 0.064890005 -0.12415112 0.054972626
-0.37462333 -0.0106071755 -0.20327087 0.44344762
00000000: 12ed 95be 7256 253e 412c 87be 983b 4abe
00000010: 56cc 1d3e 0de5 843d f142 febd fa2a 613d
00000020: a1ce bfbe b8c9 2dbc 3d26 50be 910b e33e

encoder.layers.2.linear.weight f4 [4, 12]
0.23110476 0.34322986 0.33870825 0.17547363 0.098141946 0.1172512 0.32623652 -0.11396913
-0.17653288 0.15005404 -0.19456732 0.15354061 -0.008846024 0.06316726 -0.2060807 0.19370075
-0.09638034 -0.07476796 -0.02852001 0.113304876 0.03286033 0.13230114 0.20368502 -0.06434579
0.07479102 -0.29524708 -0.2974552 -0.17744611 0.17542079 0.07048435 -0.04541586 0.24218275
-0.13864262 -0.24280208 0.122105025 -0.04720054 0.13614208 -0.10284185 -0.15486214 -0.0760407
-0.0026257024 -0.10677028 -0.1846817 0.25543836 -0.3245098 -0.23337252 0.0887165 0.10742908
00000000: baa6 6c3e d3bb af3e 2b6b ad3e 5caf 333e
00000010: a5fe c83d 6621 f03d 7908 a73e a668 e9bd
00000020: 09c5 34be c4a7 193e a83c 47be c039 1d3e
00000030: eaee 10bc d65d 813d d206 53be 7d59 463e
00000040: 0e63 c5bd f21f 99bd cca2 e9bc 630c e83d
00000050: 8e98 063d f379 073e ce92 503e bac7 83bd
00000060: 092c 993d a02a 97be 0c4c 98be 6fb4 35be
00000070: 82a1 333e 195a 903d fb05 3abd c1fe 773e
00000080: 55f8 0dbe 1ca1 78be 3312 fa3d 5a55 41bd
00000090: d468 0b3e bf9e d2bd 2e94 1ebe 3abb 9bbd
000000a0: fa13 2cbb 60aa dabd 331d 3dbe d1c8 823e
000000b0: 2626 a6be 35f9 6ebe ffb0 b53d c703 dc3d

encoder.layers.2.linear.bias f4 [4]
0.20914723 0.18672052 0.008292523 -0.09762841
00000000: b12a 563e aa33 3f3e 5ddd 073c 67f1 c7bd

decoder.layers.0.linear.weight f4 [12, 4]
-0.38176844 0.020104498 0.23345205 -0.39551878 -0.3445681 0.058135476 -0.2701532 0.40175793
0.27282593 0.052343868 0.28361198 0.18153937 -0.05378225 0.0430033 0.12168802 -0.11142945
-0.17035638 -0.22879612 0.115811266 -0.36776707 0.111279786 -0.27619654 0.36278707 -0.40276134
0.29184514 0.21175247 -0.36551988 0.042580403 0.23874171 -0.3985596 -0.2747137 -0.031781416
0.519905 0.12960969 0.30854428 -0.10064864 -0.038401365 0.026476383 0.40963447 0.49669206
0.52903116 0.029716304 -0.49238947 -0.28539547 -0.4468453 -0.18266208 -0.40256107 -0.32454193
00000000: 2777 c3be 30b2 a43c 0e0e 6f3e 7081 cabe
00000010: 3b6b b0be 771f 6e3d 8551 8abe 37b3 cd3e
00000020: d7af 8b3e 8666 563d 9735 913e 75e5 393e
00000030: c74a 5cbd 3a24 303d 9237 f93d 2035 e4bd
00000040: e771 2ebe 8849 6abe 752e ed3d f74b bcbe
00000050: a8e6 e33d a269 8dbe 3abf b93e bc36 cebe
00000060: ba6c 953e a4d5 583e 6c25 bbbe ca68 2e3d
00000070: b578 743e 0110 ccbe 46a7 8cbe 3b2d 02bd
00000080: 7e18 053f 67b8 043e 84f9 9d3e e020 cebd
00000090: c04a 1dbd 00e5 d83c 9cbb d13e 6c4e fe3e
000000a0: 966e 073f 9b6f f33c 791a fcbe 5b1f 92be
000000b0: e8c8 e4be c50b 3bbe 7c1c cebe 5c2a a6be

decoder.layers.0.linear.bias f4 [12]
0.43081588 0.5375692 -0.24817477 0.23901434 0.4732855 -0.39702737 0.47523913 -0.19415277
0.05418218 -0.37804854 0.40799567 -0.05110557
00000000: e693 dc3e 239e 093f 8721 7ebe 2dc0 743e
00000010: 7a52 f23e 2c47 cbbe 8b52 f33e fccf 46be
00000020: 22ee 5d3d 948f c1be cfe4 d03e 1354 51bd

decoder.layers.2.linear.weight f4 [6, 12]
-0.02312965 0.05319122 0.011945877 -0.059398517 0.10587416 -0.06235674 -0.0070265913 -0.22666481
-0.03835098 0.28413513 0.24824634 0.18765402 -0.12576513 0.26863238 -0.10454325 -0.22094612
0.32680315 -0.2510253 0.24562803 0.2568102 0.29298458 -0.21104418 0.1868523 -0.14976765
-0.13947706 -0.1718818 -0.052327853 0.04493503 -0.06346358 -0.04975479 -0.14595407 -0.1569641
0.15463777 -0.20850869 0.32860425 0.14588518 -0.21014316 -0.14676581 -0.23095118 -0.26406407
-0.277081 -0.01849087 -0.31781998 -0.30935395 -0.036186088 -0.09221057 0.087626375 0.0045672497
-0.21687336 -0.17617472 -0.047564067 -0.20749308 -0.15547095 0.06285477 -0.19648373 -0.13737041
0.074746706 -0.28106683 0.13216944 0.02670466 0.08581191 0.19298519 -0.24518128 0.20747039
-0.20619605 0.16753995 0.14671426 0.119273216 0.011306364 0.07059667 -0.24074778 0.21271311
00000000: 647a bdbc 09df 593d a4b8 433c dc4b 73bd
00000010: 8dd4 d83d c869 7fbd 523f e6bb d21a 68be
00000020: eb15 1dbd 297a 913e 4a34 7e3e 6028 403e
00000030: 93c8 00be 2f8a 893e c51a d6bd b33f 62be
00000040: be52 a73e 6386 80be ea85 7b3e a07c 833e
00000050: 1302 963e f71b 58be 3656 3f3e b15c 19be
00000060: 13d3 0ebe c801 30be bb55 56bd cb0d 383d
00000070: 32f9 81bd aecb 4bbd fc74 15be 32bb 20be
00000080: 5d59 1e3e 4d83 55be d13e a83e ed62 153e
00000090: c52f 57be c749 16be 777e 6cbe 6833 87be
000000a0: 90dd 8dbe 2a7a 97bc 4db9 a2be a463 9ebe
000000b0: dd37 14bd e5d8 bcbd 7575 b33d dea8 953b
000000c0: 0d14 5ebe 2567 34be 8ad2 42bd 1179 54be
000000d0: c733 1fbe 00ba 803d 0833 49be d4aa 0cbe
000000e0: cd14 993d fee7 8fbe 6d57 073e bbc3 da3c
000000f0: 28be af3d e99d 453e cd10 7bbe 1e73 543e
00000100: 0f25 53be 988f 2b3e 433c 163e 8445 f43d
00000110: 543e 393c fd94 903d 9686 76be 77d1 593e

decoder.layers.2.linear.bias f4 [6]
-0.26886794 -0.046606768 -0.23100445 -0.17122334 -0.04207685 -0.016944379
00000000: 0fa9 89be bde6 3ebd 6e8c 6cbe 2c55 2fbe
00000010: c658 2cbd f0ce 8abc

exp_avg f4 [12, 6]
-0.001047768 -0.01330483 -0.0018198817 0.0034817746 0.00041652808 0.00040125079 -0.003584038 -0.02638835
-0.009269235 0.010945118 0.003528896 0.0035398372 -0.0038850703 -0.02164924 -0.011419138 0.01080163
0.0037606352 0.0037726564 -0.0022200143 -0.006907674 -0.006526146 0.0056795524 0.00258572 0.002027236
-0.00030452092 0.0010548723 -0.0008472961 -0.000409693 0.00032391664 0.0006138127 -0.0012184912 -0.0029175484
-0.0031691997 0.0025952915 0.0017465145 0.0017636389 -0.003425754 -0.020082248 -0.008929412 0.010518811
0.004005021 0.0037338715 0.0048279734 -0.00083431817 0.009734045 0.0053401534 -0.005368909 -0.0032396256
-0.0005176655 0.00017331766 -0.00063934806 0.00017209769 0.0015690068 0.0023449494 -0.007721087 -0.011438926
-0.01663952 0.0021508774 0.008556652 0.0048000827 0.003016581 -0.0016462178 0.005292365 0.0036900467
-0.002611323 -0.0016760307 -0.00062947057 -0.006166695 0.00055149227 0.00025340967 4.260886e-05 -0.00056842144
00000000: 4355 89ba 80fc 59bc 1989 eeba 7c2e 643b
00000010: 7461 da39 f85e d239 2ee2 6abb 622c d8bc
00000020: fddd 17bc 2753 333c 0d45 673b 9dfc 673b
00000030: aa9c 7ebb bf59 b1bc 5617 3bbc 52f9 303c
00000040: fd74 763b ac3e 773b a97d 11bb c559 e2bb
00000050: 48d9 d5bb 8a1b ba3b 2f75 293b 60db 043b
00000060: 1ba8 9fb9 a443 8a3a 141d 5eba 10cc d6b9
00000070: 5bd3 a939 46e8 203a c8b5 9fba 5734 3fbb
00000080: 59b2 4fbb c415 2a3b 4deb e43a e729 e73a
00000090: 9d82 60bb 8783 a4bc ab4c 12bc 1757 2c3c
000000a0: 8d3c 833b f8b3 743b fa33 9e3b 25b6 5aba
000000b0: 8b7b 1f3c 74fc ae3b aced afbb e64f 54bb
000000c0: f2b3 07ba 9bbc 3539 ec99 27ba 1f75 3439
000000d0: 22a7 cd3a b9ad 193b 2c01 fdbb 556a 3bbc
000000e0: 9a4f 88bc bcf5 0c3b 3331 0c3c 034a 9d3b
000000f0: d5b1 453b e7c5 d7ba 936b ad3b b6d4 713b
00000100: bb22 2bbb 42ae dbba 0e03 25ba fd11 cabb
00000110: 0592 103a 12dc 8439 eab6 3238 1e02 15ba

exp_avg_sq f4 [12, 6]
3.8888167e-08 1.2678199e-05 1.6221587e-07 1.5782342e-06 4.09255e-08 4.9910877e-08 5.2997035e-07 2.9902672e-05
4.0527684e-06 4.546038e-06 4.5389083e-07 6.0190104e-07 1.375028e-06 2.7876285e-05 1.2193172e-05 9.341695e-06
1.4566607e-06 1.4182954e-06 2.3462559e-07 1.9540869e-06 1.8515144e-06 1.4516748e-06 2.8977425e-07 1.6869163e-07
8.90062e-09 6.228078e-07 9.611802e-08 2.545195e-08 1.4200589e-08 8.249267e-08 6.2038445e-08 3.234072e-07
3.922933e-07 2.468835e-07 1.502276e-07 2.2244146e-07 9.185302e-07 2.5067124e-05 6.1682967e-06 6.9700714e-06
1.482385e-06 1.6332566e-06 8.532289e-07 9.3026756e-08 3.1040704e-06 9.6905e-07 1.2429579e-06 1.200093e-06
1.8860515e-08 1.15304985e-07 4.658647e-08 6.269493e-09 1.9193261e-07 3.944886e-07 2.883714e-06 5.40432e-06
1.404083e-05 1.0669797e-06 3.7741856e-06 1.6643265e-06 2.1626579e-07 5.618405e-08 6.4496817e-07 3.093836e-07
1.8057483e-07 2.6335226e-07 3.0948954e-08 2.9903254e-06 3.0716944e-07 2.3768028e-07 4.2954444e-08 1.2163049e-07
00000000: fe05 2733 73b4 5437 8f2d 2e34 b7d3 d335
00000010: 10c6 2f33 975d 5633 4943 0e35 80d7 fa37
00000020: 04fd 8736 2b8a 9836 48ae f334 5392 2135
00000030: 9a8d b835 ded7 e937 4691 4c37 46ba 1c37
00000040: 7b82 c335 425c be35 64ed 7b34 f522 0336
00000050: 8d81 f835 2bd7 c235 4592 9b34 9a21 3534
00000060: 57e9 1832 072f 2735 7169 ce33 6ea1 da32
00000070: daf6 7332 d326 b133 ff39 8533 bfa0 ad34
00000080: 619c d234 698b 8434 404e 2134 3ed8 6e34
00000090: ea90 7635 3d47 d237 44f9 ce36 75e0 e936
000000a0: 5cf6 c635 4536 db35 7209 6535 00c6 c733
000000b0: 864f 5036 4e10 8235 b5d3 a635 e212 a135
000000c0: b602 a232 969d f733 5e16 4833 0b6b d731
000000d0: 0916 4e34 1aca d334 d485 4136 c156 b536
000000e0: e890 6b37 2535 8f35 0448 7d36 d361 df35
000000f0: b036 6834 044f 7133 e021 2d35 5c19 a634
00000100: 08e4 4134 dc62 8d34 bcec 0433 66ad 4836
00000110: 0ce9 a434 0f35 7f34 e97c 3833 8999 0234

exp_avg f4 [12]
-0.01022515 -0.023345837 -0.019690627 -0.007818128 0.0009722046 -0.0036957862 -0.01955655 -0.0043909466
-0.0005838098 -0.008184557 -0.003907427 -0.003765538
00000000: 6387 27bc c53f bfbc 3d4e a1bc 9b17 00bc
00000010: 8cdb 7e3a 0135 72bb 0f35 a0bc eee1 8fbb
00000020: d00a 19ba 8518 06bc e009 80bb 3fc7 76bb

exp_avg_sq f4 [12]
8.776197e-06 2.2105254e-05 2.5367463e-05 2.590005e-06 3.576389e-07 5.141137e-07 2.419213e-05 7.232423e-07
7.863461e-08 4.042555e-06 3.4192126e-07 1.7842898e-06
00000000: 7b3d 1337 ac6e b937 36cc d437 f2cf 2d36
00000010: 8401 c034 a001 0a35 34f0 ca37 d524 4235
00000020: d6dd a833 48a5 8736 4d91 b734 bb7b ef35

exp_avg f4 [4, 12]
-0.013248888 -0.008396393 -0.009981457 -0.011185585 -0.0041260812 -0.010972436 -0.021031355 0.002688086
-0.0005976341 -0.022828255 0.001907074 0.007820406 -0.0016277551 -0.00034485594 -0.0009558072 -0.0012304405
-0.00038519973 -0.001224022 -0.0007903881 -0.00023881206 0.00016747172 -0.0018358318 -0.00035530666 -0.001492109
0.007041332 0.0034337777 0.0035929976 0.0027314962 0.0031140011 0.0032510979 0.007705527 -0.001752394
-0.00015912224 0.008865435 -0.00059930084 -0.004612761 -0.0087611815 0.0008058701 0.004078919 0.013229868
-0.0040416266 0.008574256 0.008469934 -0.0017376472 0.0028143346 -0.0020872417 -0.0013031556 -0.01158586
00000000: dd11 59bc 0691 09bc 4489 23bc be43 37bc
00000010: 1434 87bb bbc5 33bc f349 acbc 992a 303b
00000020: 8caa 1cba 5202 bbbc c9f6 f93a 2921 003c
00000030: 665a d5ba c8cd b4b9 238f 7aba bb46 a1ba
00000040: a2f4 c9b9 5d6f a0ba 0c32 4fba a069 7ab9
00000050: 599b 2f39 4ba0 f0ba 7448 bab9 df92 c3ba
00000060: f9ba e63b 3b09 613b 7f78 6b3b e702 333b
00000070: 4514 4c3b 5f10 553b a57e fc3b 96b0 e5ba
00000080: 0dda 26b9 5440 113c 661a 1dba a526 97bb
00000090: 0f8b 0fbc 0741 533a 74a8 853b 17c2 583c
000000a0: 9f6f 84bb 097b 0c3c 7ac5 0a3c c4c1 e3ba
000000b0: b370 383b 1bca 08bb a5ce aaba 9ed2 3dbc

exp_avg_sq f4 [4, 12]
1.3427477e-05 2.2561144e-06 4.434637e-06 8.410773e-06 4.214128e-06 5.8869628e-06 2.7785465e-05 2.542081e-07
2.0140156e-07 4.7142206e-05 1.454661e-07 1.9286015e-06 4.2666696e-07 1.1511879e-08 6.554483e-08 1.1167133e-06
3.0118676e-07 1.7794055e-07 1.366232e-06 5.798144e-08 1.4993437e-07 2.4054518e-06 1.7143211e-08 1.4505555e-07
3.5668154e-06 3.8250258e-07 6.177481e-07 6.6653473e-07 1.686276e-06 5.913862e-07 3.5031171e-06 8.8040636e-08
3.30371e-08 6.92231e-06 1.0893825e-08 8.976591e-07 6.2369386e-06 5.9687125e-08 5.8001905e-07 8.668918e-06
4.254202e-06 2.7175995e-06 3.0461777e-06 1.5634133e-07 7.249802e-07 5.121194e-06 6.2672775e-08 5.5833734e-06
00000000: 9346 6137 c067 1736 3ecd 9436 ff1b 0d37
00000010: 1567 8d36 a088 c536 d514 e937 187a 8834
00000020: d740 5834 8fba 4538 6b31 1c34 1f6d 0136
00000030: a910 e534 c7c5 4532 a7c1 8c33 fae1 9535
00000040: cbb2 a134 ed0f 3f34 605f b735 4407 7933
00000050: a5fd 2034 596d 2136 5242 9332 91c0 1b34
00000060: 6c5d 6f36 c15a cd34 54d3 2535 ebeb 3235
00000070: 0154 e235 c0bf 1e35 1817 6b36 da10 bd33
00000080: ade4 0d33 3146 e836 8d27 3b32 aaf6 7035
00000090: e546 d136 582d 8033 9bb2 1b35 b870 1137
000000a0: 51bf 8e36 0160 3636 ef6c 4c36 c7de 2734
000000b0: 439c 4235 b9d6 ab36 b996 8633 d058 bb36

exp_avg f4 [4]
-0.045562346 -0.004747559 0.019062981 -0.014152992
00000000: 959f 3abd 6991 9bbb f829 9c3c f3e1 67bc

exp_avg_sq f4 [4]
0.00031792888 1.8996654e-05 5.5380453e-05 4.7124053e-05
00000000: b1af a639 015b 9f37 4f48 6838 11a7 4538

exp_avg f4 [12, 4]
0.022480004 0.0086392425 -0.00455322 -0.010167341 -0.008524072 -0.003680517 -0.00064937625 0.0013194709
0.00047782258 0.00011988407 0.00023451379 5.27513e-05 0.025558954 0.011744313 -0.0028193174 -0.009303066
-0.017403794 -0.007017709 0.007034491 0.011803115 0.0 0.0 0.0 0.0
-0.005647954 -0.002408666 -0.0009670587 -0.0006780675 0.008745415 0.0037805985 -0.0042926664 -0.0063739563
-0.026842907 -0.009508872 0.006252263 0.012349095 0.0 0.0 0.0 0.0
-0.027468251 -0.008031595 0.014007282 0.022778315 0.0003088022 0.00019688973 -0.00019466838 -0.0003288578
00000000: fc27 b83c 9c8b 0d3c 2d33 95bb eb94 26bc
00000010: 8da8 0bbc d434 71bb e73a 2aba 19f2 ac3a
00000020: 4384 fa39 456a fb38 d1e7 7539 4741 5d38
00000030: 0361 d13c 386b 403c 4cc4 38bb e36b 18bc
00000040: 6792 8ebc cff4 e5bb 9681 e63b da61 413c
00000050: 0000 0000 0000 0000 0000 0000 0000 0000
00000060: 7912 b9bb b6da 1dbb 3682 7dba 57c0 31ba
00000070: ee48 0f3c ebc3 773b 7fa9 8cbb 9fdc d0bb
00000080: a8e5 dbbc 1acb 1bbc c9df cc3b dc53 4a3c
00000090: 0000 0000 0000 0000 0000 0000 0000 0000
000000a0: 1905 e1bc f396 03bc cd7e 653c 9799 ba3c
000000b0: bbe6 a139 2f74 4e39 e51f 4cb9 8c6a acb9

exp_avg_sq f4 [12, 4]
5.408045e-05 2.3610122e-05 1.0743346e-06 2.4361383e-05 3.1529837e-06 7.39053e-07 1.7749322e-07 4.404859e-07
9.130066e-08 2.9866214e-09 3.052549e-08 5.313545e-09 7.817748e-05 3.6580503e-05 1.1507907e-06 3.3794095e-05
2.2791231e-05 9.636873e-06 2.0135753e-06 1.2525875e-05 0.0 0.0 0.0 0.0
1.4028789e-06 5.199251e-07 2.0558147e-07 3.1288542e-07 3.4199495e-06 9.072124e-07 8.144904e-07 1.993287e-06
4.5130906e-05 1.3552062e-05 1.3757297e-06 1.6251626e-05 0.0 0.0 0.0 0.0
5.1072577e-05 1.771606e-05 6.6516036e-06 3.2483233e-05 2.3158893e-08 1.879429e-08 8.000872e-09 2.7902088e-08
00000000: 71d4 6238 5a0e c637 db31 9035 ac5b cc37
00000010: d997 5336 5663 4635 f794 3e34 ec7b ec34
00000020: 1211 c433 333d 4d31 221b 0333 7092 b631
00000030: 37f3 a338 046e 1938 de74 9a35 22be 0d38
00000040: cc2f bf37 0eae 2137 f620 0736 3926 5237
00000050: 0000 0000 0000 0000 0000 0000 0000 0000
00000060: 8d4a bc35 fb90 0b35 cebd 5c34 a5fa a734
00000070: 4982 6536 2987 7335 5ba3 5a35 69c4 0536
00000080: f14a 3d38 aa5d 6337 b6a5 b835 1a54 8837
00000090: 0000 0000 0000 0000 0000 0000 0000 0000
000000a0: c336 5638 f39c 9437 d730 df36 9b3e 0838
000000b0: f2ee c632 1571 a132 3574 0932 57ad ef32

exp_avg f4 [12]
0.04278267 -0.02238695 0.0007846631 0.057914056 -0.02510102 0.0 -0.017098852 0.010086451
-0.048023965 0.0 -0.025890505 0.00036975913
00000000: e23c 2f3d d664 b7bc d9b1 4d3a 4a37 6d3d
00000010: a7a0 cdbc 0000 0000 e412 8cbc a441 253c
00000020: c7b4 44bd 0000 0000 5318 d4bc 3bdc c139

exp_avg_sq f4 [12]
0.000411617 2.3108712e-05 2.2013927e-07 0.00065450417 0.00010913205 0.0 1.2917685e-05 5.4360403e-06
0.00026781854 0.0 0.00018447006 6.646925e-08
00000000: 4cce d739 95d9 c137 6c5f 6c34 0893 2b3a
00000010: d3dd e438 0000 0000 09b9 5837 3b67 b636
00000020: ff69 8c39 0000 0000 4e6e 4139 dbbd 8e33

exp_avg f4 [6, 12]
0.005568317 0.013377913 1.9264136e-05 0.003491137 0.0043408195 0.0 0.0029654668 -0.0009819668
-0.0007119485 0.0 -0.0048837606 -1.60734e-06 -0.04864328 -0.044277318 6.971912e-06 -0.037449386
-0.058371615 0.0 -0.098409586 -0.00021898694 -0.046162263 0.0 -0.11177165 1.0795358e-06
0.011694997 0.029087434 2.62169e-05 0.0065135313 0.007618381 0.0 -0.0001515961 -0.002451716
-0.004357072 0.0 -0.020242488 -2.2950003e-06 0.0013499141 0.0048660343 6.5548024e-06 0.002111799
0.0027123378 0.0 0.009474718 0.00052454305 0.0033870582 0.0 0.010166236 -1.4626163e-06
-0.04287048 -0.054450154 -3.5195062e-05 -0.03304998 -0.04963972 0.0 -0.08134794 0.0009665694
-0.035074804 0.0 -0.07994756 5.9740023e-06 -0.0042681475 -0.012018599 -0.00010670872 -0.003137068
-0.004980466 0.0 -0.0015443417 0.0010329849 -0.0007068831 0.0 0.0056823944 7.18695e-06
00000000: 6e76 b63b 092f 5b3c 6b99 a137 8fcb 643b
00000010: 6f3d 8e3b 0000 0000 4758 423b 57b5 80ba
00000020: 0ea2 3aba 0000 0000 f407 a0bb c8bb d7b5
00000030: 2d3e 47bd 225c 35bd 45f0 e936 8764 19bd
00000040: 1317 6fbd 0000 0000 f78a c9bd dc9f 65b9
00000050: a414 3dbd 0000 0000 89e8 e4bd 91e4 9035
00000060: 5f9c 3f3c c548 ee3c 5dec db37 766f d53b
00000070: 9da3 f93b 0000 0000 c5f5 1eb9 f8ac 20bb
00000080: c5c5 8ebb 0000 0000 93d3 a5bc ce03 1ab6
00000090: 9aef b03a 4173 9f3b 53f1 db36 1c66 0a3b
000000a0: 7ac1 313b 0000 0000 d93b 1b3c 7d81 093a
000000b0: 68f9 5d3b 0000 0000 4990 263c 1d4f c4b5
000000c0: f598 2fbd 2007 5fbd 699e 13b8 6a5f 07bd
000000d0: 0553 4bbd 0000 0000 c099 a6bd 6061 7d3a
000000e0: 99aa 0fbd 0000 0000 8cbb a3bd 4a74 c836
000000f0: d1db 8bbb a8e9 44bc cfc8 dfb8 4497 4dbb
00000100: 2d33 a3bb 0000 0000 826b caba 3965 873a
00000110: 1f4e 39ba 0000 0000 6133 ba3b 6e27 f136

exp_avg_sq f4 [6, 12]
2.7557066e-06 5.6460376e-06 3.7139747e-10 1.5023169e-06 2.3465307e-06 0.0 7.1056697e-06 3.2222864e-08
1.3287766e-06 0.0 1.0233702e-05 5.518413e-12 0.00074408454 0.00022649713 9.007309e-12 0.00036426168
0.00049733295 0.0 0.0011143467 3.0564045e-09 0.0001796408 0.0 0.0012819278 3.1323465e-13
1.8299937e-05 2.4482579e-05 6.542231e-10 9.729406e-06 1.2168784e-05 0.0 4.7540583e-05 1.7800504e-07
8.996087e-06 0.0 8.01505e-05 1.3626911e-11 7.132574e-06 4.165004e-06 6.9605766e-11 4.0749005e-06
5.078793e-06 0.0 2.0531596e-05 1.0288553e-08 2.5361e-06 0.0 2.407908e-05 1.916769e-12
0.000382194 0.00018027496 1.5285884e-09 0.00019023282 0.00026761927 0.0 0.0005878667 3.501509e-08
8.498932e-05 0.0 0.0006100782 4.364064e-11 1.6007754e-05 5.6691174e-06 1.1530962e-08 8.586642e-06
6.225618e-06 0.0 3.659644e-05 7.458684e-08 4.244766e-06 0.0 4.9537637e-05 8.9023136e-11
00000000: aeee 3836 1873 bd36 8c2d cc2f 37a3 c935
00000010: 1779 1d36 0000 0000 3d6d ee36 6a65 0a33
00000020: 6b58 b235 0000 0000 6ab1 2b37 7229 c22c
00000030: ab0e 433a dc7f 6d39 5075 1e2d 60fa be39
00000040: 735f 023a 0000 0000 450f 923a d608 5231
00000050: f65d 3c39 0000 0000 5c06 a83a df55 b02a
00000060: d182 9937 f05f cd37 dcd4 3330 7b3b 2337
00000070: 8828 4c37 0000 0000 5066 4738 a721 3f34
00000080: e6ed 1637 0000 0000 7916 a838 27ba 6f2d
00000090: 5854 ef36 1dc1 8b36 9010 992e 21bb 8836
000000a0: 806a aa36 0000 0000 443b ac37 89c1 3032
000000b0: de31 2a36 0000 0000 6efd c937 71e1 062c
000000c0: 3661 c839 3108 3d39 6c16 d230 3c79 4739
000000d0: 404f 8c39 0000 0000 111b 1a3a 8063 1633
000000e0: 4b3c b238 0000 0000 a8ed 1f3a feee 3f2e
000000f0: 6448 8637 5939 be36 b519 4632 590f 1037
00000100: a7e5 d036 0000 0000 217f 1938 8d2c a033
00000110: 436e 8e36 0000 0000 a2c6 4f38 92c3 c32e

exp_avg f4 [6]
0.015268721 -0.14990787 0.0275514 0.011438676 -0.13729222 -0.015348926
00000000: a829 7a3c 7381 19be 79b3 e13c 4969 3b3c
00000010: 5596 0cbe 107a 7bbc

exp_avg_sq f4 [6]
2.043033e-05 0.0035387552 0.000106783074 4.699318e-05 0.0019854903 6.885328e-05
00000000: cd61 ab37 76ea 673b baf0 df38 8b1a 4538
00000010: 001f 023b 5365 9038
