lightning_logs/version_0/checkpoints/epoch=9-step=70.ckpt (torch, 14835 bytes, 24 tensors)

encoder.layers.0.linear.weight f4 [12, 6]
000000 e8 4f af 3c 98 0e ae 3e f8 7c b1 be 9e 6c 1c 3c
       0.021400407 0.3399551 -0.34665656 0.009547381
000010 10 f1 de be ad 5f 35 3e 74 88 29 be 1f da d0 3d
       -0.4354329 0.17712279 -0.16555959 0.10197853
000020 9e 1d 33 bc 38 db a2 be 2c 36 c6 be 14 85 c7 be
       -0.010932354 -0.31807876 -0.38713205 -0.38968718
000030 88 cb 82 3d bc 06 a3 3e 2e 1d 91 be ec 93 f5 3d
       0.06386477 0.31841075 -0.28342575 0.119911045
000040 82 15 bc 3e 03 42 9c bd 35 89 1a 3d b9 26 6e 3e
       0.3673516 -0.07629778 0.037728507 0.23256959
000050 7a e8 15 be 43 67 b2 be 71 70 4d 3e da c6 d0 3d
       -0.14639464 -0.34844407 0.20062424 0.10194178
000060 17 8e dc 3d d2 1e 88 3e 58 0b c7 3d dd bf 98 be
       0.10769289 0.26586014 0.097189605 -0.2983388
000070 47 e1 05 bd 3f 3d af be d9 a7 08 bb ff b9 ee 3e
       -0.032685544 -0.34226415 -0.0020851998 0.4662628
000080 8f bd 6d bd 5d 85 6e 3e bc db 84 be 51 4b 8e 3e
       -0.058042105 0.23293062 -0.25948894 0.27791837
000090 89 f6 f0 bd 4e 28 73 be bb da 1d bd 90 0b af 3d
       -0.11765773 -0.23745844 -0.038538676 0.08547127
0000a0 4a 5d e7 be 5f 2b 4b 3c 91 9b bc 3e aa c5 29 3e
       -0.4518836 0.012400477 0.36837438 0.16579309
0000b0 49 e0 2e be 19 4d 40 be 17 ac 89 3d ae 59 fa 3d
       -0.17077745 -0.1877941 0.06722277 0.12224136
0000c0 8e d3 d7 bd 4d 68 a5 3d d0 ac d2 be 29 96 b0 be
       -0.10538398 0.080765344 -0.4114747 -0.34489563
0000d0 da cf 9d 3e 32 f1 c5 bd 85 92 54 3e 28 f0 89 be
       0.3082264 -0.09665145 0.20759018 -0.26941037
0000e0 84 49 1c be fd 23 86 3e b6 62 9f be e3 a8 c4 3e
       -0.15262419 0.26199332 -0.31129998 0.384101
0000f0 29 10 45 3d 84 2a 88 be 99 d7 c7 be c8 04 b7 3e
       0.048111115 -0.26594937 -0.39031675 0.35745835
000100 1c 29 b7 be 11 b8 f7 3b a1 75 15 3e c3 7b a0 3d
       -0.3577355 0.007559784 0.14595653 0.07836106
000110 07 92 ff bd b1 be 8f 3e 90 75 b0 be cd 31 81 3d
       -0.124790244 0.28075173 -0.34464693 0.06308327

encoder.layers.0.linear.bias f4 [12]
000000 19 f9 3f be 08 3e 76 bb 38 1b 6c be 24 0b 89 3e
       -0.18747367 -0.0037573595 -0.23057258 0.26766312
000010 24 a6 86 3a be 29 82 3e 74 4c ed 3d 36 7f da be
       0.0010272902 0.25422472 0.11586848 -0.4267518
000020 8c 59 d6 be 33 6f e8 3d 7b 2f 6e be 62 1c b8 be
       -0.41865194 0.113493346 -0.232603 -0.35959154

encoder.layers.2.linear.weight f4 [4, 12]
000000 a5 6a 1f be f4 96 25 be 52 03 bf bd ba a7 33 bd
       -0.15568025 -0.16170865 -0.09326805 -0.04386113
000010 95 96 2b be 99 7f 7e 3e b0 96 95 be 54 e3 ee bd
       -0.16756661 0.24853362 -0.29216528 -0.11664453
000020 d0 54 a5 3e df e8 b5 3d 12 73 8f 3e 81 76 80 be
       0.3229127 0.08882307 0.2801748 -0.2509041
000030 2b 42 63 3e b5 54 ba bd 23 23 b1 be 6c 0a 16 3e
       0.2219321 -0.09098188 -0.3459712 0.14652413
000040 5c 6a d0 3d a9 0d 25 be e8 23 9d bc 45 c5 25 3e
       0.101765364 -0.16118492 -0.01918216 0.16188534
000050 bf b0 83 3c e4 7f 90 be 0d 19 22 3e 13 cf 06 be
       0.01607549 -0.28222573 0.15829869 -0.1316493
000060 cd 7f d5 bd 75 ba 03 3e 55 dd c8 bd ea 7e 3e bd
       -0.10424767 0.12864096 -0.09807841 -0.046507753
000070 cf 15 2e 3d 66 6b 30 bd 96 15 66 be fd ca 6b bd
       0.042501267 -0.043071173 -0.22469172 -0.05756663
000080 a9 d7 f4 bd f1 d7 2c 3e 6d 19 5d 3e 43 a6 e6 3c
       -0.119551964 0.1687925 0.2159173 0.028155452
000090 6b 59 58 3d de 48 ed 3d 44 1c 14 be b2 8e a4 be
       0.05281965 0.11586164 -0.14463907 -0.32140118
0000a0 8e cd 22 be 05 6a 85 3c 66 51 06 3e 5c ef 0f be
       -0.15898725 0.016285906 0.13116989 -0.14056152
0000b0 a1 44 51 3e c7 ff 8c 3e 9d 80 47 3e 33 4a f3 3d
       0.20436336 0.27538893 0.19482656 0.11879387

encoder.layers.2.linear.bias f4 [4]
000000 27 a0 31 bd 4c 28 13 3d 4c 67 0f 3c 6e 7c 38 be
       -0.043365624 0.035927102 0.008752655 -0.18016216

decoder.layers.0.linear.weight f4 [12, 4]
000000 16 65 59 3e ae 52 84 3e 6a e6 60 3e 3a 21 0a 3e
       0.21229967 0.2584433 0.21962896 0.13489237
000010 fa 98 05 be ee bc 04 3e 76 85 48 3c 84 2f 22 bd
       -0.13046637 0.12962696 0.012238851 -0.039596096
000020 00 e6 33 3d d0 cc 5d bd 88 da 8f 3e 98 77 df 3e
       0.043920517 -0.054150403 0.28096414 0.4364593
000030 44 c1 13 3e 40 13 ad 3d b0 83 bc 3e 12 18 d1 3e
       0.14429194 0.08450937 0.3681922 0.40838677
000040 72 13 97 3e 03 bb cc be a6 b3 74 3e 2f d1 b4 be
       0.29507023 -0.3998643 0.23896655 -0.35315844
000050 a0 5b d9 3d 60 6d 58 3d e8 68 bb 3d 30 d2 5b bd
       0.10613179 0.052838683 0.09150869 -0.053667247
000060 ec 2c 41 3e cc de b6 be 5c 17 02 3e 64 68 13 be
       0.18864793 -0.35716856 0.12704223 -0.1439529
000070 40 b2 cc be d0 58 39 bd 4c 9f 4f be 24 c4 85 be
       -0.39979744 -0.045250714 -0.2027561 -0.26126206
000080 10 38 1f 3d d2 42 d6 be a0 39 7a 3d 10 42 d3 bd
       0.038871825 -0.41847855 0.06109011 -0.10315335
000090 2c 85 c4 3e 32 78 d0 3e 00 e4 f4 3c 84 e9 6c 3e
       0.38382852 0.40716702 0.029893875 0.23135954
0000a0 e5 b2 ea be 99 d3 cc 3e 17 7b e8 be 8c 99 ca be
       -0.4583961 0.40005186 -0.4540641 -0.39570272
0000b0 9c 9e 93 3e fd ac 83 3e c8 ed c0 3d 7a 66 8c bd
       0.28831947 0.25717917 0.09420353 -0.06855483

decoder.layers.0.linear.bias f4 [12]
000000 df e8 bd 3e a9 19 96 3e ca 45 aa be 80 f3 a2 bd
       0.3709173 0.29316452 -0.3325637 -0.079566
000010 a1 21 fd 3e 84 27 f4 be a8 fb f8 be be 21 d3 be
       0.4943972 -0.47686398 -0.48629498 -0.4123668
000020 dc 91 0f be 04 52 b7 be 24 70 ba 3e dd a4 c6 3e
       -0.14020485 -0.3580476 0.36413682 0.38797656

decoder.layers.2.linear.weight f4 [6, 12]
000000 71 43 3e 3e 87 55 47 3e 50 92 60 3e 07 ae a5 3c
       0.18580414 0.1946622 0.21930814 0.020224584
000010 72 86 da 3d 6b 87 0e 3d 02 90 76 be d6 c0 28 3e
       0.10670175 0.034797113 -0.24078372 0.16479811
000020 57 49 5f be 9f 05 91 3e d4 dc 53 be cb c8 65 3e
       -0.2180532 0.283246 -0.20689708 0.22439878
000030 2d 4b 63 bd 44 b4 e2 bd dc a2 d7 bd e6 af a1 3c
       -0.055491615 -0.11069539 -0.1052911 0.019737195
000040 0b 24 87 3e df 05 88 3d b8 17 41 3d ae aa 0e 3e
       0.26394686 0.06641745 0.04714176 0.13932297
000050 f3 03 97 3d 41 08 88 3e 9c 94 55 b9 ff c5 5e 3d
       0.073738 0.26568797 -0.00020368624 0.054388043
000060 f4 5a 6b 3e 63 20 98 3d a7 4c 7e be f5 1f 87 3d
       0.22983915 0.07428052 -0.24833928 0.06597892
000070 db 80 60 3d b7 fd 54 be 3e 80 7a 3e 15 33 29 3e
       0.054810386 -0.2079991 0.24462983 0.16523392
000080 6f 18 9c bb ac ed 02 be 05 98 d7 bd 74 c1 6c be
       -0.004763655 -0.12785977 -0.10527042 -0.23120672
000090 46 d5 45 bd 80 7e a6 b7 47 c4 37 be e1 10 4d be
       -0.048299097 -1.9847648e-05 -0.17945968 -0.2002597
0000a0 1c f3 1d 3b 64 59 c1 ba 71 ea ff bd b9 9f 74 3e
       0.0024101203 -0.0014751372 -0.12495888 0.23889054
0000b0 86 1f ea 3c 37 e4 82 be c1 8e ac be ce 0b 5f 3c
       0.028579485 -0.2556474 -0.33702663 0.013613654
0000c0 c7 86 c4 3d c6 81 7a be c0 5e 1c 3e f9 8f 46 be
       0.09596019 -0.24463567 0.1527052 -0.19390859
0000d0 12 23 1f 3e 51 f9 a5 bd bf 3d 80 be 76 6b 99 bd
       0.15540722 -0.08104194 -0.2504711 -0.074912
0000e0 a6 eb 83 be 21 72 0f 3e 54 5e 91 bd e7 97 f1 3d
       -0.25765723 0.1400838 -0.0709807 0.11796551
0000f0 94 05 13 3c c3 c5 65 be 93 a1 a0 3d 45 2a 11 3e
       0.008973498 -0.22438721 0.07843318 0.14176281
000100 d5 4c 1b 3e 15 8a 21 be e6 88 02 be 01 ec 88 be
       0.15166028 -0.1577533 -0.12747535 -0.26742557
000110 fe 49 42 3e ad 68 ac 3d 7a 6e 63 be 13 94 96 3e
       0.18973538 0.08418403 -0.22210112 0.29409847

decoder.layers.2.linear.bias f4 [6]
000000 dc 4f 08 be bb 9d 11 be b6 5e 38 3e 74 f4 aa be
       -0.13311714 -0.14220326 0.1800488 -0.33389628
000010 1a dc 99 3d de dc 15 3d
       0.07512684 0.03658759

exp_avg f4 [12, 6]
000000 bb e4 70 ba b1 d4 79 3c 0a ac 19 bb 6d d8 0b bb
       -0.0009189357 0.0152484635 -0.002344849 -0.0021338717
000010 c4 02 90 3b 5b 7a aa 3b 9e 4f 9b ba ed c0 05 3b
       0.004394861 0.005202574 -0.0011849289 0.0020409182
000020 db 8e 4c bb 5b 1a 1c bb 00 ad f4 3a 5c 35 38 3a
       -0.0031213078 -0.002381942 0.0018667281 0.0007026994
000030 ad 40 8f 3a 49 c7 1a bc 8f b1 61 3b a7 8e 82 3b
       0.0010929309 -0.009446927 0.0034438109 0.0039842906
000040 90 3a ea ba 52 c0 2b ba ba 88 c8 3a 45 da e0 ba
       -0.0017870236 -0.000655179 0.0015299537 -0.0017154893
000050 20 35 66 3b f6 3c c1 3b d0 90 e3 b8 9b f2 da 3a
       0.003512688 0.0058971597 -0.00010851177 0.0016704382
000060 9a 22 3b 3a 0f f0 4f 3b 33 4f 85 3a 41 16 24 3b
       0.000713864 0.003172878 0.0010170698 0.0025037678
000070 2b 7b 93 3a 10 4a 30 3a 4a 8a 3a 3a 4d 35 29 bc
       0.0011251917 0.00067249034 0.00071159436 -0.010327649
000080 73 75 10 3b ca c2 df 3a be 54 97 bb 04 c2 b1 bb
       0.0022042661 0.0017071601 -0.0046182564 -0.00542474
000090 1b dd 0c b9 e7 f1 96 ba f2 6c 97 ba b8 35 27 3b
       -0.00013433809 -0.0011516184 -0.0011552854 0.0025514197
0000a0 82 56 27 3b bd f6 7a 3a e7 8d 19 ba c3 20 1b 39
       0.002553374 0.000957351 -0.0005857632 0.00014794157
0000b0 83 93 8b ba 43 67 d6 b9 5c 68 ba 3a 25 6e 50 3b
       -0.001064882 -0.00040894197 0.0014221775 0.0031803933
0000c0 65 be c4 b9 bf e1 97 3a 0c ff 34 ba ee 9c 30 bb
       -0.00037525888 0.0011587663 -0.000690446 -0.0026949006
0000d0 ad 80 80 ba 7d b7 73 bb 06 83 49 3a 05 6a e4 b8
       -0.0009803973 -0.0037188225 0.00076870655 -0.00010891635
0000e0 a3 4d ba 3a d9 84 1b 3a 3f db f2 ba 5f 4a 7e bb
       0.0014213811 0.00059325766 -0.0018528475 -0.0038801653
0000f0 00 00 00 00 00 00 00 00 00 00 00 00 00 00 00 00
       0.0 0.0 0.0 0.0
000100 00 00 00 00 00 00 00 00 00 00 00 00 00 00 00 00
       0.0 0.0 0.0 0.0
000110 00 00 00 00 00 00 00 00 00 00 00 00 00 00 00 00
       0.0 0.0 0.0 0.0

exp_avg_sq f4 [12, 6]
000000 04 c9 96 34 2d 1e 13 38 0b ca d5 35 0f c1 35 36
       2.8085935e-07 3.5075635e-05 1.5928539e-06 2.7083477e-06
000010 5e a9 50 36 b2 51 b7 36 99 23 bc 33 c8 e4 2c 34
       3.1093e-06 5.4633356e-06 8.7609074e-08 1.6101978e-07
000020 07 15 16 35 c9 19 b1 34 fb ab 74 34 b7 ad ee 32
       5.5909953e-07 3.298758e-07 2.2786837e-07 2.7785843e-08
000030 81 dc 6e 33 07 40 64 36 0b ac 1c 35 67 cb 2f 35
       5.561424e-08 3.4011916e-06 5.8364884e-07 6.548857e-07
000040 5c 0e 28 34 88 3f d3 33 7e 72 ff 33 b2 3f 21 37
       1.5651443e-07 9.8370094e-08 1.1895189e-07 9.611178e-06
000050 24 ff 1f 35 f9 1a 00 36 34 68 42 35 68 5e 10 36
       5.9603394e-07 1.9089186e-06 7.242227e-07 2.1512624e-06
000060 3e 97 12 33 2b 38 26 37 ef 51 11 34 72 8b 7d 35
       3.4130828e-08 9.907449e-06 1.3533985e-07 9.4452764e-07
000070 11 49 b1 34 11 15 bb 33 48 be bb 33 7e e9 0b 37
       3.3021982e-07 8.711698e-08 8.742478e-08 8.33941e-06
000080 ef 11 17 35 c3 58 39 35 03 ab cb 35 a7 9f 32 36
       5.627798e-07 6.9047036e-07 1.517445e-06 2.6616997e-06
000090 2d 0d ed 32 e4 32 a4 33 9e e5 77 34 d2 64 bf 34
       2.7596423e-08 7.646102e-08 2.3087202e-07 3.564988e-07
0000a0 a5 b6 fc 34 0d 9a 70 33 17 24 41 34 cf 90 e3 35
       4.707155e-07 5.6019463e-08 1.7987655e-07 1.6954963e-06
0000b0 16 e8 a0 35 5d 14 14 35 90 02 84 35 77 fb 5a 36
       1.1988475e-06 5.516393e-07 9.835512e-07 3.2630903e-06
0000c0 e5 ac 71 33 b1 73 38 34 4b 3b 87 34 30 f8 e1 34
       5.6269432e-08 1.7178424e-07 2.518885e-07 4.2090096e-07
0000d0 0e 04 d9 34 f7 ce 16 36 91 01 02 34 60 0c 0f 31
       4.042235e-07 2.2472211e-06 1.2107763e-07 2.0816273e-09
0000e0 9e 5b ed 34 3b d0 5e 33 38 8a 41 35 ca 61 3f 36
       4.421135e-07 5.1877787e-08 7.209924e-07 2.8518139e-06
0000f0 00 00 00 00 00 00 00 00 00 00 00 00 00 00 00 00
       0.0 0.0 0.0 0.0
000100 00 00 00 00 00 00 00 00 00 00 00 00 00 00 00 00
       0.0 0.0 0.0 0.0
000110 00 00 00 00 00 00 00 00 00 00 00 00 00 00 00 00
       0.0 0.0 0.0 0.0

exp_avg f4 [12]
000000 b1 83 3a 3c 9f 64 3a 3b f2 b4 08 bc 99 f2 95 bb
       0.011383937 0.0028441323 -0.008343922 -0.004576039
000010 91 e9 f3 39 bf 1f 06 bc aa b5 0c bb d8 06 40 3a
       0.00046522592 -0.00818628 -0.0021470585 0.00073252385
000020 e5 e6 10 3b dc e0 72 ba 00 00 00 00 00 00 00 00
       0.002211028 -0.0009265074 0.0 0.0

exp_avg_sq f4 [12]
000000 ee 3a c6 37 fc d4 ce 34 c2 04 31 36 01 1d f1 36
       2.363088e-05 3.8525457e-07 2.6377825e-06 7.185736e-06
000010 c4 f8 ca 36 03 ad ca 36 c5 b3 7e 34 c3 19 00 36
       6.0490293e-06 6.0402103e-06 2.3720993e-07 1.9088482e-06
000020 9c 65 d3 34 95 6b 18 34 00 00 00 00 00 00 00 00
       3.9375743e-07 1.4195241e-07 0.0 0.0

exp_avg f4 [4, 12]
000000 ee 97 90 bb 58 6a 59 3b 24 b5 a3 bb 23 5c 86 bc
       -0.0044126427 0.0033174958 -0.004995959 -0.016401356
000010 b8 a6 76 bb f5 19 80 bc 16 82 0f 3b 15 17 aa ba
       -0.0037635993 -0.015637377 0.0021897606 -0.001297685
000020 48 5f 1f bb d7 eb 53 bb 00 00 00 00 00 00 00 00
       -0.0024318267 -0.0032336616 0.0 0.0
000030 29 2a 03 3c 7e 1e d7 3b d0 7b a2 3b a1 c5 bd 3c
       0.008005657 0.0065649142 0.0049586073 0.023165526
000040 05 83 60 3c 31 a2 d0 3c 0e e0 47 ba 96 35 0e 3a
       0.0137031125 0.025467964 -0.00076246343 0.0005424855
000050 4f 32 1a 3b 59 48 ad 3a 00 00 00 00 00 00 00 00
       0.0023528521 0.0013220414 0.0 0.0
000060 af 8c a7 ba c7 64 9d 3a e6 93 1f ba 25 b5 2a bb
       -0.0012783016 0.0012008183 -0.0006087407 -0.0026047912
000070 92 81 7f bb 35 f3 1a bc 1e 46 6b 3a 68 6a 26 ba
       -0.0038987142 -0.009457399 0.0008974987 -0.0006348253
000080 4f 5a 4e 3b 6a 04 d0 ba 00 00 00 00 00 00 00 00
       0.0031486934 -0.0015870456 0.0 0.0
000090 3e ec df 3b 66 22 22 3c d3 29 b3 3b 29 0e de 3c
       0.006833582 0.009895897 0.0054676323 0.027106361
0000a0 33 9a 56 3c 44 b4 90 3c 7c 6f de 39 17 3a b0 38
       0.013098287 0.017664082 0.00042426202 8.403154e-05
0000b0 28 2f f7 3b 65 8e 47 39 00 00 00 00 00 00 00 00
       0.0075434633 0.00019031165 0.0 0.0

exp_avg_sq f4 [4, 12]
000000 9d 39 c3 36 a0 03 f8 35 13 a3 79 35 40 3f 2b 38
       5.81816e-06 1.8478495e-06 9.299703e-07 4.0828483e-05
000010 d8 44 cd 36 80 2f a7 37 ba dd 3f 34 b4 51 2e 35
       6.1174906e-06 1.993007e-05 1.7868925e-07 6.4938945e-07
000020 9a ce aa 35 95 34 86 35 00 00 00 00 00 00 00 00
       1.2726116e-06 9.999081e-07 0.0 0.0
000030 8d 60 8b 37 56 29 9d 37 3b 1b 8a 35 fa 8d cf 38
       1.6615051e-05 1.8735107e-05 1.0289726e-06 9.8969744e-05
000040 37 d2 17 38 ac f0 83 38 9e 77 d1 32 d5 c1 a8 34
       3.6196983e-05 6.2913954e-05 2.4385198e-08 3.143347e-07
000050 79 56 33 36 0c c5 7e 34 00 00 00 00 00 00 00 00
       2.6723412e-06 2.3727279e-07 0.0 0.0
000060 2c c5 da 35 da e8 43 35 f9 fc ac 33 a3 7f 21 37
       1.629965e-06 7.2982004e-07 8.0553896e-08 9.626066e-06
000070 66 1c 7a 36 9f 04 22 37 45 70 2c 33 86 05 65 34
       3.7269433e-06 9.657028e-06 4.014898e-08 2.1329296e-07
000080 f6 3b 44 35 b2 4f ab 34 00 00 00 00 00 00 00 00
       7.3102944e-07 3.1909218e-07 0.0 0.0
000090 22 7a 01 36 83 cf b0 36 4a 5c 4a 35 45 04 db 37
       1.9293589e-06 5.2693663e-06 7.538516e-07 2.6108823e-05
0000a0 74 4e dd 36 da 82 21 37 1a 17 cc 31 66 19 b8 32
       6.5954464e-06 9.626814e-06 5.9398078e-09 2.1431969e-08
0000b0 b4 c9 36 36 f8 a9 b6 32 00 00 00 00 00 00 00 00
       2.723752e-06 2.1264881e-08 0.0 0.0

exp_avg f4 [4]
000000 04 f9 8b bc a3 e0 04 3d e5 bf bb bb 3a d1 0d 3d
       -0.017086513 0.032440793 -0.0057296627 0.034623362

exp_avg_sq f4 [4]
000000 d5 cd 3c 38 f1 95 2e 39 87 c0 69 37 fd 53 36 38
       4.501439e-05 0.0001664979 1.39327085e-05 4.34704e-05

exp_avg f4 [12, 4]
000000 bf 29 99 3a d3 66 69 3b 5d 25 a5 bb ce 94 5c bc
       0.0011685415 0.0035614267 -0.0050398544 -0.013463212
000010 2d e1 e5 3b 88 ef 3c 3b 18 3b e6 bb 14 ef 6c bc
       0.0070153684 0.0028829295 -0.0070260875 -0.014461298
000020 00 00 00 00 00 00 00 00 00 00 00 00 00 00 00 00
       0.0 0.0 0.0 0.0
000030 00 00 00 00 00 00 00 00 00 00 00 00 00 00 00 00
       0.0 0.0 0.0 0.0
000040 9d ee 72 3b dc 86 ae bb 76 35 88 3b 4f f9 e2 3c
       0.0037068494 -0.005326135 0.0041567637 0.02770677
000050 00 00 00 00 00 00 00 00 00 00 00 00 00 00 00 00
       0.0 0.0 0.0 0.0
000060 00 00 00 00 00 00 00 00 00 00 00 00 00 00 00 00
       0.0 0.0 0.0 0.0
000070 00 00 00 00 00 00 00 00 00 00 00 00 00 00 00 00
       0.0 0.0 0.0 0.0
000080 00 00 00 00 00 00 00 00 00 00 00 00 00 00 00 00
       0.0 0.0 0.0 0.0
000090 00 00 00 00 00 00 00 00 00 00 00 00 00 00 00 00
       0.0 0.0 0.0 0.0
0000a0 90 e8 16 3b e1 3b 3f bb 2e 09 7e 3a 52 d0 9d 3b
       0.0023026802 -0.0029179978 0.0009690699 0.0048160935
0000b0 49 57 c2 bb ab 11 c8 ba df 4c b3 3b 18 32 22 3c
       -0.0059308154 -0.0015264055 0.0054718102 0.009899639

exp_avg_sq f4 [12, 4]
000000 3b af 12 37 8a ac b0 37 14 3a a3 36 57 f0 2a 37
       8.743077e-06 2.106118e-05 4.8645397e-06 1.0188748e-05
000010 76 e8 12 37 4a af e3 37 63 ef 0f 37 fd 9d 6d 37
       8.756402e-06 2.7142134e-05 8.579201e-06 1.4163085e-05
000020 00 00 00 00 00 00 00 00 00 00 00 00 00 00 00 00
       0.0 0.0 0.0 0.0
000030 00 00 00 00 00 00 00 00 00 00 00 00 00 00 00 00
       0.0 0.0 0.0 0.0
000040 4f 27 da 36 19 ce 44 37 f6 14 2f 36 a4 e0 d3 37
       6.5014824e-06 1.1730496e-05 2.6089233e-06 2.5257767e-05
000050 00 00 00 00 00 00 00 00 00 00 00 00 00 00 00 00
       0.0 0.0 0.0 0.0
000060 00 00 00 00 00 00 00 00 00 00 00 00 00 00 00 00
       0.0 0.0 0.0 0.0
000070 00 00 00 00 00 00 00 00 00 00 00 00 00 00 00 00
       0.0 0.0 0.0 0.0
000080 00 00 00 00 00 00 00 00 00 00 00 00 00 00 00 00
       0.0 0.0 0.0 0.0
000090 00 00 00 00 00 00 00 00 00 00 00 00 00 00 00 00
       0.0 0.0 0.0 0.0
0000a0 67 ff c8 35 b2 83 0a 36 3a 6e 15 35 90 f1 ce 35
       1.4975493e-06 2.064026e-06 5.5667226e-07 1.54185e-06
0000b0 3a 35 d9 35 c7 26 b1 36 76 eb 50 36 a6 d5 92 36
       1.6183251e-06 5.2795253e-06 3.1131472e-06 4.376011e-06

exp_avg f4 [12]
000000 dc c7 0f 3d 8d 7e ff 3c 00 00 00 00 00 00 00 00
       0.03510271 0.031188274 0.0 0.0
000010 24 e1 96 bd 00 00 00 00 00 00 00 00 00 00 00 00
       -0.07367161 0.0 0.0 0.0
000020 00 00 00 00 00 00 00 00 86 c5 74 bc d6 6b 9c bc
       0.0 0.0 -0.014939671 -0.019094389

exp_avg_sq f4 [12]
000000 37 41 74 39 23 17 78 39 00 00 00 00 00 00 00 00
       0.00023293948 0.00023659742 0.0 0.0
000010 ce 93 9e 39 00 00 00 00 00 00 00 00 00 00 00 00
       0.00030246231 0.0 0.0 0.0
000020 00 00 00 00 00 00 00 00 11 91 d1 37 9f e1 1c 38
       0.0 0.0 2.4982293e-05 3.7403424e-05

exp_avg f4 [6, 12]
000000 f3 47 9f ba 5e 2e 36 bb 00 00 00 00 00 00 00 00
       -0.001215218 -0.0027798633 0.0 0.0
000010 46 1f 68 ba 00 00 00 00 00 00 00 00 00 00 00 00
       -0.0008854758 0.0 0.0 0.0
000020 00 00 00 00 00 00 00 00 f7 2c 67 bb 15 4d f2 38
       0.0 0.0 -0.0035274604 0.00011553817
000030 ee 01 e3 bd e5 b1 ea bd 00 00 00 00 00 00 00 00
       -0.110843524 -0.11459712 0.0 0.0
000040 15 d8 39 be 00 00 00 00 00 00 00 00 00 00 00 00
       -0.18148835 0.0 0.0 0.0
000050 00 00 00 00 00 00 00 00 39 b9 4b be e8 48 08 be
       0.0 0.0 -0.19894876 -0.13309062
000060 9f 6c 78 3c 69 d1 54 3c 00 00 00 00 00 00 00 00
       0.015162616 0.01298938 0.0 0.0
000070 0c bf d6 3c 00 00 00 00 00 00 00 00 00 00 00 00
       0.026214145 0.0 0.0 0.0
000080 00 00 00 00 00 00 00 00 48 3b dd 3c 4a b5 b2 3c
       0.0 0.0 0.027005807 0.021814961
000090 fa 72 54 3c e0 9e 61 3c 00 00 00 00 00 00 00 00
       0.012966866 0.013770789 0.0 0.0
0000a0 fc 49 88 3c 00 00 00 00 00 00 00 00 00 00 00 00
       0.016636841 0.0 0.0 0.0
0000b0 00 00 00 00 00 00 00 00 96 a2 c3 3c a8 40 69 3c
       0.0 0.0 0.023881238 0.014236607
0000c0 94 52 8a 3c 74 d3 a7 3c 00 00 00 00 00 00 00 00
       0.01688508 0.02048657 0.0 0.0
0000d0 0d 9d bf 3c 00 00 00 00 00 00 00 00 00 00 00 00
       0.023390317 0.0 0.0 0.0
0000e0 00 00 00 00 00 00 00 00 55 1e 06 3d e5 84 87 3c
       0.0 0.0 0.03274377 0.016542861
0000f0 b1 25 ef ba 44 35 b0 b9 00 00 00 00 00 00 00 00
       -0.0018245486 -0.00033609022 0.0 0.0
000100 b8 5a a9 bb 00 00 00 00 00 00 00 00 00 00 00 00
       -0.005168285 0.0 0.0 0.0
000110 00 00 00 00 00 00 00 00 e0 58 66 ba e4 44 63 bb
       0.0 0.0 -0.0008787047 -0.0034678513

exp_avg_sq f4 [6, 12]
000000 d9 70 13 37 fc 17 38 37 00 00 00 00 00 00 00 00
       8.788157e-06 1.0972839e-05 0.0 0.0
000010 21 da be 36 00 00 00 00 00 00 00 00 00 00 00 00
       5.687835e-06 0.0 0.0 0.0
000020 00 00 00 00 00 00 00 00 a0 41 da 37 73 c0 a1 36
       0.0 0.0 2.6018184e-05 4.820578e-06
000030 14 0c c0 3a 69 8c c8 3a 00 00 00 00 00 00 00 00
       0.0014652037 0.0015300635 0.0 0.0
000040 e2 7a b8 3a 00 00 00 00 00 00 00 00 00 00 00 00
       0.0014074708 0.0 0.0 0.0
000050 00 00 00 00 00 00 00 00 30 27 85 3b e3 17 9f 3a
       0.0 0.0 0.0040635094 0.0012137856
000060 6c 76 a6 38 51 9e 95 38 00 00 00 00 00 00 00 00
       7.9375546e-05 7.1343624e-05 0.0 0.0
000070 b2 63 30 38 00 00 00 00 00 00 00 00 00 00 00 00
       4.205452e-05 0.0 0.0 0.0
000080 00 00 00 00 00 00 00 00 22 c6 63 39 d5 88 88 38
       0.0 0.0 0.00021722217 6.510472e-05
000090 80 4a 29 38 ec 5d 2a 38 00 00 00 00 00 00 00 00
       4.0362123e-05 4.061863e-05 0.0 0.0
0000a0 65 be dc 37 00 00 00 00 00 00 00 00 00 00 00 00
       2.6314703e-05 0.0 0.0 0.0
0000b0 00 00 00 00 00 00 00 00 19 46 d4 38 f6 ce f8 37
       0.0 0.0 0.000101220045 2.9660278e-05
0000c0 29 fb 21 38 82 f6 45 38 00 00 00 00 00 00 00 00
       3.8619302e-05 4.719804e-05 0.0 0.0
0000d0 e7 2e 15 38 00 00 00 00 00 00 00 00 00 00 00 00
       3.556805e-05 0.0 0.0 0.0
0000e0 00 00 00 00 00 00 00 00 e3 3b db 38 b3 60 d5 37
       0.0 0.0 0.000104538885 2.5436608e-05
0000f0 a3 ea 0c 38 32 72 14 38 00 00 00 00 00 00 00 00
       3.3597124e-05 3.5392302e-05 0.0 0.0
000100 d8 fd 40 37 00 00 00 00 00 00 00 00 00 00 00 00
       1.1503194e-05 0.0 0.0 0.0
000110 00 00 00 00 00 00 00 00 f9 9b df 38 2d ef b4 37
       0.0 0.0 0.00010662521 2.1569047e-05

exp_avg f4 [6]
000000 cb e3 ab bb e2 a6 ad be 6e 44 31 3d e0 eb 19 3d
       -0.005245661 -0.33916384 0.04327815 0.037578464
000010 f3 0d 61 3d 2c 6f 92 bb
       0.054944944 -0.004468819

exp_avg_sq f4 [6]
000000 81 3c 76 38 8d 4f 1f 3c ae 3a d6 39 91 42 7e 39
       5.870732e-05 0.009723556 0.0004086098 0.00024248126
000010 fd 19 9c 39 c3 e8 36 39
       0.00029774 0.00017443583
