lightning_logs/version_3/checkpoints/epoch=9-step=70.ckpt (torch, 14835 bytes, 24 tensors)

encoder.layers.0.linear.weight f4 [12, 6]
00000000: 7d14 193d 2836 b1be f963 d0bd de6d b03e
00000010: e35b 933e e863 963e 7441 9ebd a1b4 a8be
00000020: 8c66 91bd bb2f 583e 76e0 f03d c247 be3e
00000030: 53ad a53e 1bc3 323e cfe0 3ebe 780b 9d3e
00000040: e134 87be ed5b 823d b60a 1e3e ffd8 913e
00000050: 0c0a 5cbe b8a1 8cbe da18 05bd 10d0 de3d
00000060: 4395 25bd 88b5 29be 41e9 9bbe 3a76 67bd
00000070: c21d e0bc 80cf fd3d 3f27 cbbe 79b2 7f3c
00000080: d92b 9a3e 36ee f6bd f38c c63e 778e c23d
00000090: 8bb1 8cbe ada3 d0be 31ca 9cbe 7ff4 0dbe
000000a0: 5d26 70be 4495 76be 92e8 6b3e 0ce2 74be
000000b0: 318c e93d f21e 84be 8657 5d3e 5d85 913e
000000c0: 5199 cebd 2a2b 843e beb0 7a3e 5344 1dbe
000000d0: 689c 8ebe 384d afbe 160b c5be 9043 94be
000000e0: 7dec 1fbd 33b6 d2bd 56e0 8c3e a4f8 e23e
000000f0: 6b13 bfbb 3f10 54bd 1ff3 e6bd 06a8 7fbd
00000100: e3d0 873e abd2 d53d 55b0 c2bd 9682 65bb
00000110: cf48 9a3e d65d 81bd 4393 d3be 3386 b13e
0.037373055 -0.3461163 -0.10175318 0.34458822 0.28781042 0.29373097 -0.07727328 -0.3295031
-0.070996374 0.21111958 0.117615625 0.37164122 0.32358798 0.1745724 -0.18640445 0.30672812
-0.2640753 0.0636519 0.15433773 0.28485867 -0.21488208 -0.27467132 -0.032494403 0.108795285
-0.04042555 -0.16573155 -0.30451396 -0.056509234 -0.02735794 0.12393093 -0.3967838 0.015606516
0.30111578 -0.12057154 0.3877941 0.09499829 -0.27479205 -0.40749875 -0.3062301 -0.13862799
-0.23452134 -0.24080378 0.23037937 -0.23914355 0.114036925 -0.2580486 0.21615419 0.2842206
-0.100878365 0.25814182 0.24481484 -0.15358095 -0.27853703 -0.342386 -0.3848502 -0.28957796
-0.039043892 -0.10288658 0.27514905 0.44330323 -0.005831172 -0.051773306 -0.112768404 -0.0624161
0.26526555 0.10440572 -0.09506289 -0.0035020462 0.30133674 -0.06316726 -0.4132329 0.34672698

encoder.layers.0.linear.bias f4 [12]
00000000: bf6b 403e 5552 ebbd 9f06 b7be 71bb 9b3e
00000010: 29f2 923d 8f3c 83be 28f6 473e 6452 2a3e
00000020: 270c afba 8f2d e5bc 23ae eebd 9578 4abe
0.18791102 -0.11490313 -0.3574724 0.30416444 0.07175095 -0.2563214 0.19527495 0.16632992
-0.0013355062 -0.027975826 -0.11654308 -0.19772561

encoder.layers.2.linear.weight f4 [4, 12]
00000000: 7b6e 703e 4497 05be 7ebc b6bd d22b febd
00000010: 7f6b 0ebe 94d6 83be df14 683d 54b2 033e
00000020: cf02 573e 9ec6 48be 6138 253d 3c0b e4bd
00000030: 7ddb 8e3c 4e99 923e b4ae 80bd 2d1b 1dbe
00000040: 7784 3cbd 33aa ab3e f89b 9a3e caee c13d
00000050: 9f54 00be 7730 a13e 5076 e23d 2547 913e
00000060: d926 923d f8bb 6b3d 4721 3b3e c594 85be
00000070: 5864 083e 8b31 0c3e 533a 4bbd 72f3 84bd
00000080: ef65 c33d 89f9 2a3c 0a28 4cbe 0867 32be
00000090: e1b4 c73c f797 d73d 6341 4c3d 0e61 25be
000000a0: b935 b83d 87d6 fb3d f543 5c3e 86bc 103e
000000b0: 30eb 42be 1d45 f73d 154b b23d f9a9 b2be
0.23479645 -0.13045985 -0.08922671 -0.12410702 -0.13908194 -0.25749648 0.05666053 0.12860996
0.20997165 -0.19607016 0.04033697 -0.11134955 0.017438645 0.28632587 -0.06283322 -0.15342398
-0.046024766 0.3352829 0.3019712 0.094693735 -0.1253228 0.31482288 0.110577226 0.2837459
0.07136316 0.057552308 0.18274413 -0.26090065 0.13319528 0.13690774 -0.04961617 -0.06491746
0.09540927 0.01043547 -0.19937149 -0.17422116 0.024378242 0.10527032 0.049867045 -0.16150305
0.08994622 0.12296777 0.21510299 0.14134416 -0.1903503 0.12073729 0.08705727 -0.34895304

encoder.layers.2.linear.bias f4 [4]
00000000: 45ec 5f3e 52df 863a e62c 213c d8a3 8dbe
0.21867473 0.0010289943 0.009837365 -0.27664065

decoder.layers.0.linear.weight f4 [12, 4]
00000000: ae37 bc3e c541 653e 78a1 ff3e aac5 953e
00000010: 94e0 5ebe ae7d af3e eae4 21be 1d30 00bf
00000020: 2034 a63e 6fd2 a23e acfe 05be db5a 40be
00000030: eb92 753e 9048 123f 9f8f e3be 5c56 a63e
00000040: b87a c23e f28e 053e 4401 c93d d11f 073f
00000050: 0231 86be 0099 973b dcb4 bd3e 16d2 e4be
00000060: 7715 78be 94ba 9fbd 1ab6 95be 6b77 103e
00000070: 2f47 86bd 98e8 e43d 9c5b bc3e 0dbd 923e
00000080: a0b6 773e 9337 ba3e 6051 34be 7780 a9be
00000090: 51af 35bd 4475 01bf 65f9 963e c8ed 9e3e
000000a0: d831 853e 6048 d8bc 500b de3e c828 96bd
000000b0: 7d62 b0be a2dd 023c 3714 9fbd a622 4e3d
0.3676123 0.2238837 0.49927878 0.29252368 -0.21765357 0.34275573 -0.1580998 -0.50073415
0.32461643 0.31801173 -0.13085431 -0.18784659 0.23981826 0.5714197 -0.44445512 0.32487762
0.37984252 0.1304281 0.098146945 0.52782923 -0.26209265 0.0046263933 0.37052047 -0.44691533
-0.24226938 -0.07799259 -0.29240495 0.14108054 -0.06556546 0.11177176 0.36788642 0.2865986
0.2419076 0.36370525 -0.17609167 -0.33105823 -0.044356648 -0.5056956 0.29487148 0.31040788
0.2601459 -0.026401699 0.43368006 -0.07331997 -0.3445014 0.007987412 -0.077675276 0.050326012

decoder.layers.0.linear.bias f4 [12]
00000000: 8100 e43d 1ff1 6dbd a568 ad3e 07c0 38be
00000010: 19fa 173e 64d2 aebe 4cda dd3d 3ea4 c13e
00000020: 4a6f a1be 6d5e a93e dcc6 d3be f03f 4cbd
0.111329086 -0.05809128 0.338689 -0.18042003 0.14841498 -0.3414489 0.108326524 0.3782062
-0.3153022 0.33079854 -0.41362655 -0.049865663

decoder.layers.2.linear.weight f4 [6, 12]
00000000: 325c 5fbe d6d8 113d 8229 5d3e a0d9 c53d
00000010: b69c 203e 5bf5 19bd 451b 303e a62a 5dbe
00000020: 14d3 7e3d 1580 0fbe 47d6 54bd 61d3 75be
00000030: 7a80 68be acd8 23be 0638 a83e 2e0d 1a3e
00000040: 6d6e 46be d6f6 6fbe 9912 68be 20b5 3cbe
00000050: 0926 c9bd d2e1 963e 9d35 8bbe 3163 493e
00000060: 2e4d 133e 341f d5bd ff6f 2f3d 7de8 9bbe
00000070: 9dc6 f9bd 2964 21be dcda 073d 7cbe 163e
00000080: e457 2d3e 5b65 783e 994b 74be 844e 933c
00000090: 4bbd 353e 4303 c1be 6e41 68be ee5f 1cbe
000000a0: fcd2 7e3d 6725 1b3d b525 1ebe d238 acbd
000000b0: cab0 f73c e06d 94bd 00b4 02be 624a ba3c
000000c0: 0d88 ad3d a0d0 a83d 17c7 5bbe c733 c43d
000000d0: 9933 893d 2d0e 1f3e 1803 e43d c935 093e
000000e0: 9303 4bbe 0c1d 76be 937e 62be 5160 e8bd
000000f0: d021 c53d 7f0a 94be 32f4 99bd 08a1 72bd
00000100: 8da9 33be 00e2 51be e221 9fbc 7cbb 003d
00000110: 9acf e5bd ca71 1e3e c363 233e a4af d13d
-0.21812513 0.03560718 0.21597865 0.09660649 0.1568478 -0.037587505 0.17197903 -0.215983
0.06221302 -0.14013703 -0.051962163 -0.24006416 -0.2270526 -0.16000623 0.32855242 0.1504409
-0.19378062 -0.23434004 -0.22663344 -0.18428469 -0.09821708 0.29469162 -0.2718934 0.19666745
0.1438491 -0.10406342 0.042831417 -0.30450812 -0.121960856 -0.15760864 0.033167705 0.14721102
0.16928059 0.24257414 -0.23856963 0.017981775 0.17747991 -0.376978 -0.2268121 -0.1527097
0.06221293 0.037877467 -0.15444072 -0.08409275 0.030235667 -0.072475195 -0.12763977 0.022740547
0.08473215 0.08242917 -0.21462665 0.09580188 0.066992946 0.15532751 0.111334026 0.13399424
-0.19825582 -0.24034518 -0.22118597 -0.11346496 0.0962559 -0.28914258 -0.0751728 -0.059235603
-0.17545147 -0.20496368 -0.019425336 0.0314288 -0.112212375 0.15473095 0.15956025 0.10238579

decoder.layers.2.linear.bias f4 [6]
00000000: c72d e73d cc1f 4e3d 71d8 de3d fc14 543e
00000010: 8cde c03d 8729 bd3d
0.11288028 0.050323293 0.10881127 0.2071113 0.094174474 0.09236436

exp_avg f4 [12, 6]
00000000: b1ff 06b9 e736 1d39 ff27 22ba 9df0 17ba
00000010: b75c 593a 1190 123a 7115 2339 cdf3 5eb7
00000020: 8505 203a 22c2 0e39 17d7 6dba c56a 51ba
00000030: 0000 0000 0000 0000 0000 0000 0000 0000
00000040: 0000 0000 0000 0000 1657 f9b9 5e1c 853b
00000050: 43f3 583a db61 7d3b d0a8 7539 ab7b a339
00000060: b718 05b9 1a4b eb3a 8ff5 d4b8 aa2c 2cbb
00000070: 4e1f 26ba 8fe7 51ba cc09 9439 3415 a1b8
00000080: 7bb4 963a b7a3 123a ebdd d2ba 08ed a8ba
00000090: 2e52 e2b8 658e 8339 3cbf c9b7 a7bc 43ba
000000a0: 2a9f 49b9 8687 3c39 166d fd38 a72b 5db9
000000b0: a5f5 b938 5646 e5ba b279 fcb9 1e46 fab9
000000c0: 97d0 7eba 2e9a 37bc 0712 60bb 28c3 943b
000000d0: e329 813a acd3 253a 90ea a639 008e 94b9
000000e0: 32e3 aa3a af79 a43a 480f dfba 240e abba
000000f0: b83a ec38 8f45 04b9 e9c6 093a 8cfb f439
00000100: 902f 2aba 50f8 e9b9 fba3 c0ba 8f76 a13a
00000110: cba7 deba 581f 573b f08f 8c3a 7f60 2c39
-0.00012874488 0.0001499314 -0.00061857695 -0.0005796047 0.00082917087 0.00055909256 0.00015552879 -1.3288995e-05
0.0006104338 0.00013614495 -0.00090728834 -0.0007988627 0.0 0.0 0.0 0.0
0.0 0.0 -0.00047557865 0.0040622195 0.0008275995 0.0038663063 0.00023427908 0.00031181923
-0.00012693075 0.0017951459 -0.000101546866 -0.002627174 -0.0006337062 -0.0008007222 0.0002823606 -7.681028e-05
0.0011497879 0.00055938534 -0.0016087865 -0.0012888024 -0.00010791827 0.0002509236 -2.4050118e-05 -0.0007466771
-0.00019228147 0.00017979564 0.00012084299 -0.00021092464 8.867242e-05 -0.0017492275 -0.00048155856 -0.00047735957
-0.00097204134 -0.011206193 -0.0034190433 0.004539866 0.0009854402 0.0006325792 0.0003183675 -0.00028334558
0.001303768 0.0012548472 -0.0017018104 -0.0013050479 0.00011264294 -0.00012614414 0.0005255775 0.00046726724
-0.0006492073 -0.0004462623 -0.0014697307 0.0012318658 -0.0016987262 0.0032825079 0.0010724049 0.00016439146

exp_avg_sq f4 [12, 6]
00000000: 0f84 e831 cec0 6e32 9ee5 1834 1c3f ba33
00000010: 84ba 8834 13e9 3534 320a c030 b651 292d
00000020: d14e b032 7f6b aa30 737b 4d33 32dd 1333
00000030: 0000 0000 0000 0000 0000 0000 0000 0000
00000040: 0000 0000 0000 0000 2f25 9d34 6f65 4337
00000050: 8dd6 8935 df60 1637 4d74 c333 e68d 9f33
00000060: 4282 be31 18a8 2435 51f2 6233 6a39 4c35
00000070: 01ed 1d33 243a e632 232f 6831 3060 2b2f
00000080: 22cc 5e33 cfab 2232 0310 f233 8fd9 9e33
00000090: 2f75 9a31 19d1 2135 a6f1 f332 46c9 cc35
000000a0: c870 4632 e9bf 2133 2927 2134 c810 0337
000000b0: 11fb 2335 c676 b436 406c 1b33 f9b5 df32
000000c0: e655 0533 25e5 a036 0a00 d834 7f93 4935
000000d0: 022f fa32 6b15 5e32 bf00 8831 3993 2831
000000e0: 71a2 8933 2058 2433 51fb 0834 dd1c ad33
000000f0: aac1 4930 003f 2b30 a772 7432 af27 fe31
00000100: 3e5c d432 3895 8932 37a1 e033 39a2 2534
00000110: b93c b534 445a 0335 b2ab 1234 f8d3 8232
6.767102e-09 1.3897262e-08 1.4239637e-07 8.6727795e-08 2.5467682e-07 1.694173e-07 1.3972736e-09 9.624681e-12
2.0524938e-08 1.239968e-09 4.784256e-08 3.442728e-08 0.0 0.0 0.0 0.0
0.0 0.0 2.9270583e-07 1.1646523e-05 1.0269738e-06 8.963251e-06 9.10155e-08 7.4298256e-08
5.5445364e-09 6.133937e-07 5.284011e-08 7.607947e-07 3.6769965e-08 2.6801963e-08 3.3787237e-09 1.5586532e-10
5.187406e-08 9.468706e-09 1.1271916e-07 7.397022e-08 4.495312e-09 6.028145e-07 2.8398812e-08 1.5257763e-06
1.155076e-08 3.7660275e-08 1.500854e-07 7.812116e-06 6.108758e-07 5.378245e-06 3.6187203e-08 2.6043368e-08
3.10446e-08 4.7950475e-06 4.0233164e-07 7.509297e-07 2.9125207e-08 1.2926971e-08 3.9582058e-09 2.4530904e-09
6.4091076e-08 3.8264375e-08 1.2757415e-07 8.0611905e-08 7.3398587e-10 6.2298966e-10 1.4228738e-08 7.3968844e-09
2.4721995e-08 1.6016756e-08 1.0460138e-07 1.5425839e-07 3.375806e-07 4.8932657e-07 1.3659772e-07 1.5230384e-08

exp_avg f4 [12]
00000000: 32cc 323a 5f90 cdb9 0000 0000 c559 2dba
00000010: 758a 2d3b 5f63 69ba ead9 393a 7523 943a
00000020: edcc 1abc db86 c9ba 7c3a 11ba ffbe fbba
0.00068205886 -0.00039208212 0.0 -0.0006612803 0.0026480232 -0.0008903052 0.00070896617 0.0011302071
-0.009448272 -0.0015375273 -0.0005540026 -0.0019206702

exp_avg_sq f4 [12]
00000000: e873 3134 b6f5 0d32 0000 0000 573d 8737
00000010: aad1 8d35 172b e332 9f4c eb35 6992 3237
00000020: c7b8 5d36 d0d0 8433 6670 5a32 f220 be34
1.6526576e-07 8.263148e-09 0.0 1.6121818e-05 1.0566339e-06 2.6445873e-08 1.7531164e-06 1.06437155e-05
3.303912e-06 6.184712e-08 1.27148265e-08 3.541423e-07

exp_avg f4 [4, 12]
00000000: cc79 dc3a 4ee4 583a 0000 0000 28c3 8abc
00000010: 7cc5 ce3a d280 fb39 4c6d b53a a970 073b
00000020: f5e8 64bc a52e 123b b54b 8d3a f94c 76ba
00000030: e8d4 fcb9 1222 24b8 0000 0000 2d18 0dbc
00000040: e2bd beba 1085 cab8 ca5e 14bb 35d2 a9bb
00000050: 97c1 46bb 134f 96ba cc83 1eba 17db 36ba
00000060: e3b9 5939 230a 19b9 0000 0000 62aa 173b
00000070: 2d34 a53a 03a1 21b8 bf97 2d3b a5c8 ac3b
00000080: a7dd 4aba 5b75 3b3a 2095 b339 817f 0739
00000090: 45fd 6dbb 2019 1ebb 0000 0000 a32f ad3c
000000a0: bda4 b338 8f9c 9bba 52f5 803b 496a d93b
000000b0: cc80 303c 86a0 5dbb 162c dfba c49e 9e3a
0.0016820966 0.0008273766 0.0 -0.01693876 0.0015775408 0.0004797043 0.0013841777 0.0020666516
-0.013971557 0.0022305634 0.0010780009 -0.0009395625 -0.00048223813 -3.9132377e-05 0.0 -0.008611721
-0.0014552439 -9.6568954e-05 -0.0022639506 -0.0051825293 -0.003032779 -0.0011467658 -0.0006046861 -0.0006975396
0.00020763981 -0.00014594993 0.0 0.0023142328 0.001260405 -3.8535345e-05 0.0026488153 0.005272942
-0.0007738717 0.0007150971 0.00034252647 0.00012922102 -0.003631429 -0.0024123862 0.0 0.021140879
8.56607e-05 -0.001187222 0.0039354945 0.0066349846 0.010772895 -0.0033817603 -0.0017026688 0.0012101759

exp_avg_sq f4 [4, 12]
00000000: 07ff 6e35 d784 ff33 0000 0000 bd54 ef37
00000010: cb2c 7d35 e407 8532 b497 ad34 28cb a736
00000020: 9205 0537 c7ba 3235 821a 1f34 3dda f732
00000030: d7b0 d833 185e 9832 0000 0000 bc7a 8b36
00000040: 4e94 b533 014c bc31 d05a 1734 223c 4a35
00000050: a2f5 3e35 dfef ef33 2282 f532 ee7c 8b32
00000060: ac04 d334 188e 4033 0000 0000 9f55 5f37
00000070: 19f5 4035 e324 e431 93e0 3f35 1fa0 c636
00000080: 640e fb35 8c36 a634 a07b 9533 87e9 3e32
00000090: a6c9 3635 a462 6a34 0000 0000 14c3 a638
000000a0: 873f a435 434d 6733 8019 9e35 9049 4337
000000b0: 2cab 5637 11ee 2b35 3943 2934 9c95 8033
8.903302e-07 1.1898526e-07 0.0 2.853048e-05 9.4315027e-07 1.5486826e-08 3.233414e-07 5.0006383e-06
7.928715e-06 6.6581964e-07 1.4817672e-07 2.8853828e-08 1.0090451e-07 1.7737918e-08 0.0 4.156811e-06
8.455446e-08 5.4801608e-09 1.4096008e-07 7.533837e-07 7.113796e-07 1.1172937e-07 2.8580931e-08 1.6238541e-08
3.9305212e-07 4.4832717e-08 0.0 1.3311771e-05 7.188224e-07 6.639867e-09 7.1479843e-07 5.9195004e-06
1.8705146e-06 3.0959598e-07 6.9608404e-08 1.11125535e-08 6.809372e-07 2.1828833e-07 0.0 7.951833e-05
1.2237441e-06 5.3854148e-08 1.1779339e-06 1.1640033e-05 1.2795248e-05 6.4048896e-07 1.5763807e-07 5.987678e-08

exp_avg f4 [4]
00000000: 6cfb c4bc 147b 41bc 5929 7f3b d938 f93c
-0.024045669 -0.011809129 0.0038934557 0.030422615

exp_avg_sq f4 [4]
00000000: 6a47 8938 a20d 1a37 aa58 0d38 f412 4639
6.545971e-05 9.182289e-06 3.3699594e-05 0.00018889812

exp_avg f4 [12, 4]
00000000: 5941 513b 4b3b cfba a99d e6ba b271 8cbb
00000010: f3a7 27bc 98e7 8b3b 5e84 f33b e211 923c
00000020: 3705 fcbc 3227 bc3c 81c4 983c d008 793d
00000030: 35d0 06b9 729c 55bb d107 da39 86f5 2bba
00000040: 102b d13a 7edb 2d3a fc70 bdba ce55 16bb
00000050: 0000 0000 0000 0000 0000 0000 0000 0000
00000060: b7a5 6a3b bb7a b4bb 9c0d 20bb 813e 2cbc
00000070: fe8e 8f3b 9d46 c4bb ce20 36bb be1b 31bc
00000080: cb55 86b8 ddc4 193a 7dc9 35b8 6188 3d39
00000090: 55ce abbc 1fa2 643c 7d42 4c3c b4a8 2c3d
000000a0: 0000 0000 0000 0000 0000 0000 0000 0000
000000b0: b897 83b5 53cb b537 dc7a 62b5 b4f3 d636
0.003192982 -0.0015810517 -0.0017594594 -0.0042860145 -0.010232913 0.0042695515 0.007431551 0.017830793
-0.030764205 0.022967909 0.018648388 0.06079942 -0.00012856799 -0.003259447 0.00041586024 -0.0006559718
0.0015958268 0.0006632133 -0.0014453228 -0.0022939327 0.0 0.0 0.0 0.0
0.003580434 -0.0055077947 -0.0024422174 -0.010512949 0.0043810597 -0.005989863 -0.002779055 -0.010809837
-6.405598e-05 0.0005865822 -4.3341413e-05 0.0001807525 -0.02097241 0.013954668 0.012467024 0.042153075
0.0 0.0 0.0 0.0 -9.804417e-07 2.1671562e-05 -8.4370345e-07 6.4060678e-06

exp_avg_sq f4 [12, 4]
00000000: 1cd8 d137 6bd6 2736 6e12 2436 9e1e 1038
00000010: 1fef 2236 7bb9 0a35 1b0f a735 1747 f936
00000020: e806 7738 b991 df37 b33f 9337 e487 3d39
00000030: 71dd 1633 20fc ed34 12c9 8432 12b1 2033
00000040: 0bfb 5537 97f8 a035 089c 9f35 f33d 9437
00000050: 0000 0000 0000 0000 0000 0000 0000 0000
00000060: cdae cf36 6d44 4936 9a11 9a35 5771 9d37
00000070: e082 b636 0cdf 4f36 d544 a735 53f8 8c37
00000080: 54fb bd2f 205d f932 c1c5 2d2f bc66 3d31
00000090: 4f6a c937 ab58 3937 257d f536 d0b7 ac38
000000a0: 0000 0000 0000 0000 0000 0000 0000 0000
000000b0: 7488 382b ac49 922f aead ba2b 85ff b12d
2.5015375e-05 2.5009747e-06 2.4448632e-06 3.436079e-05 2.4279068e-06 5.1678916e-07 1.2446866e-06 7.429054e-06
5.889582e-05 2.6651529e-05 1.7553428e-05 0.00018075068 3.5125996e-08 4.4328135e-07 1.5458259e-08 3.7413947e-08
1.275424e-05 1.1993278e-06 1.1891834e-06 1.7671822e-05 0.0 0.0 0.0 0.0
6.18943e-06 2.9991163e-06 1.1479017e-06 1.8768636e-05 5.4392585e-06 3.0975234e-06 1.2462502e-06 1.6804936e-05
3.455748e-10 2.9029763e-08 1.5804515e-10 2.7561518e-09 2.4010571e-05 1.1047504e-05 7.3161377e-06 8.235837e-05
0.0 0.0 0.0 0.0 6.55593e-13 2.6609592e-10 1.3264301e-12 2.0236044e-11

exp_avg f4 [12]
00000000: 24c5 473c 70f7 35bd ef6c 04be 6de0 8dbb
00000010: 2691 1e3c 0000 0000 872a a03c 8a68 a13c
00000020: 3021 f439 187a b9bd 0000 0000 3b80 9d37
0.012192998 -0.044425428 -0.1293218 -0.004329732 0.009678161 0.0 0.019551529 0.019703168
0.00046564033 -0.09056491 0.0 1.877557e-05

exp_avg_sq f4 [12]
00000000: 76cb eb39 a289 4938 02cf 9c3a c041 6e35
00000010: 081e 7939 0000 0000 6d3a 1939 4556 fb38
00000020: 1216 9d32 a90e 053a 0000 0000 4cbf 812f
0.00044974283 4.8050315e-05 0.0011963549 8.875759e-07 0.00023757678 0.0 0.00014612982 0.000119846816
1.8287242e-08 0.0005075732 0.0 2.3600888e-10

exp_avg f4 [6, 12]
00000000: 4ec6 cb3a 8fbb 343a 0dd5 8d3b 2a6e dc3a
00000010: 34ad e33a 0000 0000 0e47 dc3a 17c7 793b
00000020: 0a78 0736 9736 073b 0000 0000 4b32 e837
00000030: 0026 c7b9 869a 5fbc 2f5c cabd af7e c9b8
00000040: 842f 39ba 0000 0000 98fd 5bbc 7597 24bd
00000050: e861 8033 fccd 38bd 0000 0000 3d0e 5733
00000060: bb5d 843b 81ac 10bb 5fcf 89bc f7cb 973b
00000070: 51c2 9e3b 0000 0000 b3c4 9a3a 8483 c8ba
00000080: 1483 a036 12f6 fdbb 0000 0000 0de8 8e38
00000090: d2c8 463b 06a1 713c eee4 e53d d7d4 813a
000000a0: ee37 bd3b 0000 0000 59e8 763c 1808 443d
000000b0: 8eb0 c435 da5f 383d 0000 0000 a74b a637
000000c0: b05e 9dbb 5174 1c3a 4ecb d63b 9ee9 c5bb
000000d0: 1e5c bebb 0000 0000 f1d3 8eba 166e 2cbb
000000e0: 094f 06b7 95d3 993b 0000 0000 660f e2b8
000000f0: a6cf 88bb f214 033a 1288 3c3c 9e63 c3bb
00000100: 6823 aabb 0000 0000 77d6 d839 57b6 8939
00000110: dacf ceb6 26e4 073c 0000 0000 853e b6b8
0.001554677 0.00068944035 0.004328376 0.0016817499 0.0017370344 0.0 0.0016805844 0.0038113052
2.018644e-06 0.0020631903 0.0 2.7679975e-05 -0.0003798455 -0.013647681 -0.09880864 -9.6080235e-05
-0.00070642703 0.0 -0.013427161 -0.040183503 5.9782735e-08 -0.045118317 0.0 5.0071538e-08
0.004039494 -0.0022075477 -0.016822515 0.004632469 0.0048449417 0.0 0.0011807889 -0.0015297984
4.783631e-06 -0.007750281 0.0 6.8143105e-05 0.00303321 0.014747864 0.112253055 0.000990535
0.0057744896 0.0 0.015070044 0.04785928 1.4654522e-06 0.045013286 0.0 1.982397e-05
-0.0048025474 0.000596826 0.0065549975 -0.006039812 -0.005809321 0.0 -0.0010896904 -0.0026310734
-8.005424e-06 0.004694412 0.0 -0.00010779388 -0.0041751442 0.00050003745 0.011507051 -0.005962803
-0.005192209 0.0 0.0004135852 0.0002626653 -6.1634755e-06 0.008294141 0.0 -8.6900814e-05

exp_avg_sq f4 [6, 12]
00000000: 0c98 2c35 ff0b a432 a864 4c36 bb2f f533
00000010: 36e0 3f35 0000 0000 095f b734 b8b6 4636
00000020: c81d da2a 51aa 5735 0000 0000 71e5 1f2e
00000030: 6f80 0038 d5a9 7936 d27c 2b3a 0cb3 8f30
00000040: 32fa 0638 0000 0000 12d1 3b38 e6b5 ab39
00000050: a06a e425 f682 0e39 0000 0000 638d 0b28
00000060: c0e5 1a36 17a7 2034 99c7 bd37 b8f4 6835
00000070: adc1 2436 0000 0000 fa70 8035 6959 ef36
00000080: 4406 182c c190 7236 0000 0000 db1f 732f
00000090: e46d 6238 9b9f 8f36 736e 523a 4c89 5e33
000000a0: 5f37 8338 0000 0000 05e1 3938 2256 d239
000000b0: 50d4 672a bcd7 1839 0000 0000 ad4a a62d
000000c0: 6dab 5936 4b99 aa33 e86c 7537 94d7 ce35
000000d0: fb2e 6b36 0000 0000 2ed1 b735 31cb 0337
000000e0: 30f7 d62c 5527 2636 0000 0000 3a4c 1730
000000f0: c68f 4f36 3c9f 9633 c495 a537 b265 ba35
00000100: d8e6 5136 0000 0000 faa6 ee35 5cc1 1437
00000110: 44e5 7a2c 82e9 9f36 0000 0000 681c c52f
6.429625e-07 1.9097568e-08 3.0456958e-06 1.1417384e-07 7.1479315e-07 0.0 3.4155553e-07 2.9610655e-06
3.8745244e-13 8.0341584e-07 0.0 3.63562e-11 3.063719e-05 3.7202747e-06 0.0006541732 1.0455508e-09
3.2181102e-05 0.0 4.4778986e-05 0.00032751187 3.9623947e-16 0.00013590962 0.0 7.746708e-15
2.308152e-06 1.4961948e-07 2.26235e-05 8.678285e-07 2.4550638e-06 0.0 9.569624e-07 7.1331638e-06
2.1603977e-12 3.6145068e-06 0.0 2.2112039e-10 5.3984942e-05 4.2803126e-06 0.00080273225 5.1813274e-08
6.2568804e-05 0.0 4.4317003e-05 0.00040118495 2.0590582e-13 0.00014576217 0.0 1.8905178e-11
3.2435303e-06 7.944126e-08 1.4628495e-05 1.5410938e-06 3.5045075e-06 0.0 1.3695442e-06 7.855518e-06
6.109689e-12 2.4758822e-06 0.0 5.5041804e-10 3.092909e-06 7.013884e-08 1.9739273e-05 1.3887677e-06
3.1277796e-06 0.0 1.7780978e-06 8.866507e-06 3.5654405e-12 4.765753e-06 0.0 3.5854275e-10

exp_avg f4 [6]
00000000: 63a6 343c 9e1b 67be f46d 12bd 0d21 7d3e
00000010: d102 843c 816e ed3c
0.011025998 -0.22569129 -0.03574939 0.24719639 0.016114624 0.028983356

exp_avg_sq f4 [6]
00000000: 3d9c be37 c6d9 963b b64b 1d39 4b20 a93b
00000010: fc78 f738 b72e 2339
2.272252e-05 0.0046035973 0.00015000891 0.0051613203 0.00011800413 0.00015562294
