lightning_logs/version_2/checkpoints/epoch=9-step=60.ckpt (torch, 14835 bytes, 24 tensors)

encoder.layers.0.linear.weight f4 [12, 6]
0.35317746 -0.42017654 -0.24598618 -0.0064931135 0.24953483 0.16399376 0.3235536 0.22724776
-0.18928637 0.22683956 -0.14695682 -0.29532433 0.15859257 0.12250537 -0.12323078 -0.35714075
-0.33364272 -0.07284284 0.14692147 -0.29988936 0.15709005 0.26894623 0.18076256 0.15488331
-0.16471595 0.16342828 -0.28597054 0.10789969 0.23575984 -0.042550914 -0.2507487 0.19434309
0.4432542 0.06596542 0.25749674 -0.08515438 -0.13741626 -0.09000338 0.33648333 -0.2595623
0.22881943 0.025847856 0.33581138 -0.062321443 -0.003575448 0.18749452 -0.2303104 0.32840294
-0.1447598 0.20416561 0.23263702 0.07296858 -0.057412595 0.3760563 -0.22176535 -0.32693353
0.2567818 0.33443147 0.19129589 -0.23879173 -0.32097873 -0.061357833 0.23158816 0.024862353
0.31365186 0.064889774 0.31213367 0.031571984 0.19759609 -0.306724 -0.26608232 0.047768053
00000000: add3 b43e 6121 d7be cde3 7bbe 2fc4 d4bb
00000010: 0f86 7f3e fbed 273e d1a8 a53e a3b3 683e
00000020: 49d4 41be a148 683e d97b 16be c034 97be
00000030: 1766 223e 18e4 fa3d 6b60 fcbd 27db b6be
00000040: 38d3 aabe a02e 95bd 9572 163e 198b 99be
00000050: 37dc 203e 52b3 893e d219 393e bb99 1e3e
00000060: 4cab 28be be59 273e bb6a 92be 83fa dc3d
00000070: 076b 713e de49 2ebd 2262 80be e001 473e
00000080: 37f2 e23e e118 873d 9dd6 833e 6b65 aebd
00000090: d9b6 0cbe b153 b8bd 8b47 ac3e 5ae5 84be
000000a0: a44f 6a3e e2be d33c 78ef ab3e c544 7fbd
000000b0: 1052 6abb 90fe 3f3e 7dd6 6bbe 6e24 a83e
000000c0: ea3b 14be ca10 513e 6638 6e3e 8d70 953d
000000d0: 7829 6bbd 748a c03e 7516 63be d563 a7be
000000e0: e778 833e 9a3a ab3e 12e3 433e d285 74be
000000f0: 5357 a4be 5a52 7bbd 7225 6d3e 22ac cb3c
00000100: fa96 a03e eee4 843d fccf 9f3e a051 013d
00000110: a156 4a3e ee0a 9dbe f13b 88be 6fa8 433d

encoder.layers.0.linear.bias f4 [12]
-0.07350375 -0.2737763 0.022329943 0.44084677 0.20073012 -0.25046733 -0.04898538 0.27097765
0.28954285 -0.06460504 0.23365507 -0.21566506
00000000: 2289 96bd 682c 8cbe 49ed b63c abb6 e13e
00000010: 328c 4d3e 413d 80be e5a4 48bd 95bd 8a3e
00000020: f63e 943e a64f 84bd 4643 6f3e 4dd7 5cbe

encoder.layers.2.linear.weight f4 [4, 12]
0.11937056 0.14191155 -0.27956626 -0.055958457 -0.16431959 0.1274967 0.037227355 0.16341493
-0.035272107 0.019547798 0.07739215 -0.072605774 0.2852434 0.05057999 0.16513263 -0.13891059
0.18725128 0.062934645 -0.0034150141 0.1717889 0.24676436 -0.24538101 0.06561229 -0.124675475
0.22767125 0.1596308 0.058079585 -0.21187955 0.28007403 0.23574822 0.23026213 0.2991528
0.31080315 -0.21037455 0.20718388 -0.14971204 -0.10817124 -0.010359761 -0.1753375 0.15631445
0.2300089 0.05918998 -0.008102754 -0.23352481 -0.108168185 -0.19639193 0.31874785 0.18226434
00000000: 8d78 f43d 4351 113e 4f23 8fbe b234 65bd
00000010: 6543 28be 7f8e 023e b67b 183d 3e56 273e
00000020: 7c79 10bd b422 a03c c77f 9e3d 56b2 94bd
00000030: 6c0b 923e f72c 4f3d 8718 293e 943e 0ebe
00000040: cdbe 3f3e e1e3 803d 6ece 5fbb 6ee9 2f3e
00000050: ccaf 7c3e 2945 7bbe bc5f 863d db55 ffbd
00000060: a722 693e 4276 233e dce4 6d3d f4f6 58be
00000070: dd65 8f3e fb67 713e d6c9 6b3e 8e2a 993e
00000080: 9721 9f3e 6d6c 57be 0328 543e 1d4e 19be
00000090: e288 ddbd fdbb 29bc ac8b 33be e510 203e
000000a0: 7487 6b3e 3171 723d 6ac1 04bc 2121 6fbe
000000b0: 4887 ddbd f71a 49be eb32 a33e 81a3 3a3e

encoder.layers.2.linear.bias f4 [4]
-0.040222302 0.16079277 -0.14156868 0.08219457
00000000: 24c0 24bd dca6 243e 61f7 10be a055 a83d

decoder.layers.0.linear.weight f4 [12, 4]
0.48887432 -0.4508533 0.08142012 0.10001218 0.48935735 -0.1666743 0.3612579 -0.51878285
-0.49505472 -0.13929951 -0.08396089 0.12252653 0.25099343 -0.27784753 -0.36233294 -0.39480215
-0.41554305 -0.35180858 -0.421679 0.053849816 0.14154679 0.31777877 0.0503299 -0.20916148
0.406376 -0.44284743 0.22361344 -0.07429153 0.025011761 0.12417713 0.49632105 -0.049891092
0.24401796 -0.10965532 0.019198818 -0.44657317 -0.44723758 0.3508482 0.058182687 0.43325055
0.41388935 -0.34859532 0.12578888 -0.41803706 0.12107111 0.43254495 -0.50784105 0.3270913
00000000: bc4d fa3e 3ed6 e6be 98bf a63d 30d3 cc3d
00000010: 0c8d fa3e abac 2abe ccf6 b83e f4ce 04bf
00000020: d077 fdbe 88a4 0ebe b0f3 abbd 30ef fa3d
00000030: 3682 803e 0842 8ebe b483 b9be 8223 cabe
00000040: 0fc2 d4be 4120 b4be 4fe6 d7be a091 5c3d
00000050: a4f1 103e e6b3 a23e ba26 4e3d 6d2e 56be
00000060: 8410 d03e e6bc e2be ecfa 643e 2826 98bd
00000070: 77e5 cc3c 9450 fe3d cb1d fe3e 9a5a 4cbd
00000080: d8df 793e f892 e0bd d746 9d3c 3da5 e4be
00000090: 53fc e4be 60a2 b33e f850 6e3d 04d3 dd3e
000000a0: 4ee9 d33e 167b b2be cdce 003e f408 d6be
000000b0: 21f4 f73d 8876 dd3e df01 02bf 8378 a73e

decoder.layers.0.linear.bias f4 [12]
-0.39352572 0.18406272 -0.12817222 -0.23306978 0.2479065 -0.19305882 -0.22434014 0.011693078
0.40234897 -0.47464696 0.19921856 -0.120678835
00000000: 347c c9be f07a 3c3e 943f 03be d8a9 6ebe
00000010: 34db 7d3e 36b1 45be 6cb9 65be 5394 3f3c
00000020: af00 ce3e ed04 f3be f3ff 4b3e 7726 f7bd

decoder.layers.2.linear.weight f4 [6, 12]
0.0183643 0.07136975 -0.10037623 -0.16672282 0.0005977009 0.12565829 -0.20724237 -0.12312122
0.14608513 -0.19950677 0.23705648 0.012250913 -0.0518815 0.06648027 -0.12697086 0.17783037
-0.15090469 -0.16133945 0.05473222 0.27695844 0.009009552 0.2520173 0.10538902 -0.05227555
-0.14226668 0.054262456 -0.0071604345 0.22879961 0.08371505 0.25759274 -0.10539193 -0.08916984
0.20578499 -0.06569448 0.03496868 0.100132644 0.21139966 0.17233309 0.12262769 0.19046505
-0.09428876 0.18995616 -0.17678659 0.011547304 0.06586476 -0.07924139 0.23331648 0.060540836
-0.2131528 -0.19694941 0.25975582 -0.09157028 -0.016920945 0.26847517 -0.11928016 0.34653544
-0.1973884 -0.19156206 0.07369379 0.22999509 -0.19223823 -0.18551828 0.18745221 0.10759689
0.07732036 -0.20393428 -0.13427879 0.21581197 -0.11888863 -0.080760285 0.18848127 -0.21942924
00000000: ba70 963c 4e2a 923d 0e92 cdbd 63b9 2abe
00000010: 07af 1c3a 91ac 003e 5837 54be fa26 fcbd
00000020: 5797 153e 814b 4cbe efbe 723e 0eb8 483c
00000030: b281 54bd cf26 883d a604 02be 2a19 363e
00000040: c286 1abe 2b36 25be e42e 603d 7fcd 8d3e
00000050: cd9c 133c 6908 813e 33d6 d73d e31e 56bd
00000060: 5bae 11be 4f42 5e3d 14a2 eabb 724a 6a3e
00000070: cc72 ab3d 32e3 833e b9d7 d7bd ad9e b6bd
00000080: 4db9 523e d48a 86bd 523b 0f3d 5812 cd3d
00000090: 2779 583e 1678 303e 3a24 fb3d 4509 433e
000000a0: 771a c1bd de83 423e 8b07 35be e730 3d3c
000000b0: 1ae4 863d 4f49 a2bd 84ea 6e3e abf9 773d
000000c0: ba44 5abe 1bad 49be b7fe 843e 3389 bbbd
000000d0: cb9d 8abc 9475 893e 2849 f4bd 186d b13e
000000e0: 2f20 4abe d828 44be c5ec 963d d583 6b3e
000000f0: 19da 44be 81f8 3dbe 79f3 3f3e c25b dc3d
00000100: 235a 9e3d 26d4 50be 6180 09be d0fd 5c3e
00000110: e27b f3bd a665 a5bd 3c01 413e 0fb2 60be

decoder.layers.2.linear.bias f4 [6]
-0.033902254 0.1492871 0.1494949 -0.12357851 -0.06035883 0.09433924
00000000: 17dd 0abd b8de 183e 3115 193e bb16 fdbd
00000010: d23a 77bd ee34 c13d

exp_avg f4 [12, 6]
0.0014575282 -0.001906206 0.0032326963 0.0016515619 -0.004619054 -0.002180403 -4.52116e-06 -0.0016564585
0.00032143405 -0.00024759487 3.5292942e-05 8.0831196e-05 0.00053406094 -0.003192217 0.001329271 0.0031022956
-0.0011295174 -0.00058569177 -0.00066175754 0.0017257589 -0.0013368579 0.002220616 0.0015489575 0.0008202411
0.009394251 -0.028906744 0.019949146 0.0185399 -0.021495478 -0.013236166 0.00059391564 -0.0032190727
0.0001323731 0.0014950956 -0.0027567428 -0.0019638743 0.001291328 -0.0030933726 0.0017532449 0.00081888615
-0.0033506698 -0.0020070216 0.00041769375 -0.014348611 0.0003700686 0.000315905 -0.00015919036 0.0013789964
0.006438509 -0.026453756 0.013692838 0.0103702275 -0.013489015 -0.0063478886 -2.930372e-05 -1.2058812e-05
-5.2173935e-05 3.539687e-05 8.2479244e-05 0.00026878857 0.0073169214 -0.02053008 0.01573703 0.011908334
-0.016707908 -0.00992237 -5.779152e-05 0.0038814945 0.0010314954 0.00011109003 -0.00056390034 -0.0011449947
00000000: 880a bf3a a9d9 f9ba a5db 533b 3979 d83a
00000010: 6f5b 97bb 18e5 0ebb 78b4 97b6 861d d9ba
00000020: 2686 a839 9fcf 81b9 8207 1438 eb83 a938
00000030: 3900 0c3a 8434 51bb ef3a ae3a e24f 4b3b
00000040: 510c 94ba 1c89 19ba cc79 2dba dc32 e23a
00000050: 8239 afba c187 113b 6406 cb3a 7305 573a
00000060: 58ea 193c d6cd ecbc 646c a33c fde0 973c
00000070: 4917 b0bc 81dc 58bc 01b1 1b3a 14f7 52bb
00000080: a2cd 0a39 15f7 c33a 78aa 34bb 58b4 00bb
00000090: c741 a93a 2eba 4abb 23cd e53a 85aa 563a
000000a0: e996 5bbb 3c88 03bb e8fd da39 7016 6bbc
000000b0: c405 c239 0da0 a539 56ec 26b9 71bf b43a
000000c0: 21fa d23b 8cb5 d8bc ed57 603c e3e7 293c
000000d0: 0801 5dbc f301 d0bb 42d1 f5b7 3450 4ab7
000000e0: 56d5 5ab8 1a77 1438 b5f8 ac38 31ec 8c39
000000f0: c9c2 ef3b b32e a8bc f2ea 803c 2c1b 433c
00000100: 06df 88bc 7091 22bc 2c65 72b8 ac60 7e3b
00000110: 3e33 873a 01f9 e838 b6d2 13ba a613 96ba

exp_avg_sq f4 [12, 6]
2.934987e-07 3.7537487e-07 1.2625719e-06 6.4287457e-07 2.2474285e-06 1.2251063e-06 5.673961e-10 1.829807e-07
1.1629263e-08 8.341627e-09 4.5964867e-09 4.840398e-08 1.6515878e-08 3.1524007e-07 8.283828e-08 4.845656e-07
4.196607e-08 1.0066948e-08 2.5009367e-08 2.5748864e-07 9.660923e-08 5.2493056e-07 4.0713672e-07 3.507971e-07
4.585081e-06 3.8209455e-05 1.9579596e-05 1.906643e-05 1.8739205e-05 7.358926e-06 3.0346033e-08 2.7718085e-07
7.247581e-08 6.252352e-08 5.583968e-07 3.386158e-07 1.282049e-07 5.9355517e-07 5.704454e-07 1.7831196e-06
1.0814407e-06 5.463477e-07 1.415746e-07 6.332668e-06 4.1666894e-07 4.666386e-06 2.7933459e-06 3.382837e-06
1.0916071e-06 1.873039e-05 4.9926966e-06 3.3698382e-06 5.249314e-06 1.5468538e-06 3.426851e-10 5.8030816e-11
1.0863176e-09 5.000108e-10 2.7148073e-09 2.8831762e-08 1.8428262e-06 1.4897026e-05 8.011004e-06 6.8474346e-06
8.971075e-06 3.3412557e-06 6.174599e-09 4.604768e-07 5.1074526e-08 3.4723325e-07 3.2319832e-08 2.1890747e-07
00000000: 2792 9d34 2187 c934 a475 a935 0192 2c35
00000010: 87d2 1636 556e a435 f3f6 1b30 5a79 4434
00000020: 0aca 4732 dd4e 0f32 20ef 9d31 bde4 4f33
00000030: cdde 8d32 443e a934 d3e4 b133 1813 0235
00000040: 2f3e 3433 e8f2 2c32 2ed4 d632 f83c 8a34
00000050: 7c77 cf33 f4e8 0c35 7294 da34 3055 bc34
00000060: 8cd9 9936 1743 2038 dd3e a437 d9f0 9f37
00000070: 2332 9d37 b1ec f636 d155 0233 72cf 9434
00000080: ffa3 9b33 ab44 8633 bce4 1535 00cb b534
00000090: b2a8 0934 cd54 1f35 b620 1935 8653 ef35
000000a0: 0526 9135 baa8 1235 bb03 1834 347d d436
000000b0: 8bb2 df34 f393 9c36 5175 3b36 b204 6336
000000c0: 5683 9235 351f 9d37 f086 a736 6125 6236
000000d0: 4423 b036 7e9d cf35 a464 bc2f e438 7f2e
000000e0: 674d 9530 2271 0930 658f 3a31 b7a9 f732
000000f0: 0757 f735 3dee 7937 0067 0637 04c3 e536
00000100: 7982 1637 563a 6036 5928 d431 7337 f734
00000110: 095d 5b33 606b ba34 08d0 0a33 d40c 6b34

exp_avg f4 [12]
-0.0021752745 -0.0011779714 -0.0037879082 -3.9294166e-05 -0.030315774 -0.003320634 -0.0025634523 -0.007824949
-0.021706326 -4.839377e-05 -0.020656142 0.0016500758
00000000: 0d8f 0ebb 2966 9aba 8e3e 78bb cacf 24b8
00000010: c958 f8bc fe9e 59bb 98ff 27bb 3734 00bc
00000020: 77d1 b1bc 6afa 4ab8 1237 a9bc 5b47 d83a

exp_avg_sq f4 [12]
1.1322994e-06 9.404019e-08 5.114768e-07 2.7936966e-07 4.3732085e-05 3.0564587e-07 1.9690408e-06 6.634384e-06
1.2219327e-05 9.34606e-10 1.6336011e-05 3.040424e-07
00000000: 83f9 9735 24f3 c933 6b4c 0935 46fc 9534
00000010: f86c 3738 a617 a434 dd23 0436 ed9c de36
00000020: 9c01 4d37 8673 8030 5109 8937 453b a334

exp_avg f4 [4, 12]
0.0027907775 -0.0005947283 0.0013281043 0.004200591 0.00466226 -0.000572447 0.0026503175 0.0016077494
0.002484721 -0.00017713345 0.004977087 0.00026181163 -0.0023636976 -0.00018055321 -0.006439563 -0.0028606143
-0.018999305 -0.00025050392 -0.0019272615 -0.0023402087 -0.013040342 -2.2391801e-05 -0.0087472275 -0.0004378597
-0.0048037856 -0.0004973129 -0.009866317 -0.004355238 -0.040226005 -0.0008841971 -0.0015652477 -0.002966762
-0.024589602 -1.0230936e-05 -0.016599573 0.0011191829 -0.005042073 0.0005215025 -0.003667063 -0.006414813
-0.019358402 0.0004920238 -0.0031485935 -0.0026326727 -0.01033989 0.00021324476 -0.01129425 0.0010432965
00000000: 7ae5 363b 8ae7 1bba c913 ae3a 1ca5 893b
00000010: dfc5 983b 4510 16ba f3b0 2d3b 1ebb d23a
00000020: b3d6 223b e6bc 39b9 d516 a33b c343 8939
00000030: 44e8 1abb e252 3db9 f802 d3bb 2579 3bbb
00000040: 6ea4 9bbc 1156 83b9 2a9c fcba 305e 19bb
00000050: 29a7 55bc 07d6 bbb7 8850 0fbc 8990 e5b9
00000060: 1369 9dbb 1b5e 02ba 55a6 21bc 62b6 8ebb
00000070: 06c4 24bd 77c9 67ba ff28 cdba 026e 42bb
00000080: 2270 c9bc 89a5 2bb7 d4fb 87bc 8cb1 923a
00000090: f937 a5bb 71b5 083a 1c53 70bb 5a33 d2bb
000000a0: 8395 9ebc 29fb 003a a258 4ebb eb88 2cbb
000000b0: a468 29bc 749a 5f39 850b 39bc 39bf 883a

exp_avg_sq f4 [4, 12]
1.9667982e-06 5.611975e-08 4.566216e-06 1.979311e-06 1.1410431e-05 1.0225109e-08 3.3248605e-06 1.1485104e-06
7.223102e-06 1.6044538e-08 2.7470483e-06 5.1506254e-07 2.8173264e-07 9.156647e-09 3.723961e-06 3.704113e-07
1.3416368e-05 4.4235438e-09 8.517454e-07 3.9392003e-07 7.353041e-06 3.0466436e-09 2.0873788e-06 4.4690205e-07
9.526971e-07 7.419583e-08 2.707079e-06 9.626868e-07 4.1240757e-05 2.0739686e-08 4.4140864e-07 3.7476025e-07
1.5367958e-05 1.8989196e-08 6.6111634e-06 1.4089383e-07 3.643389e-06 6.3152235e-08 1.0025432e-05 3.3340116e-06
4.128266e-05 9.766747e-09 5.2637365e-06 2.2922816e-06 2.0789494e-05 1.9797326e-08 6.4028172e-06 6.1903046e-07
00000000: 56fd 0336 5108 7133 7f37 9936 4ed4 0436
00000010: 6e6f 3f37 81aa 2f32 ab20 5f36 8426 9a35
00000020: f95d f236 50d2 8932 ee59 3836 d442 0a35
00000030: 0a41 9734 5c4f 1d32 2ae9 7936 f1dc c634
00000040: dd16 6137 e7fd 9731 80a3 6435 f57b d334
00000050: 24ba f636 1f5d 5131 e514 0c36 c0ed ef34
00000060: d9bc 7f35 9755 9f33 43ab 3536 ab35 8135
00000070: edf9 2c38 0d27 b232 befa ec34 a832 c934
00000080: 70ea 8037 af1d a332 76d5 dd36 9a48 1734
00000090: f280 7436 4f9e 8733 e732 2837 e2bd 5f36
000000a0: eb26 2d38 9cca 2732 279f b036 19d5 1936
000000b0: 1965 ae37 c80e aa32 c8d7 d636 732b 2635

exp_avg f4 [4]
0.008862841 -0.032288916 -0.057901315 -0.028194843
00000000: 7335 113c 6241 04bd ee29 6dbd dff8 e6bc

exp_avg_sq f4 [4]
8.58217e-05 6.8722045e-05 9.1430265e-05 0.00023287658
00000000: 2dfb b338 de1e 9038 40be bf38 5530 7439

exp_avg f4 [12, 4]
0.0 0.0 0.0 0.0 -0.0013545363 0.008339567 0.0051076 0.0041745845
0.0 0.0 0.0 0.0 0.0 0.0 0.0 0.0
-0.0061839675 0.014543326 0.006424383 0.0057686875 9.818323e-06 0.00011697928 0.000102390695 3.342714e-05
0.0 0.0 0.0 0.0 0.0152285155 -0.047650803 -0.029962195 -0.026548997
-0.008716771 0.0289143 0.019042658 0.019833837 -8.547426e-05 0.0031816475 0.0033696753 0.0025216325
-0.0022803803 0.0036778643 5.7249315e-05 0.00042684923 -0.0015694225 0.0029910046 0.0006403932 0.0011153949
00000000: 0000 0000 0000 0000 0000 0000 0000 0000
00000010: b28a b1ba aea2 083c a75d a73b f4ca 883b
00000020: 0000 0000 0000 0000 0000 0000 0000 0000
00000030: 0000 0000 0000 0000 0000 0000 0000 0000
00000040: e1a2 cabb 2147 6e3c a183 d23b 4207 bd3b
00000050: 60b9 2437 c652 f538 96ba d638 1e34 0c38
00000060: 0000 0000 0000 0000 0000 0000 0000 0000
00000070: 0681 793c 7d2d 43bd 4773 f5bc 487d d9bc
00000080: cad0 0ebc afdd ec3c 59ff 9b3c 927a a23c
00000090: a540 b3b8 3083 503b c5d5 5c3b f941 253b
000000a0: 6f72 15bb 5308 713b fc1e 7038 bcca df39
000000b0: 15b5 cdba bb04 443b 0fe0 273a 7132 923a

exp_avg_sq f4 [12, 4]
0.0 0.0 0.0 0.0 8.5519196e-07 1.8846677e-05 2.0900598e-06 1.8050321e-06
0.0 0.0 0.0 0.0 0.0 0.0 0.0 0.0
2.3506796e-06 1.52338425e-05 9.697172e-07 1.3876726e-06 2.0771331e-08 7.1703084e-08 6.6751504e-08 2.4913773e-09
0.0 0.0 0.0 0.0 5.8617657e-06 5.5237877e-05 2.1329703e-05 1.6825525e-05
4.266457e-06 5.047343e-05 9.6745325e-06 1.2305667e-05 3.1597855e-09 4.955535e-07 5.433702e-07 3.436993e-07
1.1794943e-06 4.5608467e-06 3.8825436e-07 1.3026128e-07 6.5720866e-07 4.469358e-06 8.044507e-08 2.5254135e-07
00000000: 0000 0000 0000 0000 0000 0000 0000 0000
00000010: 5890 6535 ee18 9e37 f442 0c36 6e44 f235
00000020: 0000 0000 0000 0000 0000 0000 0000 0000
00000030: 0000 0000 0000 0000 0000 0000 0000 0000
00000040: 5ec0 1d36 db94 7f37 3b27 8235 1140 ba35
00000050: a46c b232 30fb 9933 0759 8f33 c634 2b31
00000060: 0000 0000 0000 0000 0000 0000 0000 0000
00000070: 2fb0 c436 38af 6738 30ed b237 8a24 8d37
00000080: 9628 8f36 6fb3 5338 cd4f 2237 7074 4e37
00000090: 8923 5931 2d06 0535 1edc 1135 ac85 b834
000000a0: 1e4f 9e35 6009 9936 4671 d034 f3dd 0b34
000000b0: 096b 3035 7ef7 9536 25c1 ac33 0595 8734

exp_avg f4 [12]
0.0 0.018882051 0.0 0.0 0.03644555 0.00018949635 0.0 -0.102621555
0.06112331 0.0039520822 0.014158778 0.0090931505
00000000: 0000 0000 88ae 9a3c 0000 0000 0000 0000
00000010: ee47 153d 8ab3 4639 0000 0000 402b d2bd
00000020: 705c 7a3d 7880 813b 38fa 673c 70fb 143c

exp_avg_sq f4 [12]
0.0 0.00022336043 0.0 0.0 0.0001797198 3.4848884e-07 0.0 0.00028784256
0.00048203958 8.226871e-07 0.00010481314 6.125674e-05
00000000: 0000 0000 dc35 6a39 0000 0000 0000 0000
00000010: 2b73 3c39 f117 bb34 0000 0000 93e9 9639
00000020: 42ba fc39 a1d6 5c35 20cf db38 f676 8038

exp_avg f4 [6, 12]
0.0 -0.00015422775 0.0 0.0 0.0018458274 3.0550991e-06 0.0 0.005915312
0.0035182463 0.00065617287 -0.00026987787 0.0012133453 0.0 -0.013757361 0.0 0.0
-0.03739877 -1.02397415e-07 0.0 -0.025561288 -0.07470554 0.00010757393 -0.003029329 -0.0023097047
0.0 0.001036261 0.0 0.0 0.010651951 4.508889e-06 0.0 0.017193295
0.019963605 0.0012875643 -0.00028626173 0.0032359436 0.0 0.008975557 0.0 0.0
0.03517524 6.5815067e-07 0.0 0.014669413 0.057909265 0.000288835 0.003442948 0.0018774387
0.0 -0.0025380491 0.0 0.0 -0.007157946 -7.792217e-06 0.0 -0.02091164
-0.016391214 -0.0032147495 -0.00024741664 -0.0024716775 0.0 -0.0005699563 0.0 0.0
0.0055040927 -9.240569e-06 0.0 -0.01064999 0.0045474507 -0.0023404285 0.0006597789 -0.00048672952
00000000: 0000 0000 32b8 21b9 0000 0000 0000 0000
00000010: b1ef f13a 3406 4d36 0000 0000 3cd5 c13b
00000020: 6192 663b 0403 2c3a 657e 8db9 1d09 9f3a
00000030: 0000 0000 8e66 61bc 0000 0000 0000 0000
00000040: 742f 19bd 93e5 dbb3 0000 0000 e865 d1bc
00000050: 38ff 98bd 5099 e138 b587 46bb 6a5e 17bb
00000060: 0000 0000 26d3 873a 0000 0000 0000 0000
00000070: 8585 2e3c 104b 9736 0000 0000 f4d8 8c3c
00000080: b78a a33c 7dc3 a83a 6615 96b9 2012 543b
00000090: 0000 0000 370e 133c 0000 0000 0000 0000
000000a0: ea13 103d c5ab 3035 0000 0000 fa57 703c
000000b0: 4432 6d3d c76e 9739 15a3 613b 6414 f63a
000000c0: 0000 0000 6655 26bb 0000 0000 0000 0000
000000d0: 348d eabb 51bb 02b7 0000 0000 e34e abbc
000000e0: de46 86bc 8cae 52bb b3b7 81b9 defb 21bb
000000f0: 0000 0000 1f69 15ba 0000 0000 0000 0000
00000100: ad5b b43b f107 1bb7 0000 0000 4c7d 2ebc
00000110: c802 953b e061 19bb 03f5 2c3a bb2f ffb9

exp_avg_sq f4 [6, 12]
0.0 2.616662e-06 0.0 0.0 8.470164e-06 3.9435113e-09 0.0 8.4793095e-07
2.138115e-05 2.0301393e-08 1.3140973e-06 5.5029534e-07 0.0 5.0931878e-05 0.0 0.0
0.00021420444 1.3469635e-11 0.0 1.30862445e-05 0.00056536973 1.8297742e-09 3.3121967e-05 3.3762042e-06
0.0 9.671691e-06 0.0 0.0 4.601196e-05 8.252485e-09 0.0 6.330228e-06
0.0001097776 7.451418e-08 4.6553973e-06 3.1549876e-06 0.0 4.0138166e-05 0.0 0.0
0.000171015 5.506223e-10 0.0 4.298928e-06 0.00040321876 3.3873415e-09 3.175178e-05 1.5593206e-06
0.0 1.3095937e-05 0.0 0.0 2.4241783e-05 2.839174e-08 0.0 1.1434628e-05
8.1764534e-05 5.3416267e-07 5.3331346e-06 1.4334754e-06 0.0 1.8356509e-06 0.0 0.0
3.2204907e-06 3.0190037e-08 0.0 4.5017114e-06 3.026924e-06 2.8766948e-07 2.7402783e-07 2.767067e-08
00000000: 0000 0000 e999 2f36 0000 0000 0000 0000
00000010: 141b 0e37 7e7f 8731 0000 0000 5f9d 6335
00000020: ac5b b337 3c63 ae32 0a60 b035 02b8 1335
00000030: 0000 0000 b09f 5538 0000 0000 0000 0000
00000040: 119c 6039 d8f5 6c2d 0000 0000 fe8c 5b37
00000050: 5235 143a 757b fb30 71ec 0a38 bf92 6236
00000060: 0000 0000 9943 2237 0000 0000 0000 0000
00000070: f7fc 4038 d0c6 0d32 0000 0000 3f68 d436
00000080: 6638 e638 9b04 a033 8f35 9c36 46ba 5336
00000090: 0000 0000 075a 2838 0000 0000 0000 0000
000000a0: 7d52 3339 9a5a 1730 0000 0000 833f 9036
000000b0: 1b67 d339 bec6 6831 372d 0538 d949 d135
000000c0: 0000 0000 9fb6 5b37 0000 0000 0000 0000
000000d0: d55a cb37 19e2 f332 0000 0000 5ad7 3f37
000000e0: 0079 ab38 6163 0f35 47f3 b236 d765 c035
000000f0: 0000 0000 7c60 f635 0000 0000 0000 0000
00000100: 9c1f 5836 4caa 0133 0000 0000 680d 9736
00000110: 2922 4b36 fe70 9a34 191e 9334 72b0 ed32

exp_avg f4 [6]
0.027352195 -0.2606056 0.10587354 0.1976277 -0.095825024 -0.006272138
00000000: b611 e03c 196e 85be 3ad4 d83d ea5e 4a3e
00000010: e93f c4bd 8286 cdbb

exp_avg_sq f4 [6]
0.00017051525 0.0043995534 0.001029773 0.0029315578 0.00073026016 2.516976e-05
00000000: 57cc 3239 212a 903b 73f9 863a 611f 403b
00000010: ee6e 3f3a a623 d337
