lightning_logs/version_11/checkpoints/epoch=9-step=70.ckpt (torch, 14835 bytes, 24 tensors)

encoder.layers.0.linear.weight f4 [12, 6]
0.20512109 -0.3493445 -0.18781383 -0.2648779 -0.30188593 0.06101675 0.24138583 -0.26386964
-0.332271 0.35850978 -0.30483082 -0.06610807 0.23514315 0.06599053 -0.36923164 0.21264665
0.36331522 0.16385089 0.11190105 -0.20017636 0.014636312 -0.09102159 -0.23084913 -0.2275772
-0.20899287 -0.1562119 0.23233044 0.20334479 0.2894422 -0.121358365 -0.13521089 -0.09350796
0.32850972 0.10628773 0.32140502 -0.18193094 -0.23988102 -0.10783008 -0.37682027 -0.032625183
-0.26276842 0.4107749 0.06749585 0.4273093 0.060661208 -0.42759866 -0.20542544 0.079917535
-0.38410392 -0.0003782079 -0.22379744 -0.44094387 0.30142647 -0.24329402 0.41749182 0.045338906
-0.3122784 0.12282359 0.28406844 0.04142292 -0.00013853214 -0.3000367 -0.35637107 0.29274023
-0.28159383 0.08677542 0.09743144 0.022440694 -0.19506866 -0.10569399 0.37338567 -0.014333344
00000000: 430b 523e 48dd b2be 4552 40be 139e 87be
00000010: cb90 9abe b3ec 793d d92d 773e ec19 87be
00000020: 6d1f aabe 988e b73e c912 9cbe ab63 87bd
00000030: 5ec9 703e 0b26 873d ee0b bdbe 0bc0 593e
00000040: 7404 ba3e 87c8 273e 612c e53d 08fb 4cbe
00000050: 24cd 6f3c 8769 babd b763 6cbe ff09 69be
00000060: 3a02 56be 03f6 1fbe 08e8 6d3e 9e39 503e
00000070: c531 943e bc8a f8bd b974 0abe 1a81 bfbd
00000080: 6d32 a83e 62ad d93d 338f a43e 1b4c 3abe
00000090: 5fa3 75be 04d6 dcbd 96ee c0be fca1 05bd
000000a0: 9589 86be 1651 d23e 443b 8a3d 49c8 da3e
000000b0: e377 783d 36ee dabe 0c5b 52be ceab a33d
000000c0: 45a9 c4be 344a c6b9 282b 65be 65c3 e1be
000000d0: 9254 9a3e 1122 79be 7dc1 d53e 4ab5 393d
000000e0: f4e2 9fbe ef8a fb3d 6b71 913e 14ab 293d
000000f0: f042 11b9 699e 99be 4576 b6be 0ce2 953e
00000100: 112d 90be 50b7 b13d 238a c73d 8cd5 b73c
00000110: 14c0 47be 1776 d8bd 682c bf3e 67d6 6abc

encoder.layers.0.linear.bias f4 [12]
-0.20327717 -0.19553603 0.25738496 -0.12705734 0.11613251 -0.2907088 0.20103867 0.4038419
-0.021547547 -0.018075578 0.38505358 0.12758146
00000000: e427 50be 993a 48be f6c7 833e 521b 02be
00000010: e2d6 ed3d c9d7 94be 15dd 4d3e 5ec4 ce3e
00000020: 7b84 b0bc 3c13 94bc be25 c53e b7a4 023e

encoder.layers.2.linear.weight f4 [4, 12]
0.30389965 0.18370765 -0.20726453 -0.1851171 0.05726077 -0.17895852 0.20021981 -0.14970967
-0.29909027 -0.27494353 -0.20912224 -0.22302586 0.20125473 0.042574532 0.120812945 -0.2925246
0.18361387 0.22246647 0.27246943 0.21863489 0.11631352 -0.0713449 -0.2701435 0.11023581
0.19371423 0.09475188 0.31544083 -0.31374437 0.10620736 -0.05552703 0.33154783 -0.3572216
0.050049838 -0.1842866 0.03770028 0.09150985 -0.19098529 -0.15641771 0.3450527 0.10689679
0.14771132 0.23543581 -0.12611069 0.12854739 0.28199983 -0.09085675 -0.110215805 -0.06876414
00000000: bc98 9b3e dc1d 3c3e 273d 54be 568f 3dbe
00000010: 458a 6a3d e740 37be 6c06 4d3e 7e4d 19be
00000020: 5c22 99be 66c5 8cbe 2424 56be e460 64be
00000030: b815 4e3e a262 2e3d c76c f73d c9c5 95be
00000040: 4605 3c3e 40ce 633e 1d81 8b3e d3e1 5f3e
00000050: c835 ee3d 461d 92bd 4050 8abe 50c3 e13d
00000060: 065d 463e 460d c23d 7681 a13e 1aa3 a0be
00000070: 3f83 d93d 5070 63bd a3c0 a93e c0e5 b6be
00000080: 0f01 4d3d a0b5 3cbe 9c6b 1a3d 8469 bb3d
00000090: a691 43be f72b 20be bfaa b03e b4ec da3d
000000a0: a341 173e 1616 713e 2923 01be eda1 033e
000000b0: 4862 903e 1b13 babd d3b8 e1bd 37d4 8cbd

encoder.layers.2.linear.bias f4 [4]
0.2494195 0.24277462 -0.11603615 -0.17556056
00000000: d367 7f3e e999 783e 5ca4 edbd 26c6 33be

decoder.layers.0.linear.weight f4 [12, 4]
0.24034221 -0.019676413 -0.39516756 0.279383 -0.19790918 -0.0030995607 -0.11915898 -0.23493952
0.23941426 -0.3205276 -0.43353328 0.37023082 0.4741611 0.44153553 0.3136825 0.14979643
0.07125596 0.48209658 -0.52293515 -0.3150114 0.42539608 -0.43052828 -0.07605696 0.49916232
0.44777948 0.20857513 0.41347232 -0.12200723 -0.21268764 0.45736223 0.29356483 0.2918074
0.28671956 0.21063179 0.22082788 0.025810719 -0.038021084 0.3265458 0.38276845 0.09937004
-0.12818329 0.44919693 0.46011427 -0.06504333 0.46492302 -0.021033756 -0.5810943 0.35357663
00000000: 451c 763e 6e30 a1bc 6753 cabe 4a0b 8f3e
00000010: b4a8 4abe 0022 4bbb a009 f4bd fc93 70be
00000020: 0329 753e 321c a4be 13f8 ddbe e58e bd3e
00000030: 3ec5 f23e f210 e23e fe9a a03e 3c64 193e
00000040: a5ee 913d 5dd5 f63e 14df 05bf 2d49 a1be
00000050: 84cd d93e 346e dcbe c0c3 9bbd 3492 ff3e
00000060: 5a43 e53e b894 553e a5b2 d33e edde f9bd
00000070: caca 59be 622b ea3e 214e 963e c867 953e
00000080: e8cc 923e dcaf 573e b420 623e 0071 d33c
00000090: ffbb 1bbd 0331 a73e 3afa c33e 8582 cb3d
000000a0: 7b42 03be 24fd e53e 1994 eb3e 7035 85bd
000000b0: 640a ee3e fc4e acbc 99c2 14bf ff07 b53e

decoder.layers.0.linear.bias f4 [12]
0.4725858 -0.47967398 0.4363505 -0.3000983 0.5424206 -0.12511295 0.041119304 0.3794859
-0.3266613 0.32287076 0.1956477 0.238737
00000000: c4f6 f13e d497 f5be 5569 df3e 7ca6 99be
00000010: 14dc 0a3f 9c1d 00be b76c 283d fa4b c23e
00000020: 2640 a7be 514f a53e df57 483e 7977 743e

decoder.layers.2.linear.weight f4 [6, 12]
0.10302725 0.1507127 0.06145459 0.19296648 0.10458912 0.19894992 0.038361035 -0.00020680943
0.13988286 0.024349244 0.2894004 0.02478916 -0.17002477 0.22395368 0.28374988 -0.2661779
0.2746974 0.1769901 -0.23373574 0.32599646 0.22938931 0.21847172 -0.14182775 -0.14203821
0.25248662 0.1268204 0.015979804 -0.17093597 0.23166634 -0.28431118 0.2247602 -0.13838884
0.28433117 -0.038313415 -0.00010111497 0.22233099 -0.3114022 0.20145242 -0.009980638 -0.23690894
0.21539284 0.28084248 0.18205601 0.22366312 0.22184171 -0.32723257 -0.2493456 -0.30606455
0.08703353 -0.18557534 0.1419864 0.18955496 -0.30415732 -0.2132478 -0.22942233 0.19330074
0.28419948 0.22240718 0.14398195 -0.06828068 0.06621289 0.13555835 0.08129773 -0.18089224
0.034831792 -0.23609784 0.25158015 0.058899634 0.23949686 0.1406215 0.255029 -0.18553455
00000000: f3ff d23d 6e54 1a3e cfb7 7b3d 0199 453e
00000010: d232 d63d 87b9 4b3e 7620 1d3d fcda 58b9
00000020: 743d 0f3e 1178 c73c 4a2c 943e a312 cb3c
00000030: f91a 2ebe 1d54 653e aa47 913e 7848 88be
00000040: 23a5 8c3e e53c 353e 6c58 6fbe 02e9 a63e
00000050: 08e5 6a3e 0db7 5f3e 4b3b 11be 7772 11be
00000060: ed45 813e 35dd 013e 14e8 823c d709 2fbe
00000070: f139 6d3e 3c91 91be 8a27 663e ceb5 0dbe
00000080: db93 913e 87ee 1cbd b00d d4b8 bcaa 633e
00000090: 1c70 9fbe 8b49 4e3e d485 23bc 4298 72be
000000a0: f18f 5c3e 96ca 8f3e e46c 3a3e f207 653e
000000b0: 792a 633e 078b a7be 7454 7fbe 7eb4 9cbe
000000c0: a33e b23d 7607 3ebe e264 113e b21a 423e
000000d0: 82ba 9bbe a25d 5abe b0ed 6abe a1f0 453e
000000e0: 9882 913e b5be 633e 0170 133e bed6 8bbd
000000f0: a09a 873d cfcf 0a3e 6d7f a63d d13b 39be
00000100: c8ab 0e3d a2c3 71be 1dcf 803e be40 713d
00000110: aa3e 753e 15ff 0f3e 2993 823e c5fc 3dbe

decoder.layers.2.linear.bias f4 [6]
-0.147309 -0.08951338 -0.20911375 -0.019417709 0.041177567 -0.23957121
00000000: 2cd8 16be ca52 b7bd ea21 56be e311 9fbc
00000010: cfa9 283d 2852 75be

exp_avg f4 [12, 6]
-0.00025825275 0.00016975345 -0.0003654908 -0.000901372 -9.538092e-06 -0.00047412442 0.0 0.0
0.0 0.0 0.0 0.0 0.0049727694 -0.017973533 0.014021303 0.011517382
-0.010744909 -0.0044524064 -0.0028891794 -0.0014274028 -0.0065555 0.0056138495 0.004593736 0.0027220102
0.0001098208 -0.000101872676 0.00016574333 -0.00011744698 -0.00019698076 -0.0005601707 0.00010002006 1.9028344e-05
0.00019523519 -9.882833e-05 -0.00017069028 -0.00047161186 0.0015263808 -0.006791136 0.004929838 0.0017486628
-0.0045447806 -0.0021452329 -0.011237844 -0.01830759 -0.02841683 0.013327207 0.015241739 0.006937935
0.0029452746 -0.01013441 0.007999342 0.005515812 -0.006121911 -0.0032842406 -0.0014590845 0.0033712354
-0.0039413776 -0.0029516474 0.0033812926 0.0013528886 0.00023916096 -0.00046816617 0.0006339935 0.00034889876
-0.000363238 5.685513e-06 0.001590231 -0.0040417206 0.0044022645 -0.0008953391 -0.0028829596 -0.0013916959
00000000: 1966 87b9 d8ff 3139 589f bfb9 0d4a 6cba
00000010: cb05 20b7 e793 f8b9 0000 0000 0000 0000
00000020: 0000 0000 0000 0000 0000 0000 0000 0000
00000030: 9df2 a23b 3b3d 93bc 9bb9 653c 67b3 3c3c
00000040: 6a0b 30bc 7ee5 91bb 6358 3dbb b117 bbba
00000050: 85cf d6bb 62f4 b73b 0d87 963b c163 323b
00000060: 984f e638 7aa4 d5b8 63cb 2d39 de4d f6b8
00000070: 9f8c 4eb9 6bd8 12ba dcc1 d138 0f9f 9f37
00000080: 0cb8 4c39 0e42 cfb8 53fb 32b9 ac42 f7b9
00000090: d710 c83a 2e88 debb 7a8a a13b 6333 e53a
000000a0: 62ec 94bb 0997 0cbb ef1e 38bc cdf9 95bc
000000b0: 69ca e8bc 5c5a 5a3c 7db8 793c 9e57 e33b
000000c0: 8205 413b cc0a 26bc ac0f 033c fcbd b43b
000000d0: 509a c8bb 6a3c 57bb c03e bfba f2ef 5c3b
000000e0: ac26 81bb 6d70 41bb ad98 5d3b 6953 b13a
000000f0: 48c7 7a39 3374 f5b9 9532 263a 66ec b639
00000100: fb70 beb9 2fc6 be36 4c6f d03a 6970 84bb
00000110: df40 903b 31b5 6aba 09f0 3cbb 9169 b6ba

exp_avg_sq f4 [12, 6]
3.892031e-08 3.506885e-08 1.9045329e-07 5.865188e-07 1.2030767e-07 2.404263e-07 0.0 0.0
0.0 0.0 0.0 0.0 1.4381467e-06 1.47414285e-05 1.1150333e-05 6.998179e-06
6.866933e-06 1.1522097e-06 2.1257628e-07 4.519192e-08 1.0575815e-06 7.359407e-07 5.4460986e-07 5.8684736e-07
3.030225e-08 2.3656324e-07 2.2112312e-07 5.0817846e-08 5.5215388e-08 2.642878e-07 6.88856e-09 2.5370228e-10
2.6194655e-08 6.716914e-09 1.9796161e-08 1.5339468e-07 1.2745306e-07 2.236912e-06 1.294294e-06 5.003513e-07
1.3027977e-06 3.194646e-07 4.621961e-06 1.5676897e-05 3.1323438e-05 5.268484e-06 9.003473e-06 2.22425e-06
3.9535388e-07 4.2492065e-06 2.9025175e-06 1.4599823e-06 1.7261104e-06 6.69045e-07 3.5601633e-07 1.9043198e-06
2.6533148e-06 1.2337525e-06 1.8987478e-06 3.1793016e-07 1.4987442e-09 7.915401e-09 1.0445172e-08 8.7285335e-09
4.42084e-09 9.342198e-10 1.5726442e-07 5.118197e-07 9.538754e-07 1.1155129e-06 3.313176e-07 8.1017745e-08
00000000: 5529 2733 9c9e 1633 677f 4c34 4471 1d35
00000010: ec2d 0134 f013 8134 0000 0000 0000 0000
00000020: 0000 0000 0000 0000 0000 0000 0000 0000
00000030: 5806 c135 f451 7737 5112 3b37 e6d1 ea36
00000040: 816a e636 a0a5 9a35 8640 6434 0b19 4233
00000050: 39f2 8d35 768d 4535 4e31 1235 d887 1d35
00000060: ad25 0233 0202 7e34 dc6d 6d34 d042 5a33
00000070: f625 6d33 70e3 8d34 6ab0 ec31 6c79 8b2f
00000080: a802 e132 9aca e631 380c aa32 cfb4 2434
00000090: 08da 0834 db1d 1636 9ab7 ad35 e14f 0635
000000a0: cadb ae35 e182 ab34 5816 9b36 e181 8337
000000b0: 4961 0338 efc7 b036 9f0d 1737 5344 1536
000000c0: 0641 d434 6894 8e36 dfc8 4236 9cf4 c335
000000d0: b4ac e735 6c98 3335 8322 bf34 ee97 ff35
000000e0: 9a0f 3236 6a97 a535 7ad8 fe35 fdaf aa34
000000f0: 60fc cd30 4dfc 0732 5a72 3332 7ff4 1532
00000100: 1fe6 9731 f065 8030 84dc 2834 fb63 0935
00000110: e906 8035 bbb8 9535 f2df b134 fafb ad33

exp_avg f4 [12]
0.00074216654 0.0 -0.017313639 -0.005297796 7.225041e-05 0.00012233868 -0.004394096 -0.021456506
-0.008817492 0.0034090544 -0.00053666905 -0.0015322238
00000000: f48d 423a 0000 0000 55d5 8dbc 2299 adbb
00000010: 2585 9738 0a48 0039 59fc 8fbb 8ec5 afbc
00000020: 3e77 10bc 716a 5f3b 40af 0cba e6d4 c8ba

exp_avg_sq f4 [12]
5.127031e-07 0.0 1.4207345e-05 6.5962854e-07 2.2432265e-07 1.033292e-08 1.2962156e-06 1.7229357e-05
3.3949043e-06 1.8770301e-06 1.203735e-08 9.1521787e-07
00000000: b0a0 0935 0000 0000 155c 6e37 5411 3135
00000010: 57dd 7034 aa84 3132 a1f9 ad35 c387 9037
00000020: 03d4 6336 43ee fb35 d3cc 4e32 4bad 7535

exp_avg f4 [4, 12]
-0.0029652868 0.0 0.007952296 -0.0047192406 -0.000107518106 -0.00016730806 0.0037991218 -0.03490951
0.0052408227 0.00339148 0.0002643972 0.0050622732 0.00023232079 0.0 -0.0046315063 0.00026958185
-3.7956393e-05 7.4100135e-05 -0.0006388188 -0.036211144 -0.00031734386 -0.0018811264 0.00023925272 -0.0030673011
0.003861755 0.0 -0.018888898 0.0071249106 0.00037732295 0.00032880038 -0.010881984 0.05832124
-0.017469618 -0.009680867 -0.00037188982 -0.015098468 -0.00041300408 0.0 -0.00947567 -0.0002620833
1.857068e-05 3.530392e-05 -0.0071513318 -0.033046123 -0.01286478 -0.004319909 -0.00046602698 -0.010352743
00000000: 4255 42bb 0000 0000 594a 023c dca3 9abb
00000010: 587b e1b8 6a6f 2fb9 b0fa 783b 46fd 0ebd
00000020: 35bb ab3b 9843 5e3b cb9e 8a39 6de1 a53b
00000030: 239b 7339 0000 0000 e4c3 97bb aa56 8d39
00000040: 5e33 1fb8 3566 9b38 6776 27ba 2352 14bd
00000050: 2c61 a6b9 2190 f6ba eadf 7a39 c604 49bb
00000060: 7f15 7d3b 0000 0000 e4bc 9abc 1578 e93b
00000070: 6ed3 c539 d762 ac39 594a 32bc 41e2 6e3d
00000080: 721c 8fbc 809c 1ebc 35fa c2b9 915f 77bc
00000090: 7888 d8b9 0000 0000 d73f 1bbc 3a68 89b9
000000a0: 3bc8 9b37 4c13 1438 b855 eabb 5f5b 07bd
000000b0: ccc6 52bc 068e 8dbb 1555 f4b9 8d9e 29bc

exp_avg_sq f4 [4, 12]
6.426017e-07 0.0 1.8523556e-06 5.659841e-07 4.9224256e-09 1.0057433e-08 3.9357133e-07 5.39459e-05
7.6724706e-07 6.611257e-07 2.0392772e-09 8.284752e-07 1.07563665e-07 0.0 1.0870016e-06 4.007284e-08
5.203474e-09 1.04547695e-08 6.010991e-08 4.6113008e-05 1.595201e-07 4.950962e-07 3.7389545e-09 6.0137523e-07
9.402115e-07 0.0 1.656304e-05 1.4257596e-06 7.857829e-08 7.133373e-08 5.0520302e-06 0.00016014595
1.4291812e-05 1.0555214e-05 3.5956926e-09 1.0401243e-05 1.3099641e-08 0.0 4.81826e-06 1.2786441e-08
3.6546084e-09 3.5212664e-09 3.0091699e-06 4.611518e-05 9.464845e-06 3.5958585e-06 7.374538e-09 8.795054e-06
00000000: 417f 2c35 0000 0000 749e f835 22ee 1735
00000010: 1d22 a931 0fc9 2c32 084c d334 f843 6238
00000020: d1f4 4d35 3678 3135 5823 0c31 6264 5e35
00000030: c0fd e633 0000 0000 17e5 9135 8e1c 2c33
00000040: 3eca b231 909c 3332 c615 8133 7769 4138
00000050: 8d48 2b34 c0e6 0435 3178 8031 316e 2135
00000060: d862 7c35 0000 0000 dcf0 8a37 ba5c bf35
00000070: dfbe a833 2230 9933 9c84 a936 daec 2739
00000080: ddc6 6f37 4d16 3137 1818 7731 0081 2e37
00000090: d50c 6132 0000 0000 8aac a136 5dab 5b32
000000a0: 8d24 7b31 c6fa 7131 25f1 4936 cc6b 4138
000000b0: 33cb 1e37 6150 7136 1f63 fd31 788e 1337

exp_avg f4 [4]
-0.027850907 -0.031693302 0.045272768 -0.03213055
00000000: 9627 e4bc d6d0 01bd f06f 393d 539b 03bd

exp_avg_sq f4 [4]
4.387806e-05 3.9700335e-05 0.0001362196 4.8701255e-05
00000000: b509 3838 e983 2638 2cd6 0e39 9344 4c38

exp_avg f4 [12, 4]
-0.0047655245 -0.008709517 0.016490547 0.0037959998 0.0 0.0 0.0 0.0
0.0038298077 -0.024898086 0.016104912 -0.0014236835 0.0 0.0 0.0 0.0
-0.010383078 -0.01713817 0.033794 0.00727608 0.0 0.0 0.0 0.0
-0.0015646113 0.0068193437 -0.002340297 0.0007741198 0.007481787 -0.0065671215 -0.0070220097 -0.0049436307
0.0 0.0 0.0 0.0 0.009452131 -0.045557298 0.025216525 -0.0037038375
0.00014633122 -0.0018013277 0.0016065404 0.0003097759 -0.004344518 -0.015679233 0.02287336 0.0036518644
00000000: 1e28 9cbb 5db2 0ebc 2f17 873c 4fc6 783b
00000010: 0000 0000 0000 0000 0000 0000 0000 0000
00000020: 83fd 7a3b 12f7 cbbc 73ee 833c e49a baba
00000030: 0000 0000 0000 0000 0000 0000 0000 0000
00000040: c91d 2abc 5965 8cbc 946b 0a3d 2f6c ee3b
00000050: 0000 0000 0000 0000 0000 0000 0000 0000
00000060: a513 cdba cd74 df3b ab5f 19bb 4dee 4a3a
00000070: c729 f53b 0231 d7bb e318 e6bb 2efe a1bb
00000080: 0000 0000 0000 0000 0000 0000 0000 0000
00000090: 1cdd 1a3c 4a9a 3abd e392 ce3c 15bc 72bb
000000a0: 7d70 1939 871a ecba 8d92 d23a 6b69 a239
000000b0: 755c 8ebb bc71 80bc ea60 bb3c 1e54 6f3b

exp_avg_sq f4 [12, 4]
6.8740354e-07 6.452683e-06 9.461687e-06 1.4890544e-06 0.0 0.0 0.0 0.0
2.302503e-06 2.2797289e-05 1.0339909e-05 4.0634072e-07 0.0 0.0 0.0 0.0
3.9207716e-06 1.8972773e-05 4.7113e-05 5.3834674e-06 0.0 0.0 0.0 0.0
7.95418e-07 1.2434285e-05 5.636623e-06 2.8587833e-06 2.9818139e-06 1.2515675e-05 8.7250455e-06 4.880007e-06
0.0 0.0 0.0 0.0 9.883181e-06 0.00011042444 4.2811313e-05 6.8112545e-06
6.5246105e-08 5.664207e-07 3.4229228e-07 6.9273334e-08 7.561207e-07 1.3688764e-05 1.8273842e-05 2.2453125e-06
00000000: 0386 3835 2084 d836 a3bd 1e37 85db c735
00000010: 0000 0000 0000 0000 0000 0000 0000 0000
00000020: b384 1a36 ce3c bf37 9279 2d37 0b27 da34
00000030: 0000 0000 0000 0000 0000 0000 0000 0000
00000040: 2c8f 8336 b827 9f37 339b 4538 a2a3 b436
00000050: 0000 0000 0000 0000 0000 0000 0000 0000
00000060: b584 5535 d99c 5037 3922 bd36 86d9 3f36
00000070: 2c1b 4836 6afa 5137 c961 1237 f1be a336
00000080: 0000 0000 0000 0000 0000 0000 0000 0000
00000090: f0cf 2537 ab93 e738 4c90 3338 3b8c e436
000000a0: 6d1d 8c33 220c 1835 4bc4 b734 6bc3 9433
000000b0: 38f8 4a35 cba8 6537 c74a 9937 2dae 1636

exp_avg f4 [12]
-0.023421172 0.0 -0.045343854 0.0 -0.049066458 0.0 0.011189205 -0.0035141592
0.0 -0.079445116 -0.0030225634 -0.03756453
00000000: c2dd bfbc 0000 0000 7aba 39bd 0000 0000
00000010: e9f9 48bd 0000 0000 ed52 373c cf4d 66bb
00000020: 0000 0000 1fb4 a2bd 3316 46bb 44dd 19bd

exp_avg_sq f4 [12]
4.0355237e-05 0.0 9.094546e-05 0.0 0.00017022442 0.0 6.476418e-05 7.4991774e-05
0.0 0.0004546961 2.5365007e-06 8.3304876e-05
00000000: 1b43 2938 0000 0000 f9b9 be38 0000 0000
00000010: 457e 3239 0000 0000 01d2 8738 e744 9d38
00000020: 0000 0000 4764 ee39 c038 2a36 f7b3 ae38

exp_avg f4 [6, 12]
-0.010916614 0.0 -0.012386421 0.0 -0.014031027 0.0 0.00021725573 0.010087003
0.0 0.008135232 0.010769373 -0.014207688 -0.12070181 0.0 -0.082981676 0.0
-0.19982447 0.0 -0.000115120085 -0.10589271 0.0 -0.06635808 -0.05016409 -0.085265145
-0.050485194 0.0 -0.045021243 0.0 -0.07490143 0.0 0.00016668376 -0.0028997883
0.0 0.0016996207 0.0110205645 -0.04977607 0.09993993 0.0 0.06800015 0.0
0.1670143 0.0 0.001086061 0.08934049 0.0 0.05603185 0.042978566 0.070544094
0.046040073 0.0 0.03759947 0.0 0.070976906 0.0 0.00024715034 0.01643532
0.0 0.008495858 0.0007941342 0.040616393 0.0039094402 0.0 0.0050466466 0.0
0.003884194 0.0 -3.2650492e-05 -0.004820374 0.0 -0.0038954038 -0.0049997508 0.005495033
00000000: 99db 32bc 0000 0000 6af0 4abc 0000 0000
00000010: 65e2 65bc 0000 0000 24cf 6339 f543 253c
00000020: 0000 0000 a349 053c 0672 303c 5dc7 68bc
00000030: 8332 f7bd 0000 0000 4cf2 a9bd 0000 0000
00000040: c99e 4cbe 0000 0000 a06c f1b8 47de d8bd
00000050: 0000 0000 bfe6 87bd dc78 4dbd 7e9f aebd
00000060: 90c9 4ebd 0000 0000 3268 38bd 0000 0000
00000070: ec65 99bd 0000 0000 d5c7 2e39 600a 3ebb
00000080: 0000 0000 cfc5 de3a 998f 343c fee1 4bbd
00000090: 4ead cc3d 0000 0000 aa43 8b3d 0000 0000
000000a0: cc05 2b3e 0000 0000 295a 8e3a 26f8 b63d
000000b0: 0000 0000 a781 653d 4b0a 303d 6c79 903d
000000c0: 8494 3c3d 0000 0000 e701 1a3d 0000 0000
000000d0: 575c 913d 0000 0000 f593 8139 5da3 863c
000000e0: 0000 0000 3632 0b3c 722d 503a 605d 263d
000000f0: c31a 803b 0000 0000 575e a53b 0000 0000
00000100: f68d 7e3b 0000 0000 33f2 08b8 3af4 9dbb
00000110: 0000 0000 084a 7fbb f3d4 a3bb ae0f b43b

exp_avg_sq f4 [6, 12]
3.3739765e-05 0.0 1.8693365e-05 0.0 0.00011153814 0.0 6.772852e-07 2.633591e-05
0.0 5.981663e-06 6.965122e-06 1.8352146e-05 0.0009802771 0.0 0.0003902964 0.0
0.0033653094 0.0 3.3729746e-06 0.0010074585 0.0 0.0002630284 0.0002121438 0.0003600545
0.00023609759 0.0 0.00013489414 0.0 0.00072479865 0.0 3.5654207e-06 0.00012730464
0.0 2.484778e-05 2.4094557e-05 0.0001379553 0.00075419334 0.0 0.00027668496 0.0
0.0027610727 0.0 7.140934e-06 0.00087087194 0.0 0.0002283746 0.00020191532 0.00025922598
0.00014090369 0.0 7.5569886e-05 0.0 0.0004341977 0.0 1.990446e-06 7.837404e-05
0.0 1.688853e-05 1.3009594e-05 7.7187105e-05 1.8141959e-06 0.0 1.661119e-06 0.0
3.8955395e-06 0.0 5.2431815e-08 2.5003742e-06 0.0 9.008091e-07 1.2497895e-06 1.6402807e-06
00000000: cc83 0d38 0000 0000 b2cf 9c37 0000 0000
00000010: 95e9 e938 0000 0000 afce 3535 f0eb dc37
00000020: 0000 0000 18b6 c836 f1b5 e936 eff2 9937
00000030: a47c 803a 0000 0000 b2a0 cc39 0000 0000
00000040: 868c 5c3b 0000 0000 435b 6236 b30c 843a
00000050: 0000 0000 13e7 8939 eb72 5e39 b2c5 bc39
00000060: f790 7739 0000 0000 5f72 0d39 0000 0000
00000070: 6a00 3e3a 0000 0000 7645 6f36 147d 0539
00000080: 0000 0000 3470 d037 ab1e ca37 18a8 1039
00000090: 0fb5 453a 0000 0000 0710 9139 0000 0000
000000a0: 1df3 343b 0000 0000 289c ef36 3a4b 643a
000000b0: 0000 0000 d777 6f39 3bb9 5339 b9e8 8739
000000c0: 8cbf 1339 0000 0000 467b 9e38 0000 0000
000000d0: 07a5 e339 0000 0000 9a93 0536 be5c a438
000000e0: 0000 0000 d8ab 8d37 c843 5a37 83df a138
000000f0: 4c7f f335 0000 0000 9df3 de35 0000 0000
00000100: 6eb6 8236 0000 0000 6431 6133 1acc 2736
00000110: 0000 0000 21cf 7135 71be a735 9e27 dc35

exp_avg f4 [6]
-0.007341949 -0.2054802 -0.06171828 0.17119189 0.06409719 0.0014224281
00000000: bb94 f0bb 6769 52be 4fcc 7cbd ed4c 2f3e
00000010: 6345 833d c470 ba3a

exp_avg_sq f4 [6]
0.00014410233 0.004252589 0.0008712694 0.0035233821 0.0005135398 5.278959e-06
00000000: 2d1a 1739 4d59 8b3b e665 643a 8be8 663b
00000010: 139f 063a ea21 b136
