lightning_logs/version_16/checkpoints/epoch=9-step=1190.ckpt (torch, 14835 bytes, 24 tensors)

encoder.layers.0.linear.weight f4 [12, 6]
000000 75 ab 0b bf d1 93 02 3f 84 1e 93 3c 7b 70 82 bc
       -0.545585 0.510068 0.017958887 -0.015922775
000010 24 ce 64 3e fd 63 e0 3e d8 fc 73 3e b0 fd 12 bd
       0.22344261 0.43826285 0.23826921 -0.035886467
000020 78 c4 95 3e a1 96 ca be 53 71 0b 3f 8f 34 7d 3e
       0.29251456 -0.39568046 0.54469794 0.24727081
000030 86 ca 3a be 5f ac 18 3e 6b fd f2 3e 27 f8 82 bf
       -0.18241319 0.14909504 0.47458968 -1.023198
000040 eb e6 82 3c 9d 21 43 3d 07 53 d3 3e 7e e0 97 3e
       0.01597925 0.047639478 0.41274282 0.2966346
000050 79 80 98 3e 83 01 4d 3e 4a 0f 4d 3e 1d 2a ee be
       0.29785517 0.20020108 0.20025364 -0.46516505
000060 5b 4c bd be 8c e9 aa be 0f 5d 3f bd b3 d9 ab bd
       -0.36972317 -0.33381307 -0.046719607 -0.08391132
000070 05 47 87 be ee e5 dc 3e 94 2d ef be 67 dc 90 3d
       -0.2642137 0.43144172 -0.4671446 0.070732884
000080 20 ff 73 be 32 80 f8 bd 99 1d 5a 3e 95 de b0 3e
       -0.23827791 -0.12133826 0.21300353 0.34544817
000090 13 20 6f 3e db f7 2d 3e d9 a2 42 3d f7 30 d8 be
       0.23352079 0.1698908 0.047518585 -0.42224857
0000a0 c4 38 10 3f 69 d6 d1 bd c3 a7 a6 3e 43 58 06 3f
       0.5633662 -0.102459736 0.32549867 0.52478427
0000b0 ce e8 cd 3e de df 2a 3e c4 70 fc 3e 3f 55 f6 3e
       0.40216678 0.16686961 0.49304783 0.48111913
0000c0 40 f6 0a bf fc 51 64 3d 5b 5b eb be 22 9d 1c be
       -0.54282 0.05574225 -0.45968136 -0.15294316
0000d0 db 42 46 bd 78 33 e2 bd 79 46 bc 3e 92 e8 a2 3e
       -0.048403602 -0.11044973 0.36772516 0.31818062
0000e0 8e 3f f4 3e 80 c2 ec 3d 9c 57 d2 3e 11 dc 96 bd
       0.47704738 0.115605354 0.41082466 -0.07366193
0000f0 6e 5d 79 3e 5c 62 91 3d e2 2c 4f 3e 91 81 87 3e
       0.24352047 0.07098839 0.20231965 0.2646604
000100 22 a9 ce be b5 37 8f be 18 b5 99 3e cf 4d 08 bf
       -0.40363413 -0.2797219 0.30020976 -0.53243726
000110 16 95 8b be 5f 27 b2 be 67 a2 19 3f ff f9 e6 bd
       -0.2726218 -0.34795663 0.6001343 -0.11278152

encoder.layers.0.linear.bias f4 [12]
000000 3e b6 a4 3e a6 44 65 3e 59 51 18 3f da 82 2b be
       0.3217029 0.22389469 0.59499127 -0.16749135
000010 fb aa 70 be c7 3d 2e be 52 2c d2 3e 90 44 11 3e
       -0.23502724 -0.17015754 0.4104944 0.14186311
000020 42 96 ca 3d bf a2 96 3d 9d 9a e3 bc 2d c0 fe 3e
       0.09891941 0.0735526 -0.027783686 0.49755993

encoder.layers.2.linear.weight f4 [4, 12]
000000 e6 57 a2 be ea 51 50 3d 70 bf 8d 3e 3f 43 6e bd
       -0.31707686 0.05085937 0.27685118 -0.0581696
000010 f3 8a 2d 3e 28 b3 fa bd c8 3c ce 3b 91 52 1f be
       0.16947536 -0.122412026 0.006293867 -0.1555884
000020 a0 63 c0 3d 05 33 84 3d ed 9a 07 3e 38 a1 1a 3f
       0.09394002 0.06455044 0.13242693 0.6040225
000030 14 62 86 bd ed 7b d7 3c 69 a1 cf 3e 31 18 8b 3e
       -0.06561676 0.02630421 0.40552834 0.27166894
000040 20 51 36 3d 1b 0d 77 be 05 59 8e bd b8 86 84 3e
       0.04451096 -0.24126093 -0.06950573 0.25884032
000050 85 b0 00 bf cb 37 91 3e 1c d5 eb 3e fc ed d3 be
       -0.5026935 0.2836288 0.46061027 -0.41392505
000060 93 2a 4a 3e af 06 d6 3d 15 73 21 3f 08 6a 91 be
       0.19742803 0.104504935 0.63066226 -0.28401208
000070 2d b7 ec bd 3f 9e c4 3e 9b a5 ad 3e 16 02 d0 3d
       -0.115583755 0.38401982 0.3391541 0.10156648
000080 d8 f8 d6 3b 18 ab 2b be 11 fd 32 be a9 1b 39 3d
       0.006560426 -0.16764486 -0.1747935 0.045192394
000090 d9 67 6a be 0e 93 05 bf c4 fd b8 3e a3 5d 09 be
       -0.22891177 -0.5217751 0.36131108 -0.13414626
0000a0 1f b2 8e be fc c6 e4 be 1d cd c6 be cc 88 87 be
       -0.2787027 -0.44683063 -0.38828364 -0.26471555
0000b0 8f d5 32 3f 1c ca df bd 18 fa 3b 3e b1 c7 20 bf
       0.69857115 -0.10927221 0.18357122 -0.62804705

encoder.layers.2.linear.bias f4 [4]
000000 57 b7 c5 be f9 8c 08 3e 8e cb 55 3e 59 e1 85 bd
       -0.3861644 0.13335027 0.20878431 -0.06537122

decoder.layers.0.linear.weight f4 [12, 4]
000000 5b 4e 10 bf 27 c2 f4 bc 2f 54 4a 3e ed 87 8b 3d
       -0.5636956 -0.029877735 0.19758676 0.06813035
000010 98 04 80 be fc 64 13 3f 04 1d f7 be ed 66 73 3d
       -0.25003505 0.57575965 -0.48264325 0.05942433
000020 bb 35 5d be b5 1c 87 be 19 4a ad be 01 e1 ea 3e
       -0.21602528 -0.2638909 -0.33845595 0.4587479
000030 67 1d 16 bf ee 3d 45 be 8a d8 01 3f c0 2c cb 3e
       -0.58638614 -0.19261906 0.5072104 0.3968258
000040 84 56 cb be 6b 14 47 3f 74 07 1b 3f 0c ee 73 3e
       -0.39714444 0.7776553 0.6055825 0.23821276
000050 ef d7 33 bf ec 90 5d 3e 8d e2 d1 3e 7a f8 f4 be
       -0.70251364 0.21637315 0.40993157 -0.47845823
000060 f1 8e 91 3e 18 bb 19 3f a6 14 c6 be f4 0f 38 3f
       0.28429368 0.6005111 -0.38687629 0.7189934
000070 a1 41 70 3e 83 90 83 3e 7d 78 5a 3e 7b c3 95 bb
       0.23462535 0.2569619 0.21335025 -0.004570422
000080 39 0f b7 3e ee c6 58 3f 05 2b 27 3f 73 17 4c bd
       0.357538 0.8467854 0.6530002 -0.04982705
000090 f3 6d 01 3f 8e 2a e5 bd 37 7c 0a 3f 7f dd d4 3e
       0.50558394 -0.11189757 0.54095787 0.41575238
0000a0 81 4c 6e be 40 fe c3 be 72 ae 1f 3f 1b ec e9 be
       -0.23271371 -0.38279915 0.6237556 -0.45687947
0000b0 6f 22 c1 bc 6f f9 cb 3c 07 37 b0 3e eb e9 06 3f
       -0.02357599 0.024899213 0.34416983 0.5270068

decoder.layers.0.linear.bias f4 [12]
000000 9e ea eb 3e 87 00 e3 3e 1e 26 b1 3e 69 a7 a7 3e
       0.46077436 0.4433634 0.34599394 0.3274491
000010 b6 2d f5 3d 56 b1 61 be f9 3d db bd 32 da 9f bb
       0.11971609 -0.22040305 -0.1070518 -0.004878306
000020 50 0f 9d be 02 de 7d 3e c1 47 0a be c4 8b b5 be
       -0.30675745 0.2479172 -0.13503934 -0.35458195

decoder.layers.2.linear.weight f4 [6, 12]
000000 4e b8 05 3e 97 87 2a be 90 68 6e be 22 c8 d5 be
       0.13058588 -0.16653286 -0.23282075 -0.41754252
000010 3c 60 89 3e 7c 40 6c be a1 78 5b 3d e4 9a ec 3d
       0.26831234 -0.23071474 0.053581838 0.115529805
000020 80 ee 1a 3c f4 87 68 be 05 95 34 3d 4b 02 a5 ba
       0.009456277 -0.22708112 0.04408743 -0.0012589184
000030 4b e1 9d 3e 63 f2 f6 3e 98 4e 53 be 57 61 e1 3e
       0.30835947 0.482318 -0.2063545 0.44019577
000040 a8 71 54 3e be 6d 5b 3e 41 93 82 3d 66 a4 3b be
       0.20746481 0.21428582 0.06375743 -0.18324432
000050 c9 8f 0e be 25 d9 49 be b8 9e 3c bc bc 9e ad 3c
       -0.13922037 -0.1971174 -0.011512451 0.021193855
000060 0d cc c0 be 65 ce e0 3d bc fc 20 3e 82 6e 45 be
       -0.37655678 0.10976867 0.1572141 -0.19280437
000070 d9 92 a7 3e 52 ab 5b bd 6f 49 9a 3d 2f d2 9e 3e
       0.32729223 -0.05363018 0.075335376 0.31019732
000080 67 6b 09 3f 9b ab e2 be c3 4d f2 be 11 c5 f9 3d
       0.5367951 -0.4427155 -0.47324952 0.121957906
000090 7b d0 70 3e 0b 76 8a 3e 0a 22 2d bc f9 5f 82 be
       0.23517029 0.27043185 -0.010567198 -0.25463846
0000a0 07 a2 d3 3d d2 7d 57 3e e0 3b d1 3d 5d 33 65 be
       0.10333639 0.2104409 0.102164984 -0.22382875
0000b0 73 96 c4 be 62 57 09 bf 3b b6 75 be 32 81 e1 3d
       -0.38396034 -0.5364896 -0.23995297 0.1101097
0000c0 4f 84 ca 3d db ac e9 3c c8 43 1f 3e f8 8f 7d be
       0.09888517 0.028524807 0.155532 -0.24761951
0000d0 66 d7 d8 be 9d 9f aa 3e 0f b2 31 bf 2e ad b1 bc
       -0.42351836 0.333249 -0.6941232 -0.021689024
0000e0 ce 8f 00 3e 46 3c d8 bd cb 83 e0 3e f5 bd 50 be
       0.12554857 -0.10558371 0.4385055 -0.20384963
0000f0 40 d7 0e be 9f a8 07 bf 2e 5d 0f 3e fe df 49 3e
       -0.13949299 -0.5299167 0.14000389 0.19714352
000100 2a b4 3b be 2c c5 e0 3e d6 77 70 bd d2 58 91 be
       -0.18330446 0.4390043 -0.058708034 -0.28388077
000110 c2 20 e3 3d 17 19 a0 be a3 c1 8b 3e b3 3a 05 3f
       0.110902324 -0.31269142 0.2729617 0.5204269

decoder.layers.2.linear.bias f4 [6]
000000 25 d3 37 3e 01 27 3a 3e c4 8a 81 bd 59 36 46 3e
       0.17951639 0.18178941 -0.063252956 0.1935667
000010 56 c3 92 3a 18 89 1d bd
       0.0011197131 -0.03846082

exp_avg f4 [12, 6]
000000 81 ba b8 37 99 ab ab b9 ae 52 15 b9 49 fe e2 39
       2.2021357e-05 -0.00032743512 -0.00014240548 0.00043295536
000010 ac e2 78 39 e1 ad a3 b9 f1 3b 0f b9 af bc ae b8
       0.00023735565 -0.00031219333 -0.00013659873 -8.3321116e-05
000020 a8 db 87 b9 db bd 4a b9 ea f3 21 39 cc a3 90 b9
       -0.00025912863 -0.00019334948 0.00015445022 -0.00027587858
000030 eb 19 0d 39 86 b9 c2 b9 dd 55 69 39 73 6e 83 39
       0.00013456463 -0.0003714079 0.00022252598 0.00025068558
000040 03 b9 f5 b9 bb cb d8 b9 60 bf 7d 37 a5 b3 2d 3a
       -0.00046867886 -0.00041350521 1.5124533e-05 0.00066261954
000050 83 00 96 37 bd ed ae 36 3b aa 24 39 f4 8e 6b 38
       1.7881632e-05 5.2132805e-06 0.00015703675 5.61615e-05
000060 7c 3c e6 b6 e4 15 9e 37 6b dc 86 b8 6c 76 6b b8
       -6.8615755e-06 1.8845261e-05 -6.430674e-05 -5.6138655e-05
000070 b5 e9 df 38 3a 10 92 38 dc 0e 76 b7 68 f1 1e b9
       0.00010677 6.964845e-05 -1.4666202e-05 -0.00015157985
000080 c9 1e f8 b8 38 53 62 3a e2 93 3f b8 a2 c5 a6 b9
       -0.00011831296 0.00086336164 -4.5675675e-05 -0.00031809235
000090 54 f9 c0 b7 67 e9 2c 39 b9 e3 95 b8 fc 40 eb 38
       -2.3004286e-05 0.00016490147 -7.14729e-05 0.000112177775
0000a0 c0 d0 9e b8 be de 22 ba e7 0d 97 37 4a 0b 53 b9
       -7.57291e-05 -0.0006213001 1.8007077e-05 -0.00020126734
0000b0 b7 55 a6 b9 f0 f5 59 39 38 c0 93 39 0f 60 e9 b9
       -0.0003172585 0.00020786352 0.0002818124 -0.00044512792
0000c0 99 68 f4 b8 94 cc 80 b7 99 ea c5 38 cb 92 32 3a
       -0.000116543095 -1.5354053e-05 9.437389e-05 0.0006812035
0000d0 4e 73 9b b9 4e 7e 1d 3a 3f d3 9f b8 df 7d 3f 38
       -0.00029649812 0.00060078956 -7.6210585e-05 4.5655175e-05
0000e0 a5 51 ca b8 39 47 d8 b8 72 88 d6 b8 7a f6 8f b9
       -9.647318e-05 -0.00010312949 -0.0001022973 -0.00027458725
0000f0 20 7e 22 b8 f1 3a 97 38 5d b7 37 b9 fc 04 65 39
       -3.8741273e-05 7.21122e-05 -0.00017520548 0.00021840999
000100 01 ed e9 38 5b ac 90 38 2a 0f fa 38 07 08 d7 38
       0.00011154451 6.898559e-05 0.000119237535 0.00010253494
000110 43 b4 f4 38 1c e9 70 b9 08 36 bb 39 07 9f 08 3a
       0.00011668403 -0.00022975024 0.00035707676 0.0005211685

exp_avg_sq f4 [12, 6]
000000 b9 66 63 35 a6 23 3b 38 61 da e3 37 78 f4 af 37
       8.471357e-07 4.4617474e-05 2.71622e-05 2.0975465e-05
000010 86 ea 9a 38 ba 6d 75 38 5a f1 3a 34 83 07 91 36
       7.3869756e-05 5.8514743e-05 1.7410403e-07 4.322211e-06
000020 c7 6f 63 36 07 ff e4 35 c6 21 ea 36 ff 44 9e 36
       3.38907e-06 1.7061546e-06 6.977675e-06 4.716799e-06
000030 89 01 6d 34 67 9f d9 36 e8 47 10 36 9b 92 87 36
       2.2072904e-07 6.485661e-06 2.1499527e-06 4.0403806e-06
000040 cb 30 4e 36 43 36 63 36 21 6f 3b 33 b1 52 3d 37
       3.0724793e-06 3.385722e-06 4.36404e-08 1.1284531e-05
000050 a0 14 5e 35 36 75 42 36 e6 ba 43 36 39 f4 68 36
       8.273146e-07 2.8976478e-06 2.9166054e-06 3.471285e-06
000060 48 b4 0b 30 91 7f 47 2f 51 fc 93 31 2a 21 be 31
       5.08241e-10 1.8144265e-10 4.306948e-09 5.533498e-09
000070 d0 0f 1c 32 92 d8 ae 32 88 da 07 35 9e 59 94 37
       9.0839904e-09 2.035475e-08 5.0609424e-07 1.7684706e-05
000080 8f 8e 96 37 e5 81 82 37 a8 61 65 38 d7 33 22 38
       1.7947777e-05 1.5557694e-05 5.4688804e-05 3.867209e-05
000090 b6 63 6f 35 cf 2c 5d 38 c4 67 e7 37 02 8b 9f 37
       8.9179537e-07 5.2732237e-05 2.7585666e-05 1.9019008e-05
0000a0 47 26 8b 38 25 9e 5d 38 db 3a b4 33 c4 87 3d 36
       6.635166e-05 5.283779e-05 8.392609e-08 2.824222e-06
0000b0 02 98 08 36 6c 16 9b 35 93 17 7c 36 ec d3 54 36
       2.035406e-06 1.1554926e-06 3.7564648e-06 3.1713816e-06
0000c0 03 5f 23 34 fa 4a 45 36 ab 55 5b 36 c5 ed b3 35
       1.5215123e-07 2.939893e-06 3.2683408e-06 1.3405739e-06
0000d0 42 0b 85 36 aa e2 79 36 69 62 23 34 56 58 bd 37
       3.9650195e-06 3.7235827e-06 1.521636e-07 2.257169e-05
0000e0 9c 44 e3 36 14 9a 25 37 be f2 f4 37 fe 15 cd 37
       6.7731144e-06 9.8706405e-06 2.9200102e-05 2.4448145e-05
0000f0 50 b0 a9 33 d9 8d aa 35 82 4d 20 35 4c 0d 93 34
       7.901747e-08 1.270727e-06 5.9717433e-07 2.7390558e-07
000100 4f 54 17 35 88 2e 40 35 dc 5b a0 34 2d 7e 88 36
       5.637457e-07 7.1593286e-07 2.986916e-07 4.0678046e-06
000110 02 81 71 36 f4 88 b4 36 51 97 27 37 02 b7 b1 36
       3.598689e-06 5.3803615e-06 9.989207e-06 5.296316e-06

exp_avg f4 [12]
000000 40 7f e7 38 b3 19 4e b9 21 e1 ed b9 a4 d0 e1 39
       0.000110386405 -0.00019655265 -0.00045371897 0.00043070794
000010 75 a1 df 37 e4 96 43 b9 ec 9d 2f 39 9d c9 97 b8
       2.6658856e-05 -0.0001865286 0.00016748131 -7.2377945e-05
000020 f2 20 74 b9 3e dc 4c b9 5e ff a1 b8 60 ef be b9
       -0.00023281926 -0.00019537003 -7.724644e-05 -0.00036417972

exp_avg_sq f4 [12]
000000 5d 94 1e 38 e8 cd 43 36 f4 19 a1 36 57 8a 04 37
       3.780831e-05 2.9177118e-06 4.8011952e-06 7.900023e-06
000010 05 86 56 31 de a4 9b 37 62 c6 2e 38 40 41 07 36
       3.121728e-09 1.8554212e-05 4.166959e-05 2.0154548e-06
000020 87 c6 24 36 e4 16 a6 37 6b 69 5e 35 b9 fb 25 36
       2.4553462e-06 1.9799401e-05 8.285485e-07 2.4733438e-06

exp_avg f4 [4, 12]
000000 dc b0 31 3a de 39 6e b8 4b 3a 65 3a 50 32 e6 b9
       0.0006778368 -5.6797515e-05 0.0008744343 -0.00043906504
000010 dc 4c 3b b7 c4 ed 88 38 0b d9 01 b9 85 d4 08 39
       -1.1163964e-05 6.529273e-05 -0.00012383253 0.0001304914
000020 ee 21 03 36 f2 55 a7 b9 ff d5 04 39 31 f7 cd b9
       1.954027e-06 -0.00031916756 0.00012668221 -0.0003928482
000030 b5 90 30 ba c8 84 c7 b9 59 12 1a ba eb fe ac 39
       -0.000673543 -0.00038055168 -0.0005877368 0.00032996325
000040 13 81 22 37 ce 05 71 b7 da 54 a2 b6 b8 0b 39 ba
       9.686005e-06 -1.4366071e-05 -4.8378542e-06 -0.0007058936
000050 30 12 48 37 79 1d 86 b9 ab a0 73 b7 2b c5 3f 39
       1.1925164e-05 -0.0002558043 -1.4521337e-05 0.0001828863
000060 9d b4 64 ba 25 98 05 ba 26 a8 21 ba 16 16 7a 38
       -0.0008724423 -0.00050962187 -0.00061667187 5.9625214e-05
000070 5a 0a 87 b7 79 83 15 ba 0c 86 f5 b9 fb b3 19 ba
       -1.6098074e-05 -0.000570349 -0.00046829914 -0.0005863306
000080 6e 7d 9e b9 4f 0b c3 38 3f 41 39 39 fa 1e a6 b9
       -0.0003022956 9.300431e-05 0.00017667281 -0.00031685067
000090 2e 4d f3 b9 00 af a3 b7 03 0d d1 b9 2f b3 af b9
       -0.00046406075 -1.9512605e-05 -0.0003987328 -0.00033512103
0000a0 62 17 48 b5 2f 3b 05 b9 81 3e 15 ba 02 e1 59 38
       -7.453983e-07 -0.00012705916 -0.0005693213 5.1946387e-05
0000b0 cd 8f 5a b9 45 16 40 b7 a0 e5 03 b9 88 9d 0a ba
       -0.0002084367 -1.1449277e-05 -0.00012578676 -0.0005287756

exp_avg_sq f4 [4, 12]
000000 b8 ce 83 39 33 52 bc 38 06 aa be 37 9c 7f 3f 37
       0.00025140285 8.9798494e-05 2.2728938e-05 1.14141985e-05
000010 2d d1 ae 32 f5 5b a9 37 92 44 11 39 bd 4c 01 39
       2.0351388e-08 2.018919e-05 0.00013853822 0.00012330986
000020 95 9e 70 35 26 ce 03 38 d8 17 28 36 5c 09 31 37
       8.9637734e-07 3.1424825e-05 2.504783e-06 1.0552201e-05
000030 90 58 d0 38 97 c2 16 38 21 6b 2e 37 bd 36 b2 36
       9.934709e-05 3.5944013e-05 1.0396151e-05 5.3111858e-06
000040 87 be 02 32 34 07 a2 36 fb c7 79 38 ef e8 83 38
       7.610317e-09 4.828815e-06 5.9552473e-05 6.289954e-05
000050 e3 1f 7b 35 a0 fd ba 37 b1 42 d4 35 51 ce 7c 36
       9.355119e-07 2.2291031e-05 1.5814641e-06 3.7671018e-06
000060 f5 1c f7 39 f3 ba 09 39 e8 1c 83 37 6f 63 8a 37
       0.00047133086 0.00013134982 1.5629877e-05 1.6497184e-05
000070 2a 8f 79 32 38 35 e6 37 5f 0e 8b 39 e5 7b 5f 39
       1.4526259e-08 2.7442919e-05 0.00026522853 0.00021313092
000080 56 6c a0 35 ac 6a 7e 38 ab b2 c1 35 ba 7b 49 36
       1.1952459e-06 6.0657665e-05 1.443162e-06 3.0023352e-06
000090 da 44 04 38 fd 2a 1c 37 05 81 d4 36 2f a4 d7 36
       3.1535375e-05 9.308334e-06 6.333112e-06 6.426613e-06
0000a0 8c b0 26 32 80 50 b2 36 64 0e 96 37 b8 08 7e 37
       9.702614e-09 5.314185e-06 1.7888095e-05 1.514161e-05
0000b0 88 ca c8 34 44 db 1f 37 8e 22 95 35 69 3e a8 36
       3.7400264e-07 9.52819e-06 1.1111422e-06 5.0140557e-06

exp_avg f4 [4]
000000 78 01 d1 b9 b2 e1 01 ba f6 34 37 37 9e 74 ea b9
       -0.0003986468 -0.00049545907 1.0919981e-05 -0.00044718845

exp_avg_sq f4 [4]
000000 d6 6f 42 39 ae d8 c3 38 ef a7 cd 39 3a 39 0d 38
       0.00018542944 9.338684e-05 0.00039225767 3.3670316e-05

exp_avg f4 [12, 4]
000000 6f 7f 1d b9 2f 8a 25 b8 fc ef cf b9 2f ed e6 39
       -0.0001502016 -3.946776e-05 -0.0003966092 0.00044045734
000010 7a 61 bd 38 0d 42 13 ba ff 7b ab b9 8a c8 34 ba
       9.030379e-05 -0.00056174473 -0.00032708046 -0.0006896338
000020 f5 3d 4d b8 20 08 8b 37 45 01 29 38 de 69 e6 b7
       -4.893351e-05 1.6573875e-05 4.0293922e-05 -2.7467435e-05
000030 44 ca 20 b8 9f a3 a9 38 c1 2a 49 ba 5c d8 7a b9
       -3.8335347e-05 8.089025e-05 -0.00076739123 -0.00023922458
000040 e6 d4 99 38 8e 8f 2a b9 9b 20 18 ba 88 59 1f 3a
       7.335264e-05 -0.00016265942 -0.00058031984 0.000607871
000050 5c fc 9e 39 50 98 5d 37 fc 52 22 b9 d4 70 be b9
       0.0003032413 1.32080895e-05 -0.00015480438 -0.00036323688
000060 b6 f0 e3 b7 c4 27 77 39 9f 69 76 39 c8 22 d9 b8
       -2.7172598e-05 0.0002357057 0.00023499735 -0.00010353845
000070 be 97 35 b9 bd a4 88 b8 d1 1a 35 b9 c7 ae 09 3a
       -0.00017318033 -6.51567e-05 -0.00017271495 0.0005252179
000080 0e fa 5f 39 a8 ae c9 b8 ab de a3 b9 da df bb 38
       0.0002136009 -9.616959e-05 -0.00031255683 8.9585505e-05
000090 d0 c8 b9 b6 bc 86 8f 39 15 ef cf b9 1a 20 15 3a
       -5.5368073e-06 0.0002737547 -0.00039660247 0.00056886824
0000a0 41 1f 77 b9 fa 92 2e 39 68 6e a2 39 07 3b 9f b9
       -0.00023567399 0.00016648686 0.00030981307 -0.00030370822
0000b0 77 f9 6f b8 98 0b 5b b9 c4 4a f4 b8 50 b6 26 b8
       -5.7214373e-05 -0.00020889787 -0.00011648753 -3.9747276e-05

exp_avg_sq f4 [12, 4]
000000 5a 3c ad 37 30 7f 0c 37 80 8f cc 37 06 ec 34 38
       2.065131e-05 8.374263e-06 2.4385517e-05 4.313516e-05
000010 a8 83 54 36 a0 31 a0 36 52 e8 fb 36 09 d6 74 36
       3.1667096e-06 4.7741487e-06 7.5074286e-06 3.6483418e-06
000020 62 33 a5 37 e8 0d 9f 36 f5 2d 8f 37 9b e2 59 38
       1.969346e-05 4.740188e-06 1.7068329e-05 5.1947874e-05
000030 1d c2 5e 38 b3 f3 a7 37 01 2e b5 38 a4 94 41 39
       5.3109707e-05 2.0021433e-05 8.6393215e-05 0.00018461287
000040 b8 eb 8c 35 19 34 4e 36 c2 68 af 36 bf e0 cf 36
       1.0499416e-06 3.0726717e-06 5.227602e-06 6.1952446e-06
000050 72 9c 48 37 fe cb 07 37 99 1e e0 37 b0 49 52 38
       1.1957354e-05 8.094123e-06 2.6717129e-05 5.013653e-05
000060 52 9a 95 32 45 25 31 35 00 30 ed 33 59 fc b9 32
       1.741606e-08 6.599187e-07 1.1044904e-07 2.1651589e-08
000070 62 bf 92 37 39 81 09 37 62 cf b6 37 2e 3e 6e 38
       1.7493676e-05 8.195923e-06 2.179266e-05 5.680153e-05
000080 e0 86 2d 35 4b 35 ff 35 30 1d cc 36 54 3a c4 36
       6.464379e-07 1.9014491e-06 6.0830716e-06 5.8480455e-06
000090 85 ae 20 34 18 24 01 36 ce 39 b1 36 1a 1a 97 36
       1.4964651e-07 1.9243507e-06 5.2817404e-06 4.5031893e-06
0000a0 dc 2b 4c 38 58 4f a5 37 16 4d e2 38 e3 49 3b 39
       4.8678237e-05 1.970648e-05 0.00010790878 0.00017861235
0000b0 78 5d 13 31 55 15 ef 32 4d ee 1b 33 61 c2 bd 31
       2.1444446e-09 2.7832963e-08 3.6305483e-08 5.5227223e-09

exp_avg f4 [12]
000000 aa 57 00 ba 1a 9a 4b ba a9 d9 88 38 cb e8 e4 39
       -0.00048958755 -0.00077667984 6.525528e-05 0.00043660993
000010 50 58 b4 b9 2c 68 07 3a eb 53 36 39 c8 f6 a2 b9
       -0.00034398073 0.0005165364 0.00017388134 -0.00031082914
000020 0c 46 e8 38 8d 3d 46 ba b6 e6 03 38 5c d6 85 b8
       0.00011075669 -0.00075622724 3.14477e-05 -6.381862e-05

exp_avg_sq f4 [12]
000000 a0 38 79 38 cd f5 1c 37 92 ca 1f 39 c1 38 bc 39
       5.9418962e-05 9.3555545e-06 0.00015238885 0.0003590044
000010 0b dd 03 37 46 3f 8b 38 93 19 51 34 00 35 1b 39
       7.859674e-06 6.639822e-05 1.9473946e-07 0.00014801696
000020 5a 4c 09 36 8d 32 00 36 04 ac 93 39 85 b6 58 32
       2.0459033e-06 1.910291e-06 0.00028166187 1.2614355e-08

exp_avg f4 [6, 12]
000000 79 24 b3 b9 7f 39 02 3a b5 b3 66 b6 ac be ca 37
       -0.00034168715 0.0004967674 -3.4377274e-06 2.4169065e-05
000010 7b 97 9f b9 e1 c0 14 b9 cf 33 cd b8 70 23 e2 b8
       -0.00030439705 -0.00014186233 -9.784812e-05 -0.000107831205
000020 e8 37 de b8 37 34 c2 b8 b3 b2 ca b7 9d f9 73 37
       -0.00010596198 -9.260367e-05 -2.416349e-05 1.4542046e-05
000030 50 24 a0 b9 bd 08 8e 38 84 41 d3 b5 3b 07 1d ba
       -0.00030544633 6.772715e-05 -1.5739793e-06 -0.0005990152
000040 c6 db 8d ba 5d 38 39 ba 45 e1 ed b8 1f 4b cb b9
       -0.0010822944 -0.0007065589 -0.000113430004 -0.00038775147
000050 34 6e 9d ba 9c 96 0d ba 28 95 54 ba e3 bd 98 38
       -0.0012010993 -0.00054011657 -0.0008109384 7.283294e-05
000060 2d 4b c4 b8 33 24 0b 3a 02 05 4e 36 07 84 bb b8
       -9.360011e-05 0.00053078233 3.0699307e-06 -8.941447e-05
000070 28 ef 13 ba c9 d4 49 ba bf f0 a2 b9 d4 dc fc b8
       -0.0005643242 -0.0007699249 -0.00031078418 -0.00012057429
000080 fa 8c 24 ba a9 ec 23 39 77 59 33 ba 40 4c 54 38
       -0.00062771107 0.00015633054 -0.00068416394 5.0615752e-05
000090 93 60 82 b9 df 6f e4 39 ac 1d cc b6 5c 5f 96 b7
       -0.00024867486 0.000435709 -6.083128e-06 -1.7925799e-05
0000a0 e1 6a 96 b7 57 9f 09 ba 7c af 50 b9 52 c3 d7 38
       -1.7931163e-05 -0.0005249879 -0.00019901799 0.0001028838
0000b0 dd cf 30 39 1b 34 c8 39 c3 d5 e1 b9 5d ce 32 38
       0.00016862103 0.00038185794 -0.0004307461 4.2630698e-05
0000c0 f6 13 90 b8 c6 14 40 ba 59 23 7e 36 cc be d5 38
       -6.870173e-05 -0.0007327314 3.7869524e-06 0.0001019217
0000d0 4e 94 35 b9 f0 56 0e ba 8d 99 6d 37 f7 59 82 b9
       -0.00017316753 -0.0005429825 1.4162052e-05 -0.0002486256
0000e0 77 8f 17 ba 16 ef 8a b9 cb cd 56 ba 5d 08 01 b7
       -0.0005781571 -0.00026499544 -0.00081941177 -7.690946e-06
0000f0 f1 33 1d 39 c2 55 a9 3a 63 73 0c 36 8a 5a 99 b9
       0.00014992036 0.0012919235 2.092879e-06 -0.0002924989
000100 a4 19 8e b8 96 28 b7 39 96 e0 86 b9 80 e6 b6 39
       -6.7758636e-05 0.0003493472 -0.000257258 0.0003488548
000110 5f d1 0c 3a 41 9e 86 39 01 96 65 3a e5 c9 e2 b8
       0.0005371775 0.0002567638 0.0008758009 -0.000108141256

exp_avg_sq f4 [6, 12]
000000 b1 08 88 36 3d 6f c4 35 f0 4f 8b 32 6c dc 89 36
       4.0541277e-06 1.4635513e-06 1.6218081e-08 4.1085787e-06
000010 b2 df 06 37 be a5 b6 37 b2 50 a7 33 5e e5 ba 35
       8.0391055e-06 2.177327e-05 7.791222e-08 1.3924835e-06
000020 b0 4f 11 37 d7 64 14 35 31 ff 10 38 43 d6 14 31
       8.661227e-06 5.528104e-07 3.456994e-05 2.1658628e-09
000030 ee bf 95 39 43 06 24 37 5c 66 ef 38 4a 19 a4 39
       0.00028562493 9.77662e-06 0.00011415474 0.0003129936
000040 8d d3 07 39 7e 55 ce 39 01 92 8c 34 44 3b 45 38
       0.00012953412 0.00039355078 2.6183264e-07 4.7023655e-05
000050 dd f9 8e 37 f0 34 2b 35 2b dd 0d 3a 4a 93 30 32
       1.704407e-05 6.37795e-07 0.000541168 1.0278038e-08
000060 d3 f0 64 38 d2 c3 2d 37 de d5 7e 37 ec b1 08 39
       5.458372e-05 1.03571965e-05 1.5189375e-05 0.00013036252
000070 5d 0c 4f 38 15 f1 a0 39 39 c5 a1 34 01 7f 6f 37
       4.936416e-05 0.00030697198 3.0132085e-07 1.42750805e-05
000080 9a 83 01 38 c3 d6 c8 34 84 25 bb 39 71 cd 1f 30
       3.087856e-05 3.7409163e-07 0.0003569537 5.8135813e-10
000090 a5 6c 92 38 c8 f6 9c 36 46 92 a0 37 79 45 db 38
       6.982059e-05 4.6778914e-06 1.91416e-05 0.00010455674
0000a0 af e0 92 37 72 da 71 39 b9 bd 61 34 fc ab 86 37
       1.7509183e-05 0.00023064928 2.1023779e-07 1.6054131e-05
0000b0 76 ae ac 37 eb 6e 55 34 87 b5 90 39 af 72 6d 30
       2.0585238e-05 1.9877523e-07 0.0002760107 8.6383073e-10
0000c0 da 55 29 38 5b 13 1e 37 91 f8 a2 36 35 ad 28 38
       4.0372695e-05 9.42204e-06 4.856913e-06 4.0215633e-05
0000d0 3e c6 c3 37 05 2e ca 38 0e ea 12 35 f5 4d f8 36
       2.3338125e-05 9.6406824e-05 5.472983e-07 7.4000513e-06
0000e0 16 18 71 37 c6 90 9b 34 00 f9 ed 38 5f 80 8a 2f
       1.4370327e-05 2.8976336e-07 0.000113474205 2.5193267e-10
0000f0 ed 1c 14 38 aa 70 04 37 0e 76 1a 37 8c 06 10 38
       3.531289e-05 7.894045e-06 9.206602e-06 3.4338373e-05
000100 f0 04 ee 37 eb 80 b6 38 5b 9f 8b 35 80 68 13 37
       2.837411e-05 8.702449e-05 1.0402686e-06 8.786214e-06
000110 e6 07 bb 37 56 d5 9b 35 dd 46 f5 38 8a 87 0f 32
       2.2295815e-05 1.1610489e-06 0.0001169571 8.3545135e-09

exp_avg f4 [6]
000000 63 c8 67 ba 57 6d b9 b8 fe 6d ac 39 dc 8a 02 b9
       -0.00088418106 -8.8418536e-05 0.00032888347 -0.00012449495
000010 d5 32 cb b9 d2 26 96 3a
       -0.0003875705 0.0011455661

exp_avg_sq f4 [6]
000000 30 99 2f 37 b3 3e 3e 3b c9 87 c6 39 54 d2 21 3a
       1.046648e-05 0.002902907 0.0003786667 0.0006173004
000010 2c 3d c7 39 fc 64 b8 39
       0.00038001814 0.00035170454
