lightning_logs/version_7/checkpoints/epoch=9-step=100.ckpt (torch, 14835 bytes, 24 tensors)

encoder.layers.0.linear.weight f4 [12, 6]
0.104045 -0.3980791 0.09117253 -0.002221032 -0.2023236 -0.1405537 -0.36492532 -0.24667597
0.14967011 0.31947002 0.3336365 0.31628838 -0.09649244 0.016009195 -0.053223453 0.08211147
0.40638554 -0.1910451 0.10730912 0.43626198 -0.15432835 -0.46338066 -0.03882218 -0.2533734
-0.1950526 -0.29640627 0.27159718 -0.4501749 0.36177936 -0.29080924 -0.41787526 0.0399836
0.00027345365 0.24006574 0.14500347 -0.28582034 -0.16596867 -0.18452992 -0.31636468 -0.42067683
0.3334164 0.02985932 -0.23042892 -0.3424378 -0.2982204 0.16172087 0.31881386 -0.082622044
0.27800572 0.21607432 0.06974949 0.059462238 -0.2992372 -0.36005518 -0.12558657 -0.15288524
0.16521588 -0.09261651 0.014123886 0.094798215 -0.46963942 -0.16707596 -0.48780495 -0.1511771
0.18259332 0.14697483 -0.3387438 -0.23287949 0.28077832 0.3650447 -0.25912368 0.15359852
00000000: 8c15 d53d 06d1 cbbe aab8 ba3d bc8e 11bb
00000010: eb2d 4fbe 4fed 0fbe 7ed7 babe a098 7cbe
00000020: 1f43 193e 9391 a33e 67d2 aa3e 8df0 a13e
00000030: d49d c5bd b725 833c d600 5abd 0f2a a83d
00000040: c411 d03e 54a1 43be e2c4 db3d bb5d df3e
00000050: 4008 1ebe 3b40 edbe 0204 1fbd 29ba 81be
00000060: debb 47be 90c2 97be c90e 8b3e 537d e6be
00000070: 253b b93e f3e4 94be bff3 d5be d8c5 233d
00000080: 545e 8f39 cbd3 753e ca7b 143e 0b57 92be
00000090: b1f3 29be 69f5 3cbe 8dfa a1be f462 d7be
000000a0: 8eb5 aa3e 889b f43c 8ff5 6bbe 0254 afbe
000000b0: 58b0 98be 289a 253e 923b a33e bf35 a9bd
000000c0: c456 8e3e 9642 5d3e d2d8 8e3d ad8e 733d
000000d0: 9e35 99be 2759 b8be c499 00be f38d 1cbe
000000e0: 5a2e 293e baad bdbd df67 673c 9125 c23d
000000f0: 9474 f0be f615 2bbe 92c1 f9be 2bce 1abe
00000100: bef9 3a3e 9280 163e d46f adbe f677 6ebe
00000110: 2dc2 8f3e 24e7 ba3e dcab 84be ee48 1d3e

encoder.layers.0.linear.bias f4 [12]
-0.010797039 -0.14012653 -0.32708755 0.4390421 0.21292453 0.29099068 0.42737794 -0.018660104
-0.021168066 -0.054522485 -0.106146045 -0.28393394
00000000: 10e6 30bc 547d 0fbe 0578 a7be 20ca e03e
00000010: e308 5a3e bbfc 943e 48d1 da3e 13dd 98bc
00000020: a768 adbc f852 5fbd 1963 d9bd ca5f 91be

encoder.layers.2.linear.weight f4 [4, 12]
0.014139875 0.018198667 -0.10772435 -0.159559 -0.020368177 -0.0628655 0.057736784 -0.22717881
-0.050442856 -0.21360065 -0.19209345 -0.16784868 -0.060234293 -0.083331086 0.26654723 0.3122657
-0.100200765 -0.14685112 0.29162043 0.13736662 0.1700131 0.19050002 0.17018351 -0.11948805
0.043164384 0.030949615 0.09651415 -0.1924316 -0.16125603 -0.2872177 -0.33500555 -0.059076652
0.1111058 -0.064688414 -0.2787195 0.08787153 0.09890505 0.1897715 0.020401815 -0.26307574
-0.1673933 -0.21533278 -0.0896828 0.022038732 0.008784425 0.04637562 -0.027294856 -0.23800506
00000000: efaa 673c 5f15 953c 969e dcbd 6f63 23be
00000010: 2adb a6bc a1bf 80bd 687d 6c3d 90a1 68be
00000020: 2b9d 4ebd 21ba 5abe 25b4 44be 86e0 2bbe
00000030: 3cb8 76bd 7da9 aabd e178 883e 4ae1 9f3e
00000040: 0f36 cdbd 2460 16be 464f 953e d6a9 0c3e
00000050: ea17 2e3e 7012 433e 9644 2e3e 27b6 f4bd
00000060: 23cd 303d 0c8a fd3c 36a9 c53d ca0c 45be
00000070: 4d20 25be 330e 93be d985 abbe 5cfa 71bd
00000080: 708b e33d 5c7b 84bd 53b4 8ebe fdf5 b33d
00000090: bb8e ca3d 7653 423e b521 a73c ddb1 86be
000000a0: 2669 2bbe 3280 5cbe 9eab b7bd 928a b43c
000000b0: 8dec 0f3c 5df4 3d3d 7699 dfbc 99b7 73be

encoder.layers.2.linear.bias f4 [4]
0.359587 -0.1662904 -0.3434589 -0.33879495
00000000: ca1b b83e 0848 2abe d8d9 afbe 8876 adbe

decoder.layers.0.linear.weight f4 [12, 4]
-0.26879865 0.3461789 0.31303582 -0.17209366 -0.25063065 -0.40179685 -0.39584532 -0.01296471
-0.09663272 -0.3629319 0.18272269 0.15754986 -0.042603515 -0.3151236 -0.23490027 -0.34691733
-0.4108479 -0.3203721 0.23333971 0.01654884 0.33714452 -0.23885024 -0.21151792 0.15555157
-0.3674218 -0.16485459 -0.42910635 0.22597378 -0.20731176 0.14569056 -0.030994229 -0.1557167
-0.22007424 0.5295074 -0.590071 -0.2517992 0.46980834 -0.45632592 0.20836253 -0.4854604
0.4229607 0.15758169 -0.225321 0.4545405 0.57593983 0.41694617 -0.42326015 -0.54882383
00000000: fa9f 89be 5c3e b13e 3b46 a03e 5239 30be
00000010: a952 80be 51b8 cdbe 3dac cabe ef69 54bc
00000020: 60e7 c5bd 36d2 b9be a81b 3b3e c054 213e
00000030: 0681 2ebd e157 a1be b289 70be 269f b1be
00000040: a85a d2be d007 a4be 9bf0 6e3e 6f91 873c
00000050: 359e ac3e 2895 74be 2798 58be e948 1f3e
00000060: b61e bcbe a4cf 28be d4b3 dbbe ac65 673e
00000070: 8949 54be e82f 153e 9ce7 fdbc 3374 1fbe
00000080: 245b 61be cc8d 073f e50e 17bf d3eb 80be
00000090: b88a f03e 8da3 e9be fd5c 553e 448e f8be
000000a0: 4e8e d83e 185d 213e 8cba 66be 88b9 e83e
000000b0: cb70 133f f879 d53e 8eb5 d8be b87f 0cbf

decoder.layers.0.linear.bias f4 [12]
-0.05055827 -0.2855418 -0.36414367 -0.29330584 0.106759086 0.3758923 -0.40614337 -0.13368277
-0.19420645 0.42654803 -0.46668363 0.22317061
00000000: 3016 4fbd 8932 92be 0a71 babe 2f2c 96be
00000010: 82a4 da3d f574 c03e 06f2 cfbe 23e4 08be
00000020: 0ede 46be 8164 da3e 28f1 eebe d686 643e

decoder.layers.2.linear.weight f4 [6, 12]
0.057939216 0.22272089 0.043817077 -0.3070443 0.040546894 0.24024844 0.05362495 0.22128005
-0.23832045 0.05811486 -0.27786532 0.109236114 -0.23869435 0.15863262 0.24535288 -0.1808997
0.05033215 -0.045513254 0.17724025 -0.14489506 0.38625512 0.14887068 -0.15764163 0.33426157
0.15100978 0.12712243 0.25989687 -0.232461 -0.08711564 0.16984545 0.12962036 0.029460948
-0.19718294 0.1268848 -0.21813428 -0.0668538 0.25136656 0.18516639 0.2640785 0.11288725
-0.13279673 0.007397567 -0.08369224 -0.31482917 -0.32980764 0.20514576 -0.03907885 -0.31653434
0.11252152 0.12776907 0.24721415 0.27331373 -0.08437512 -0.11881445 0.053207424 0.10985724
-0.02928822 -0.32419103 -0.18182662 0.19543692 -0.17417929 -0.1863297 -0.006951067 0.23513643
-0.12708554 0.047540016 0.25970468 -0.051815227 0.021658199 0.24358316 0.16361342 -0.004393588
00000000: ac51 6d3d f210 643e 8979 333d e934 9dbe
00000010: 8014 263d b003 763e d6a5 5b3d 3d97 623e
00000020: 470a 74be d909 6e3d 5d44 8ebe 2fb7 df3d
00000030: 4b6c 74be 9770 223e c93d 7b3e c53d 39be
00000040: 1629 4e3d 1b6c 3abd 787e 353e 5f5f 14be
00000050: 3bc3 c53e 8e71 183e cf6c 21be 5524 ab3e
00000060: 4fa2 1a3e 622c 023e 3411 853e 420a 6ebe
00000070: af69 b2bd f7eb 2d3e 33bb 043e 1658 f13c
00000080: 53ea 49be 17ee 013e 985e 5fbe a5ea 88bd
00000090: 1eb3 803e 429c 3d3e 4c35 873e 6e31 e73d
000000a0: defb 07be 4a67 f23b d666 abbd 4a31 a1be
000000b0: 8cdc a8be bb11 523e 2511 20bd ca10 a2be
000000c0: af71 e63d e5d5 023e b525 7d3e c7ef 8b3e
000000d0: ddcc acbd fe54 f3bd 07f0 593d d5fc e03d
000000e0: d9ed efbc 5efc a5be c230 3abe 9e20 483e
000000f0: 0e5c 32be 36cd 3ebe c7c5 e3bb 9bc7 703e
00000100: b622 02be 52b9 423d 03f8 843e 343c 54bd
00000110: 896c b13c dd6d 793e 478a 273e 16f8 8fbb

decoder.layers.2.linear.bias f4 [6]
-0.11566884 0.04750534 0.12311728 -0.21225442 -0.122265935 -0.22354431
00000000: c9e3 ecbd f694 423d ea24 fc3d 3959 59be
00000010: 9066 fabd cde8 64be

exp_avg f4 [12, 6]
-0.00034235368 -0.00020975669 -0.0008490721 0.00086113455 0.0005922698 6.5185566e-05 -9.4306006e-07 -2.6908836e-08
-6.9374564e-06 4.6975315e-06 8.4515195e-06 -2.421911e-05 1.0531549e-05 -3.2410036e-08 8.885341e-06 1.828883e-05
-5.5334617e-06 8.293335e-05 0.004878135 -0.014083518 0.0109766135 0.0015246124 -0.0051529054 0.00074949005
0.0008837449 -0.0026749172 0.002168756 -9.874687e-05 -0.0013942495 -0.00044468834 0.00068814744 -0.009253574
0.0023647684 0.0030478248 -0.0011599902 -0.0002992502 0.002086123 -0.017240515 0.005380096 0.003214242
-0.002567591 0.00025185206 0.0001477047 -6.1012175e-05 0.00031337768 0.0005870512 -0.00022176495 6.7102876e-05
0.0006486256 0.0019406044 0.0011479121 -0.0003920453 -0.00036981644 0.00024240674 0.0017899818 0.00097462884
0.0035431318 -0.0021902733 -0.0018012256 0.000821857 0.0014535948 -0.004404564 0.0027816922 0.004291084
-0.0009336823 0.0002038031 -2.1736969e-05 -8.925195e-07 -5.74523e-05 3.0391502e-05 3.715955e-05 -9.072695e-05
00000000: ef7d b3b9 22f2 5bb9 4494 5eba c3bd 613a
00000010: 8e42 1b3a 3cb4 8838 9826 7db5 2825 e7b2
00000020: 4cc8 e8b6 7d9f 9d36 00cb 0d37 252a cbb7
00000030: a9b0 3037 3633 0bb3 4012 1537 f76a 9937
00000040: 13ac b9b6 81ec ad38 c3d8 9f3b 8ebe 66bc
00000050: 41d7 333c 81d5 c73a b4d9 a8bb 6d79 443a
00000060: 1eab 673a aa4d 2fbb b021 0e3b 5216 cfb8
00000070: 40bf b6ba 0f25 e9b9 cb64 343a 4d9c 17bc
00000080: 3bfa 1a3b 04be 473b d00a 98ba afe4 9cb9
00000090: 56b7 083b fb3b 8dbc 844b b03b 08a6 523b
000000a0: 0745 28bb 030b 8439 2ee1 1a39 53e7 7fb8
000000b0: d74c a439 57e4 193a 9389 68b9 95b9 8c38
000000c0: 8708 2a3a e15b fe3a 8a75 963a 6e8b cdb9
000000d0: ece3 c1b9 902e 7e39 d39d ea3a 3c7e 7f3a
000000e0: e333 683b b08a 0fbb 1a17 ecba e471 573a
000000f0: 8c86 be3a 2954 90bb 0d4d 363b 399c 8c3b
00000100: 5cc2 74ba fab3 5539 c957 b6b7 7995 6fb5
00000110: f0f8 70b8 41f1 fe37 c3db 1b38 a944 beb8

exp_avg_sq f4 [12, 6]
4.270591e-09 1.2882663e-09 2.1649267e-08 1.9706809e-08 9.528049e-09 3.0119645e-09 7.817914e-11 3.6563207e-14
3.9517586e-10 9.569164e-11 1.04756585e-10 8.5994467e-10 3.4668823e-10 3.283322e-15 2.4677596e-10 1.0455056e-09
9.570801e-11 2.1498728e-08 2.4169456e-06 5.56905e-05 9.92701e-06 2.4499754e-05 1.3594674e-06 2.7133513e-07
6.203512e-08 6.07221e-07 2.3009385e-07 2.732528e-07 7.492986e-08 3.2548535e-08 4.6769028e-08 4.6138675e-06
2.4940314e-07 7.237983e-07 4.162065e-08 2.3800846e-08 3.4734018e-07 5.7090503e-05 1.705778e-06 2.3262073e-05
2.556048e-07 1.0791988e-07 1.3305127e-09 1.1053815e-10 4.388854e-09 1.5218099e-08 2.3107507e-09 2.2400128e-08
3.9956393e-07 2.8253432e-06 1.4751014e-06 5.542306e-07 2.1441173e-07 3.7635928e-08 4.2867742e-07 3.3972114e-07
1.4691493e-06 2.6064586e-07 3.479012e-07 1.1327867e-07 2.6663977e-07 1.05827e-06 7.5462975e-07 2.1093151e-06
6.741443e-08 1.0210482e-08 3.3983795e-11 5.997964e-14 1.8408682e-10 4.8474485e-11 7.2828174e-11 4.857485e-10
00000000: 84bc 9231 d70e b130 3ef7 b932 bb47 a932
00000010: cdb0 2332 0afb 4e31 f1ea ab2e 82aa 2429
00000020: 0f40 d92f 9b6d d22e b75c e62e 3a61 6c30
00000030: 0898 be2f 9a96 6c27 a1aa 872f 75b1 8f30
00000040: d276 d22e 34ac b832 cf32 2236 3895 6938
00000050: 2f8c 2637 d284 cd37 f276 b635 04ac 9134
00000060: 2b38 8533 e9ff 2235 b70f 7734 94b3 9234
00000070: 20e9 a033 7ecb 0b33 17df 4833 d2d0 9a36
00000080: b5e5 8534 0a4b 4235 63c2 3233 9d72 cc32
00000090: 127a ba34 7674 6f38 16f2 e435 ec22 c337
000000a0: 0e3a 8934 95c1 e733 41dd b630 7213 f32e
000000b0: c5cc 9631 f4b8 8232 28cb 1e31 676a c032
000000c0: a683 d634 079b 3d36 19fc c535 70c6 1435
000000d0: 0c39 6634 24a5 2133 fa24 e634 eb62 b634
000000e0: 962f c535 e5ee 8b34 2dc7 ba34 9c43 f333
000000f0: b126 8f34 e109 8e35 c391 4a35 c28d 0d36
00000100: 7ac5 9033 2d6a 2f32 5a76 152e e90f 8729
00000110: d567 4a2f 6b31 552e 9e26 a02e 8385 0530

exp_avg f4 [12]
-0.0008464152 -1.2646699e-05 -2.5120398e-05 -0.008298072 -0.0010847436 -0.0074769254 -0.011620634 -0.0005388562
0.0015064578 0.0025301108 -0.005504158 -4.9353064e-05
00000000: f6e1 5dba 292d 54b7 a5b9 d2b7 a3f4 07bc
00000010: f52d 8eba ff00 f5bb 7964 3ebc 0742 0dba
00000020: 5674 c53a 37d0 253b 395c b4bb 7300 4fb8

exp_avg_sq f4 [12]
1.9063682e-08 2.055866e-10 1.9724566e-09 5.9081554e-05 5.3129503e-07 3.4045383e-06 5.975597e-05 1.3700032e-08
2.2987606e-06 4.5988423e-07 2.6190776e-06 1.3765937e-10
00000000: 7bc1 a332 7c0b 622f d38b 0731 56ce 7738
00000010: 519e 0e35 8679 6436 7ca2 7a38 615d 6b32
00000020: 6844 1a36 02e6 f634 69c3 2f36 ab5b 172f

exp_avg f4 [4, 12]
-0.00045415855 -2.3298457e-05 5.5828204e-05 -0.020989122 -0.0001129808 -0.0020145758 0.005434103 0.00025849268
-0.010958996 -0.0010045001 0.003753654 -5.1503943e-05 0.0005366424 4.2306754e-05 -4.17008e-06 -0.015369942
0.00085738447 -0.0038974537 -0.0076576374 9.698856e-06 -0.001076336 0.00092515757 -0.00097554066 7.399686e-05
-0.0007363758 -2.0929374e-05 -1.657743e-05 0.01948786 -0.001963445 0.0050130943 0.009782615 -3.5884055e-05
0.0010871651 -0.00092212384 0.0016508199 -3.2505563e-05 -0.0006589344 1.0324896e-05 -6.562363e-05 0.0257756
-0.0029625099 0.006176 0.0074353116 -0.00011105019 0.0045382935 -0.0005862691 0.0005691221 1.4134646e-05
00000000: 211c eeb9 0e71 c3b7 1429 6a38 61f1 abbc
00000010: 1bf0 ecb8 f906 04bb 8f10 b23b 4d86 8739
00000020: 5c8d 33bc 6ea9 83ba ddff 753b f005 58b8
00000030: 76ad 0c3a 8872 3138 b7ec 8bb6 36d2 7bbc
00000040: 19c2 603a 6c6c 7fbb ebec fabb 45b8 2237
00000050: d813 8dba 4686 723a 6dbb 7fba c32e 9b38
00000060: 5809 41ba 7d91 afb7 c30f 8bb7 01a5 9f3c
00000070: 24ad 00bb e244 a43b 4347 203c 3682 16b8
00000080: 357f 8e3a afba 71ba 5360 d83a 9556 08b8
00000090: 57bc 2cba 1739 2d37 6b9f 89b8 5a27 d33c
000000a0: ab26 42bb 0b60 ca3b eaa3 f33b 9ee3 e8b8
000000b0: f7b5 943b daaf 19ba 2331 153a d823 6d37

exp_avg_sq f4 [4, 12]
2.0093973e-08 6.0376737e-10 3.4762224e-09 3.30233e-05 4.674778e-07 2.4381097e-07 5.741194e-06 4.115599e-09
1.6583708e-05 7.790183e-07 5.948058e-07 1.437495e-10 9.082938e-09 9.1276525e-10 9.004235e-10 0.00022544217
5.6272133e-06 1.5899458e-06 5.0541013e-05 4.178002e-10 9.347113e-06 1.1364803e-07 4.0389187e-07 2.8187275e-10
1.8262327e-08 1.3619836e-10 1.2628637e-10 0.00023067153 3.376347e-06 1.496884e-06 3.2995762e-05 1.6145114e-10
1.7795383e-05 3.8641863e-07 3.6062806e-07 5.3309468e-11 1.4137454e-08 2.2293514e-10 3.9843076e-09 0.0001718198
9.874306e-07 1.76479e-06 1.5018192e-05 2.725673e-09 1.4959237e-05 1.6387425e-07 1.0590135e-07 1.7282039e-11
00000000: 1d9b ac32 5af6 2530 5ae2 6e31 8082 0a38
00000010: a9f9 fa34 20e5 8234 7ba4 c036 3169 8d31
00000020: 3e1d 8b37 bb1d 5135 beaa 1f35 e30d 1e2f
00000030: 2f0b 1c32 25e6 7a30 ac81 7730 ac64 6c39
00000040: 65d1 bc36 1f66 d535 00fc 5338 27b0 e52f
00000050: 8bd1 1c37 aa0e f433 7ad6 d834 10f6 9a2f
00000060: 48df 9c32 6ec0 152f 74da 0a2f 6be0 7139
00000070: 3395 6236 8be8 c835 ee64 0a38 7584 312f
00000080: 4b47 9537 f974 cf34 589c c134 2075 6a2e
00000090: 2ee1 7232 aa1e 752f 57e6 8831 872a 3439
000000a0: db87 8435 b9dd ec35 a5f6 7b37 8c4e 3b31
000000b0: 6ff9 7a37 69f5 2f34 e26b e333 b103 982d

exp_avg f4 [4]
-0.020231595 -0.011305643 0.015206249 0.021842565
00000000: bbbc a5bc 4e3b 39bc a223 793c 2eef b23c

exp_avg_sq f4 [4]
3.092363e-05 0.00022466929 0.00021838686 0.00016169381
00000000: ffb3 0138 3495 6b39 c7fe 6439 5a8c 2939

exp_avg f4 [12, 4]
-2.1345336e-06 5.0620874e-06 -1.0895026e-05 -1.3732375e-05 6.685727e-05 0.0002755799 -0.0006649847 -0.00042862055
0.0 0.0 0.0 0.0 0.00086882885 -0.0019567062 0.0034169029 -0.0027930369
2.633249e-07 -1.6713345e-07 6.5736697e-07 8.092206e-07 1.1665142e-05 0.0029589636 -0.0064438926 -0.0027675238
0.0 0.0 0.0 0.0 0.0022418872 0.0051278854 -0.01290131 -0.013013734
-0.0026993116 -0.0076499833 0.017903715 0.01681226 -0.0027314622 -0.0023183206 0.007322928 0.011917183
0.0 0.0 0.0 0.0 -0.002997856 -0.0057165725 0.014001233 0.015034313
00000000: 023f 0fb6 00db a936 c8c9 36b7 1a64 66b7
00000010: b935 8c38 b57b 9039 5e52 2eba 7ab8 e0b9
00000020: 0000 0000 0000 0000 0000 0000 0000 0000
00000030: 1ec2 633a 153c 00bb 1eee 5f3b 620b 37bb
00000040: 195f 8d34 4b75 33b4 ea75 3035 3739 5935
00000050: 67b5 4337 2ceb 413b 4a27 d3bb 585f 35bb
00000060: 0000 0000 0000 0000 0000 0000 0000 0000
00000070: a0ec 123b d207 a83b 0460 53bc 8e37 55bc
00000080: efe6 30bb b6ac fabb d0aa 923c ddb9 893c
00000090: 5502 33bb f7ee 17bb 2cf5 ef3b 4a40 433c
000000a0: 0000 0000 0000 0000 0000 0000 0000 0000
000000b0: ad77 44bb 1652 bbbb 6d65 653c 7b52 763c

exp_avg_sq f4 [12, 4]
1.8889591e-07 9.9186565e-08 1.1387451e-06 1.8953101e-06 3.4282701e-09 9.766861e-09 1.3551016e-07 6.6340476e-08
0.0 0.0 0.0 0.0 1.6133335e-07 3.6609953e-07 3.3737813e-06 4.045202e-06
8.187368e-09 1.9599804e-09 5.819335e-08 9.55169e-08 6.197879e-07 1.4786164e-06 2.6160196e-05 1.923301e-05
0.0 0.0 0.0 0.0 2.9833137e-07 1.8782522e-06 2.0716856e-05 2.3801178e-05
1.1392287e-06 1.3314285e-05 0.00012868666 0.000115812945 5.143664e-07 4.4398033e-07 5.684153e-06 8.486777e-06
0.0 0.0 0.0 0.0 7.952163e-07 8.722044e-06 0.000100466736 0.00010087762
00000000: 50d3 4a34 6400 d533 fcd6 9835 5c62 fe35
00000010: c496 6b31 1ccb 2732 c080 1134 1077 8e33
00000020: 0000 0000 0000 0000 0000 0000 0000 0000
00000030: f93a 2d34 568c c434 1f69 6236 05bc 8736
00000040: 6da8 0c32 57b0 0631 44f0 7933 f91e cd33
00000050: 805f 2635 df74 c635 9872 db37 9356 a137
00000060: 0000 0000 0000 0000 0000 0000 0000 0000
00000070: 5a2a a034 4118 fc35 1cc9 ad37 a4a8 c737
00000080: 9ae7 9835 6b60 5f37 10f0 0639 9ae0 f238
00000090: fd12 0a35 315c ee34 81ba be36 6e62 0e37
000000a0: 0000 0000 0000 0000 0000 0000 0000 0000
000000b0: d976 5535 e554 1237 abb1 d238 438e d338

exp_avg f4 [12]
2.7955366e-05 0.0005290153 0.0 0.007560945 -1.7915976e-06 0.0012000253 0.0 0.018609073
-0.023049135 -0.02056507 0.0 -0.022478947
00000000: b181 ea37 9ead 0a3a 0000 0000 cec1 f73b
00000010: d376 f0b5 2b4a 9d3a 0000 0000 0e72 983c
00000020: 8ad1 bcbc 1478 a8bc 0000 0000 c525 b8bc

exp_avg_sq f4 [12]
1.3765109e-05 2.1923151e-07 0.0 1.8426084e-05 6.342275e-07 9.360315e-05 0.0 9.650965e-05
0.00044382864 2.9553143e-05 0.0 0.00045019548
00000000: b1f0 6637 e665 6b34 0000 0000 b791 9a37
00000010: c83f 2a35 cf4c c438 0000 0000 3965 ca38
00000020: acb1 e839 e4e8 f737 0000 0000 3708 ec39

exp_avg f4 [6, 12]
-1.2298384e-06 1.5208412e-05 0.0 0.0016453402 -1.4983694e-07 -0.003144801 0.0 0.0012490798
0.0042474163 -0.0072153616 0.0 -0.0022122012 -1.3984705e-06 5.4147968e-05 0.0 -0.00027092893
-2.456086e-07 -0.037768476 0.0 -0.0021136387 -0.03696559 -0.052573573 0.0 -0.09385092
-1.8446976e-06 2.256871e-05 0.0 0.003300628 -2.272335e-07 -0.0022653884 0.0 0.0028608327
0.0131022185 -0.010103793 0.0 0.005790082 1.2437724e-06 -5.3735002e-06 0.0 -0.00047033207
1.5589646e-07 -0.010615302 0.0 -0.00033534408 -0.011331769 -0.015201639 0.0 -0.027266167
1.6113459e-06 -1.760444e-05 0.0 -0.0009916035 1.8351881e-07 -4.692822e-05 0.0 -0.00048635888
-0.0040942165 0.0023700553 0.0 -0.0027487827 4.1215745e-07 9.306214e-05 0.0 0.00041135435
3.9350716e-08 -0.00020249268 0.0 0.0005252415 0.0026116937 0.0004163439 0.0 0.0028496534
00000000: ed10 a5b5 a227 7f37 0000 0000 75a8 d73a
00000010: dde2 20b4 0119 4ebb 0000 0000 2ab8 a33a
00000020: e92d 8b3b d76e ecbb 0000 0000 94fa 10bb
00000030: 15b3 bbb5 f01c 6338 0000 0000 770b 8eb9
00000040: 30dc 83b4 1eb3 1abd 0000 0000 f984 0abb
00000050: 3b69 17bd 6357 57bd 0000 0000 e934 c0bd
00000060: 5497 f7b5 f051 bd37 0000 0000 594f 583b
00000070: 78fd 73b4 e976 14bb 0000 0000 cf7c 3b3b
00000080: b0aa 563c 618a 25bc 0000 0000 baba bd3b
00000090: b2ef a635 044e b4b6 0000 0000 e796 f6b9
000000a0: 7e64 2734 ceeb 2dbc 0000 0000 1fd1 afb9
000000b0: e2a8 39bc 4c10 79bc 0000 0000 4c5d dfbc
000000c0: 6c45 d835 3fad 93b7 0000 0000 b1f8 81ba
000000d0: 440d 4534 cbd4 44b8 0000 0000 fcfd feb9
000000e0: c728 86bb ee52 1b3b 0000 0000 ec24 34bb
000000f0: 7d46 dd34 5b2a c338 0000 0000 0cab d739
00000100: 9202 2933 3754 54b9 0000 0000 5cb0 093a
00000110: f328 2b3b bb48 da39 0000 0000 40c1 3a3b

exp_avg_sq f4 [6, 12]
2.5189777e-08 4.6440185e-10 0.0 1.488018e-07 6.4668346e-09 2.136228e-06 0.0 1.1884831e-07
1.5931162e-06 3.2448856e-06 0.0 5.3837052e-06 9.133942e-08 7.538645e-10 0.0 2.1012306e-07
6.201698e-08 0.00085261953 0.0 3.2162156e-05 0.00014157798 0.00074367295 0.0 0.0017598179
4.752499e-08 1.0883394e-09 0.0 7.4708214e-07 1.1832877e-08 7.866021e-05 0.0 3.423703e-06
2.16777e-05 5.023416e-05 0.0 0.00014829516 4.8753126e-08 5.8396843e-10 0.0 3.0148342e-07
9.171603e-09 9.2320006e-05 0.0 5.331351e-06 1.1893782e-05 6.055849e-05 0.0 0.00014805819
3.97199e-08 1.1435733e-10 0.0 4.3361656e-08 8.739115e-09 4.290691e-06 0.0 3.9694183e-07
2.6327564e-06 4.3072905e-06 0.0 1.3488813e-05 8.323223e-10 2.7858645e-08 0.0 9.197761e-08
1.7846251e-09 1.0423878e-06 0.0 1.1993009e-07 1.3554009e-06 8.768818e-07 0.0 4.0786126e-06
00000000: e860 d832 c04e ff2f 0000 0000 54c6 1f34
00000010: e132 de31 1e5c 0f36 0000 0000 8d39 ff33
00000020: 0ed3 d535 b6c2 5936 0000 0000 ada5 b436
00000030: 6126 c433 8038 4f30 0000 0000 309e 6134
00000040: 322e 8533 5482 5f3a 0000 0000 dae5 0638
00000050: 8d74 1439 0cf3 423a 0000 0000 b1a9 e63a
00000060: 471e 4c33 8a94 9530 0000 0000 188b 4835
00000070: 8b49 4b32 61f6 a438 0000 0000 c5c2 6536
00000080: 82d8 b537 85b2 5238 0000 0000 ae7f 1b39
00000090: a164 5133 2085 2030 0000 0000 91db a134
000000a0: 2391 1d32 ed9b c138 0000 0000 f5e3 b236
000000b0: 688b 4737 2f00 7e38 0000 0000 1140 1b39
000000c0: 7e98 2a33 7479 fb2e 0000 0000 a53c 3a33
000000d0: 0923 1632 c1f8 8f36 0000 0000 451b d534
000000e0: 69ae 3036 5887 9036 0000 0000 034e 6237
000000f0: 7ac9 6430 cf4d ef32 0000 0000 3a85 c533
00000100: ea46 f530 2ce8 8b35 0000 0000 22c6 0034
00000110: 38eb b535 dc62 6b35 0000 0000 04db 8836

exp_avg f4 [6]
-0.008738435 -0.09589382 -0.0083491355 -0.026685009 0.0020465697 0.0016343761
00000000: a72b 0fbc fb63 c4bd d0ca 08bc 859a dabc
00000010: be1f 063b 9038 d63a

exp_avg_sq f4 [6]
1.0804415e-05 0.004275934 0.0002536093 0.00039606553 3.489195e-05 5.2241494e-06
00000000: 9c44 3537 221d 8c3b ddf6 8439 04a7 cf39
00000010: f258 1238 1a4b af36
