lightning_logs/version_6/checkpoints/epoch=9-step=70.ckpt (torch, 14835 bytes, 24 tensors)

encoder.layers.0.linear.weight f4 [12, 6]
00000000: c5ca 3c3d e1c5 2c3e d5bf 02be 0920 963e
00000010: c084 4ebe 5fc9 bfbe 8162 f63b 0274 573e
00000020: 950f b53e 4aa9 88be ea13 d0be 192b d53e
00000030: b311 593e e391 a4be f9ec 66be 3e78 9a3e
00000040: 048a a8bd 3d30 cd3d 8ea6 e73d 9399 46be
00000050: 3525 1d3e b4d9 31be 42d1 b7be e50f 973e
00000060: f6f8 a8be 8aa5 7cbe 805d 283e f8c2 943c
00000070: 0445 c53e 2d6b d9be c801 71be 146e ea3d
00000080: 24aa 33be 446d 62be 3c62 d5bd fc9e 47be
00000090: abf6 bbbc 302c b13e c32c c5be 06c9 8fbe
000000a0: f3e9 293e 9ff4 d93e fbbf 453e 2d0b 51be
000000b0: e5bc 50be 460f b1bd 2582 d2be bb80 2e3e
000000c0: 3046 6f3e 16ff 8dbe 3cc6 74be 8b16 31be
000000d0: 8183 36be efaf 713e 49b4 5e3e 2520 1c3e
000000e0: 5d28 0f3d ad6c 74be 8fc3 ba3e 4786 95be
000000f0: fd89 93be d7c9 033e d6e4 ed3d 90be 5a3e
00000100: 04b6 a9be 7b83 363c 3f64 893d 2a62 bebe
00000110: cbdc a63e c851 4c3d f75d 943d 5029 ad3c
0.046091814 0.1687236 -0.1276849 0.29321316 -0.20167828 -0.3745832 0.007519067 0.21040347
0.3536345 -0.26691657 -0.40640193 0.41634443 0.21198158 -0.32142553 -0.22551335 0.30169863
-0.082294494 0.10018966 0.11311065 -0.19394521 0.15346225 -0.17368203 -0.3590184 0.29504314
-0.33002442 -0.24672523 0.16441917 0.018159375 0.38529217 -0.4246458 -0.23535836 0.11446777
-0.17545372 -0.22111994 -0.10419127 -0.19494241 -0.022944769 0.34604025 -0.38510713 -0.28083056
0.16593151 0.42569444 0.19311516 -0.2041442 -0.20384558 -0.08645491 -0.41114917 0.17041294
0.23366618 -0.27733678 -0.23903745 -0.17293756 -0.17823602 0.2360227 0.21748461 0.15246637
0.034950603 -0.23869582 0.36477324 -0.29204008 -0.28816214 0.12869965 0.116159126 0.21361756
-0.3314668 0.011139746 0.067085735 -0.37184268 0.32590327 0.04988268 0.07244485 0.021137863

encoder.layers.0.linear.bias f4 [12]
00000000: 86a1 823e 93ca 80be ee65 e33d 8845 cc3e
00000010: 4e29 a53c 51f4 bb3e bb11 a4be 2448 463e
00000020: 8990 2dbe 23f3 593e b9fd 2d3e 30a3 4e3e
0.25513858 -0.25154552 0.11103426 0.39896798 0.020161297 0.36709836 -0.32044777 0.19363457
-0.16949667 0.21284156 0.16991319 0.20179439

encoder.layers.2.linear.weight f4 [4, 12]
00000000: c219 99bc 3e42 833d b8cd dabb 9aa9 a23e
00000010: 2ba6 9e3e 0704 793b 14dc 543d 3c71 863e
00000020: 20fd f1bd f2df ae3e b657 65be d728 2dbe
00000030: 124a 16be aedd 7e3e d169 153e d759 23be
00000040: 207e 9fbe e30e 03be 59c5 033d 10b4 d0bd
00000050: 832b 61bc 76bb 13be e929 90be 50a6 7b3e
00000060: 2690 58bd 5ead 22be 766a 64bd 0d73 b1bd
00000070: 6748 72be 410e a43e c843 993d 52b2 77bd
00000080: bcc9 f83c 03e2 993b 9363 363e 18a9 f439
00000090: 2174 673d 0b6c 0a3e d8bb 703c 6df7 02bc
000000a0: 9106 35be d1fe a8bd bd2e 20be 5a69 5b3e
000000b0: ee72 893e 5768 103e 159f 703d 7c47 2dbe
-0.01868904 0.06409119 -0.0066773556 0.3177002 0.3098615 0.0037996785 0.051967695 0.26258266
-0.11815858 0.34155232 -0.2239674 -0.1691011 -0.14676693 0.24889252 0.14591147 -0.1595224
-0.31150913 -0.12798648 0.032170627 -0.10190594 -0.013743284 -0.1442698 -0.28156975 0.24575162
-0.052871846 -0.15886447 -0.05576559 -0.08664522 -0.23660432 0.32042125 0.07483631 -0.060472794
0.030369632 0.004696132 0.17811422 0.0004666529 0.056507234 0.13517778 0.014693223 -0.007993561
-0.17678286 -0.08251727 -0.15642829 0.21426907 0.26845497 0.14102302 0.058745462 -0.169218

encoder.layers.2.linear.bias f4 [4]
00000000: 5c19 b83c 8504 1fbd e520 21be 1992 1bbe
0.02247303 -0.03882267 -0.15735205 -0.1519245

decoder.layers.0.linear.weight f4 [12, 4]
00000000: 6d0f b5be 5336 563d cc28 95be 2333 b73e
00000010: fc3e 11be bccd 7b3e 18c5 aabe c026 03bc
00000020: f42e 18be e84d 213e 502c 3ebd 5896 a63d
00000030: 54ab 47bc 8751 403e a5ca 42be d72f e5be
00000040: f911 d13e 33a4 94be 83ea 6bbe 4546 75be
00000050: 6499 4dbe 1cb4 95be 74bd 9d3e b044 13be
00000060: 1c7b c43e 90c8 d33d 0ead b03e f827 4b3e
00000070: 3575 dabe af61 69be d23f f23e 6650 08bf
00000080: 40d5 56bc eeb1 e0be 2cd6 63be e409 bc3e
00000090: 8d72 36be 0c00 32be 6c16 e73d 9eaf a23e
000000a0: 3679 aebe de95 a23e 44c3 fc3e a8ac c4bd
000000b0: a3ad 2d3e c6f3 0dbf eaa4 823e 01af 8d3e
-0.3536333 0.0522979 -0.29132688 0.35781202 -0.14184183 0.245902 -0.33353496 -0.008004844
-0.14861661 0.15752375 -0.04642898 0.081341445 -0.012186844 0.187811 -0.19022615 -0.4476306
0.40834025 -0.29031524 -0.23038678 -0.23952587 -0.20078045 -0.29238975 0.30808604 -0.14381671
0.38375175 0.10340989 0.3450703 0.19839466 -0.42667547 -0.2279117 0.47314316 -0.5324768
-0.013112366 -0.4388575 -0.22249669 0.36726296 -0.17817135 -0.1738283 0.112835735 0.3177461
-0.34076852 0.31754965 0.49367726 -0.09603244 0.16960768 -0.55450094 0.25516444 0.2767258

decoder.layers.0.linear.bias f4 [12]
00000000: bfc2 8c3e 9069 f1bd 28c8 cabd eaec 59bd
00000010: 504d b33e 86fe ddbe 3803 41be 2aea 833e
00000020: ce7b adbe 6287 4b3e 7a4b 8fbe 20d6 713e
0.2749233 -0.117877126 -0.09901458 -0.053204454 0.35019922 -0.43358248 -0.18848884 0.2576459
-0.33883518 0.19875863 -0.27987272 0.23616838

decoder.layers.2.linear.weight f4 [6, 12]
00000000: 5aeb 5b3e 54c5 b2bd 658f 76bd 12a9 6d3e
00000010: 464c 11be 3f79 423e 1e86 0b3e efbd dabd
00000020: 2d07 c53d ef44 873d 0779 81bd 8dbd 02be
00000030: c938 183e 4698 783e d4b7 2c3d 451e 4cbd
00000040: f071 1a3d 5e1c b73c f901 20be 594f ee3d
00000050: 4bb6 293d 1fbf 2cbd 4fa7 29be ba78 2b3e
00000060: 7b10 773e c2d6 5abe 2b07 88be 2f54 6b3e
00000070: 633d 8b3e c8fc 7ebe 41be 3abe a887 57bd
00000080: 9dab 36be 6e7e febc b160 8cbe 84d8 20be
00000090: e46c aa3d 161e a63d 55f2 39be 7d90 053e
000000a0: 15a3 7cbd 8dbd 09be b0c0 abba 0c94 613d
000000b0: 021c 233e 6754 303e 5b0f 7d3e c61a 86bd
000000c0: 2ccf 25bd ef4d 623e 1bb2 5cbe 30e4 1abd
000000d0: 4680 bf3d 4953 4e3d abce 5abe 0839 4c3e
000000e0: 595a a9bd ad3d d63d 4f1a 29be d11f 94bc
000000f0: 486a 6a3d 4488 7fbe 9bfe c4bd 74ff a9bc
00000100: 6412 4fbe 5e49 6ebe 60c7 8d3d 36f7 3abd
00000110: 47fd b5bb a908 21be a1c8 c83d cce2 72be
0.21476498 -0.087290436 -0.060195345 0.23209026 -0.14189252 0.18991564 0.1362538 -0.10680758
0.09620509 0.06604945 -0.06321912 -0.1276762 0.14865412 0.24276838 0.0421675 -0.049833555
0.037706316 0.022352394 -0.15625753 0.11636228 0.041433614 -0.042174455 -0.1656773 0.16745272
0.2412738 -0.21370986 -0.2656797 0.22981332 0.27195272 -0.24901116 -0.18236639 -0.052619606
-0.17838903 -0.031066146 -0.2741752 -0.15707594 0.083215505 0.08111207 -0.18158849 0.13043399
-0.061678965 -0.13451214 -0.001310369 0.05507283 0.15928653 0.17219697 0.24712889 -0.065480754
-0.040480778 0.22100042 -0.21552317 -0.037815273 0.09350638 0.050372396 -0.213679 0.1994363
-0.082691856 0.104609825 -0.16513942 -0.018081577 0.057230264 -0.24954325 -0.09618875 -0.020751692
-0.20221859 -0.23270175 0.069227934 -0.045645915 -0.0055538747 -0.1572596 0.09803892 -0.23719329

decoder.layers.2.linear.bias f4 [6]
00000000: 212e 303e 0a13 623e ede0 83be 33f7 e8bd
00000010: 7b98 05be c5f3 833e
0.17205097 0.22077575 -0.25757542 -0.113752745 -0.13046448 0.2577192

exp_avg f4 [12, 6]
00000000: 2cbf 55b9 dfab 28bb 8b43 1fba d8ba 803a
00000010: 8e7f 8739 4138 5539 8a97 99ba e589 4bb9
00000020: 8464 1fbb 85cb 0b3b af1b 653a fb42 c037
00000030: 948e ad37 7683 7f35 4262 4238 9f47 d937
00000040: b4f8 c8b7 9c9f 21b9 5ba7 5cb9 1b5b 93bb
00000050: d705 02bb 9c03 943b 80b1 0c3b d1b4 413b
00000060: c30c 3f3a 576d cbb9 4843 973a a429 963a
00000070: 77bb e6b9 df37 2139 d8a2 003c 6cf1 00bc
00000080: 1c67 8e3c 5d9f 993b 990c 0dbc 72f6 82bb
00000090: d378 d33a 8e67 00bb 308b 583b 59a0 2d3b
000000a0: 4e79 faba ade4 92ba 904d 3bba 12cb 34ba
000000b0: 98a8 14bb 8936 603a 4491 0d3b bfdf 143b
000000c0: d4ef 07b9 ea48 9538 27d9 a2b9 b9c8 3cba
000000d0: 5f81 fa38 303d 8eb8 0df8 853a 6303 6fbb
000000e0: cc4d 4e3a 1535 833b 5196 0f3a aa0c bc3a
000000f0: c41d 293b d2c3 c9bb aa6d e73b 972e c6ba
00000100: 4531 38bb 7c87 aaba a511 1fb9 d65b 273a
00000110: 5237 8539 6464 aeb9 6c7d ebb9 a635 00ba
-0.0002038448 -0.0025737209 -0.00060754333 0.0009821309 0.00025844242 0.00020334219 -0.0011718136 -0.00019410958
-0.0024321387 0.0021331024 0.0008739782 2.2919374e-05 2.06896e-05 9.5186203e-07 4.6344714e-05 2.5901767e-05
-2.395767e-05 -0.00015413616 -0.0002104318 -0.0044969446 -0.0019839907 0.004517032 0.0021468103 0.0029557238
0.00072879734 -0.00038800642 0.0011540437 0.0011456502 -0.0004400869 0.0001537497 0.007851325 -0.007870059
0.01738315 0.004688187 -0.008608961 -0.0039966637 0.0016134031 -0.0019592973 0.0033041947 0.002649328
-0.0019109638 -0.0011207067 -0.00071450416 -0.0006896715 -0.0022683498 0.0008553048 0.0021601478 0.002271637
-0.00012963946 7.118455e-05 -0.0003106084 -0.0007201541 0.00011945026 -6.782485e-05 0.001022102 -0.0036470525
0.0007869869 0.0040041306 0.0005477416 0.0014347036 0.0025805095 -0.006157377 0.0070626335 -0.0015120086
-0.0028105539 -0.0013010348 -0.00015169995 0.0006384229 0.00025408954 -0.00033262663 -0.0004491614 -0.0004890807

exp_avg_sq f4 [12, 6]
00000000: d55b a832 f1e7 6f34 630d 9b33 5b01 ca33
00000010: 31b5 6a32 27ca 1931 d72f 3f33 1093 da32
00000020: 09ab 3134 80c7 1f34 c151 df32 495d e132
00000030: e925 5b2f 235b 592c cb0c 7730 d55a 992f
00000040: 7605 5e30 1e70 dc31 7325 a832 f905 9235
00000050: 3c6e 2234 c864 9535 ea4c 7734 4ba7 0035
00000060: 917d b733 d6fe 0633 9d1e 9434 85f5 5f34
00000070: 0154 cc33 7a90 6e32 4968 3c36 b512 5736
00000080: 8724 6937 2c31 8435 5aa6 5936 91b1 1735
00000090: 5894 0634 18cd 9634 ff67 1535 c459 a934
000000a0: 6367 2a34 7f60 8733 c366 d633 bf4e bd33
000000b0: af48 d934 402f 3134 6270 5d34 b4e7 9634
000000c0: 3990 4433 5b29 2932 9b3a 3634 5cda 3534
000000d0: 3669 9933 9ab8 1e33 35cc 6234 d934 8835
000000e0: 73da 3935 33e6 b335 bf59 f833 c146 e933
000000f0: 78c3 2235 b193 8e35 a29b 9936 d2d6 b035
00000100: d796 3835 cbb5 1b34 47c5 7f31 9374 a432
00000110: bcfb 3532 1251 9a32 b3ae e632 5322 bc32
1.9599534e-08 2.234299e-07 7.220185e-08 9.4066046e-08 1.3661791e-08 2.237934e-09 4.4514163e-08 2.5445416e-08
1.6546632e-07 1.4880607e-07 2.5997794e-08 2.6235869e-08 1.9931402e-10 3.0888146e-12 8.9876256e-10 2.7895078e-10
8.077089e-10 6.415589e-09 1.9574804e-08 1.0879586e-06 1.5127529e-07 1.1130696e-06 2.3031649e-07 4.792716e-07
8.544442e-08 3.1431078e-08 2.7589422e-07 2.0857813e-07 9.5147705e-08 1.38862735e-08 2.8074885e-06 3.2048385e-06
1.3896387e-05 9.849077e-07 3.243235e-06 5.6510277e-07 1.253369e-07 2.8088903e-07 5.565816e-07 3.1544016e-07
1.5870096e-07 6.30398e-08 9.983844e-08 8.815322e-08 4.0472284e-07 1.6501599e-07 2.0623114e-07 2.8108263e-07
4.5765976e-08 9.846498e-09 1.6971391e-07 1.6936377e-07 7.1437555e-08 3.6955136e-08 2.112218e-07 1.014817e-06
6.9235756e-07 1.3403536e-06 1.15647246e-07 1.0862778e-07 6.063415e-07 1.0622808e-06 4.5778734e-06 1.3175543e-06
6.876484e-07 1.4501636e-07 3.7219523e-09 1.9145125e-08 1.0592824e-08 1.7964826e-08 2.6854968e-08 2.190169e-08

exp_avg f4 [12]
00000000: 640d 12bb 1f8e e4ba cd85 17b8 248f bcbb
00000010: 15f3 9aba a360 06bc 9df8 4dbb 4962 64ba
00000020: 4bc1 223a d601 a2bb bb0d 35bb a09a 0c3a
-0.0022285813 -0.0017437375 -3.6125817e-05 -0.0057543684 -0.0011821712 -0.008201751 -0.0031428703 -0.00087121554
0.00062086125 -0.0049440665 -0.0027626592 0.0005363617

exp_avg_sq f4 [12]
00000000: 7eb7 7c34 e03c bc33 3cff e02f 447e f635
00000010: 6b7d 4a34 9a7c 5336 ed5e 0735 6317 5734
00000020: 6cfa 1934 cbd7 0536 d5d8 3335 9e84 e632
2.3536083e-07 8.765505e-08 4.0926718e-10 1.8365176e-06 1.8858343e-07 3.1513978e-06 5.0429554e-07 2.0031943e-07
1.4340338e-07 1.9944152e-06 6.699823e-07 2.6835831e-08

exp_avg f4 [4, 12]
00000000: b6b4 89ba 7932 14bb 3688 2039 d94f 8fbb
00000010: 9133 dfb9 22c0 04bc 3bef 9eb9 fc99 ebba
00000020: ba91 f439 baea b1bb 4a26 a2ba 2ebf 7dba
00000030: c968 f53b a378 6239 29cf 81b9 4701 853a
00000040: a345 593a ae3d a53c e1f4 2e3c 3011 9e39
00000050: b545 4bba 445f 5b3c 93fa 813b 8d81 53ba
00000060: 88ca 27bb 94b8 113c 8a7a 98b9 b802 1a3c
00000070: 0fac 9cba e905 6dbc 2cf0 c1bc 4e92 3d3a
00000080: 3adb c2ba e186 9fbb 072b f33a d78a 863b
00000090: ecf9 fd3a e925 333a 4eac 6938 8588 283b
000000a0: 59af eb39 4269 333c 4a95 093c b782 b43a
000000b0: dcd4 c439 2965 f53b 9b26 4e3a 4e5f 2c3a
-0.0010506127 -0.0022613092 0.00015309532 -0.0043735323 -0.00042572294 -0.008102449 -0.0003031435 -0.0017974968
0.0004664788 -0.005429593 -0.001237103 -0.0009679672 0.007489298 0.0002159798 -0.00024759144 0.0010147475
0.000828827 0.020171013 0.010678501 0.00030148914 -0.00077542226 0.013389412 0.0039666384 -0.0008068316
-0.0025602896 0.0088941045 -0.00029082998 0.009400062 -0.0011953133 -0.014466741 -0.023674093 0.0007231579
-0.001486636 -0.0048683737 0.0018552252 0.0041059065 0.0019376851 0.0006833957 5.5712e-05 0.0025716138
0.00044953337 0.010950388 0.00839741 0.0013771866 0.00037542626 0.007488866 0.0007864029 0.0006575481

exp_avg_sq f4 [4, 12]
00000000: 2aa2 2635 300a f034 c6f6 8830 ae7e df35
00000010: 8abf 0c33 07f4 0d37 7df5 9635 cb2e 9034
00000020: 5790 ac32 ce0f 8e36 6310 0e35 84fb dd34
00000030: 4de7 2d36 8581 f433 e1a0 a031 decb 0335
00000040: c97c 0e33 cf21 5d37 4f8d 8936 78e2 7b33
00000050: 7680 e833 e1ec b736 4ee3 fb34 e2e4 3e34
00000060: 9346 3036 cb96 5336 010b 5e31 292e 8236
00000070: 5722 1634 8e3d 5d37 3f8a 1638 c02f 3933
00000080: fb57 9334 859f 3c36 5e31 cd34 4ac1 e535
00000090: 4e95 1b35 c1ca 0e35 ac1f 1330 a606 b435
000000a0: fbc8 fd32 e8b6 cd36 fc41 ce36 84ed 2534
000000b0: dbee 3233 7250 6636 64d1 cc34 513f fb34
6.20758e-07 4.4710896e-07 9.96544e-10 1.6651663e-06 3.2770494e-08 8.461072e-06 1.1247317e-06 2.6856137e-07
2.0089074e-08 4.2337697e-06 5.292297e-07 4.134746e-07 2.5913644e-06 1.1385695e-07 4.6749027e-09 4.909797e-07
3.3175443e-08 1.3180498e-05 4.0993687e-06 5.8646464e-08 1.0826709e-07 5.4814013e-06 4.691778e-07 1.7778396e-07
2.6267123e-06 3.1529223e-06 3.2311507e-09 3.8796757e-06 1.3982331e-07 1.3186958e-05 3.589154e-05 4.3117097e-08
2.7444898e-07 2.8107036e-06 3.8220145e-07 1.7118084e-06 5.7959267e-07 5.319417e-07 5.3523297e-10 1.341298e-06
2.9544472e-08 6.130769e-06 6.14696e-06 1.545323e-07 4.1661092e-08 3.4319496e-06 3.8150313e-07 4.6798462e-07

exp_avg f4 [4]
00000000: db50 2fbc 5704 de3c c946 55bc b069 813c
-0.01070043 0.027101679 -0.013017365 0.015797466

exp_avg_sq f4 [4]
00000000: c8b1 c737 43a5 d637 91ff e337 9b51 8f37
2.3805434e-05 2.5587744e-05 2.7179516e-05 1.7084929e-05

exp_avg f4 [12, 4]
00000000: eb23 0dbb 9fdc 08b5 c249 c83b 488e b8bb
00000010: 0000 0000 0000 0000 0000 0000 0000 0000
00000020: 0000 0000 0000 0000 0000 0000 0000 0000
00000030: 465e 383b 16ca 9eba b167 383a d722 28bb
00000040: 75bd 07bc 9e42 a33b f947 803b 727f dfba
00000050: 0000 0000 0000 0000 0000 0000 0000 0000
00000060: 0000 0000 0000 0000 0000 0000 0000 0000
00000070: 960f 97bb 314b ba3b e26e 3cbb 73df b23b
00000080: 0000 0000 0000 0000 0000 0000 0000 0000
00000090: da16 423c 09a8 04bc bf66 d0b9 5316 8dbb
000000a0: 0000 0000 0000 0000 0000 0000 0000 0000
000000b0: 6fee e1bb 543a 2d3c 370e 96bb d709 df3b
-0.0021536301 -5.0984994e-07 0.0061123082 -0.0056321956 0.0 0.0 0.0 0.0
0.0 0.0 0.0 0.0 0.0028132363 -0.001211467 0.0007034494 -0.0025655532
-0.008284916 0.0049823066 0.00391483 -0.0017051531 0.0 0.0 0.0 0.0
0.0 0.0 0.0 0.0 -0.0046100123 0.005685233 -0.0028752615 0.005458766
0.0 0.0 0.0 0.0 0.011846269 -0.008096703 -0.00039749403 -0.00430564
0.0 0.0 0.0 0.0 -0.0068948786 0.010572989 -0.0045793313 0.006806593

exp_avg_sq f4 [12, 4]
00000000: 6d73 3435 8580 5634 f6d8 c335 7149 2a36
00000010: 0000 0000 0000 0000 0000 0000 0000 0000
00000020: 0000 0000 0000 0000 0000 0000 0000 0000
00000030: 7b41 5635 35a7 c533 8b2c ce35 aace 0e36
00000040: e92a 0e36 e283 6735 8dc2 0435 2bce 1535
00000050: 0000 0000 0000 0000 0000 0000 0000 0000
00000060: 0000 0000 0000 0000 0000 0000 0000 0000
00000070: 1352 1735 07aa 5235 9a72 4934 eaad 4535
00000080: 0000 0000 0000 0000 0000 0000 0000 0000
00000090: 143f c336 0b0d 2636 83d8 b735 fcba 2535
000000a0: 0000 0000 0000 0000 0000 0000 0000 0000
000000b0: c113 b235 a25d 4d36 f209 1635 6775 d235
6.722319e-07 1.9977058e-07 1.4591776e-06 2.5374723e-06 0.0 0.0 0.0 0.0
0.0 0.0 0.0 0.0 7.98165e-07 9.203942e-08 1.536116e-06 2.1279943e-06
2.1184626e-06 8.624612e-07 4.945694e-07 5.580684e-07 0.0 0.0 0.0 0.0
0.0 0.0 0.0 0.0 5.637132e-07 7.847852e-07 1.8761276e-07 7.3641297e-07
0.0 0.0 0.0 0.0 5.818796e-06 2.474352e-06 1.3697576e-06 6.173939e-07
0.0 0.0 0.0 0.0 1.3267783e-06 3.0601882e-06 5.5893827e-07 1.5680388e-06

exp_avg f4 [12]
00000000: 873e c6ba 0000 0000 0000 0000 71af 253c
00000010: b3b6 c4bc 0000 0000 0000 0000 e217 d4bc
00000020: 0000 0000 8438 303d 0000 0000 70f9 21bd
-0.0015124836 0.0 0.0 0.010112629 -0.024012899 0.0 0.0 -0.025890294
0.0 0.043022648 0.0 -0.039544523

exp_avg_sq f4 [12]
00000000: ef98 6538 0000 0000 0000 0000 b259 0f39
00000010: 62b9 1238 0000 0000 0000 0000 ab13 d137
00000020: 0000 0000 55de 8639 0000 0000 bc98 ac38
5.4740285e-05 0.0 0.0 0.00013670957 3.4981764e-05 0.0 0.0 2.49239e-05
0.0 0.00025724122 0.0 8.230048e-05

exp_avg f4 [6, 12]
00000000: aab7 6b3b 0000 0000 0000 0000 5111 a339
00000010: 0ce7 ca3c 0000 0000 0000 0000 79d0 b73c
00000020: 0000 0000 a839 113c 0000 0000 8aa5 933c
00000030: d869 edbc 0000 0000 0000 0000 6b7c b037
00000040: 91ee c4bd 0000 0000 0000 0000 2c0d 55bd
00000050: 0000 0000 0a16 12bd 0000 0000 d627 8bbd
00000060: 11fd 20bc 0000 0000 0000 0000 c307 0b3a
00000070: ef5e b7bb 0000 0000 0000 0000 f26c b83c
00000080: 0000 0000 46cd 08bb 0000 0000 3b78 eeba
00000090: 9cee b83c 0000 0000 0000 0000 276d a139
000000a0: c2d7 c63d 0000 0000 0000 0000 6899 1d3d
000000b0: 0000 0000 b874 ea3c 0000 0000 af6c 7d3d
000000c0: b502 55bb 0000 0000 0000 0000 8fd2 33ba
000000d0: 9e02 e0bc 0000 0000 0000 0000 1b8d acbc
000000e0: 0000 0000 ec53 edbb 0000 0000 515e 84bc
000000f0: 4693 cf39 0000 0000 0000 0000 aacc 59ba
00000100: 9441 e3bb 0000 0000 0000 0000 11d0 dcbb
00000110: 0000 0000 6e21 5ab9 0000 0000 0b22 f7ba
0.0035967627 0.0 0.0 0.00031102684 0.024768375 0.0 0.0 0.022438275
0.0 0.008863844 0.0 0.018023271 -0.028981134 0.0 0.0 2.1038772e-05
-0.096158154 0.0 0.0 -0.052014515 0.0 -0.03566555 0.0 -0.067947075
-0.009825961 0.0 0.0 0.0005303586 -0.0055960338 0.0 0.0 0.022512887
0.0 -0.0020874306 0.0 -0.001819379 0.022574715 0.0 0.0 0.00030789638
0.09709121 0.0 0.0 0.038476378 0.0 0.028620109 0.0 0.061871227
-0.0032502834 0.0 0.0 -0.0006859684 -0.027344998 0.0 0.0 -0.021063378
0.0 -0.0072426703 0.0 -0.016158255 0.00039591844 0.0 0.0 -0.00083083904
-0.0069353078 0.0 0.0 -0.0067386706 0.0 -0.00020802554 0.0 -0.001885475

exp_avg_sq f4 [6, 12]
00000000: bb64 0e38 0000 0000 0000 0000 472c 4035
00000010: 84eb a838 0000 0000 0000 0000 299d f437
00000020: 0000 0000 be55 cf37 0000 0000 ed7e ca37
00000030: 8403 5a39 0000 0000 0000 0000 7721 4835
00000040: 8fcf 063a 0000 0000 0000 0000 791e 0439
00000050: 0000 0000 166e 2439 0000 0000 f446 5639
00000060: c641 e736 0000 0000 0000 0000 408c 4e35
00000070: 010d f336 0000 0000 0000 0000 6209 7b37
00000080: 0000 0000 10e4 7236 0000 0000 4ce9 b236
00000090: 2701 3139 0000 0000 0000 0000 31f7 7735
000000a0: a4f8 073a 0000 0000 0000 0000 ce8c 9238
000000b0: 0000 0000 2387 0739 0000 0000 2aec 3b39
000000c0: 9514 c137 0000 0000 0000 0000 1f89 4d35
000000d0: f2d6 9a38 0000 0000 0000 0000 fd34 a137
000000e0: 0000 0000 f4d4 7e37 0000 0000 141b 8837
000000f0: 61e7 7336 0000 0000 0000 0000 a7ed 6f33
00000100: f830 ba36 0000 0000 0000 0000 34e2 0a36
00000110: 0000 0000 c1f3 3e36 0000 0000 88d8 2936
3.394925e-05 0.0 0.0 7.1590006e-07 8.0547325e-05 0.0 0.0 2.916025e-05
0.0 2.471625e-05 0.0 2.4139381e-05 0.0002079141 0.0 0.0 7.4554504e-07
0.0005142623 0.0 0.0 0.00012599853 0.0 0.00015681269 0.0 0.00020435062
6.8919935e-06 0.0 0.0 7.694507e-07 7.243478e-06 0.0 0.0 1.496295e-05
0.0 3.619356e-06 0.0 5.3319727e-06 0.00016880465 0.0 0.0 9.237438e-07
0.00051868916 0.0 0.0 6.9880494e-05 0.0 0.00012924946 0.0 0.00017921688
2.3016977e-05 0.0 0.0 7.656799e-07 7.383329e-05 0.0 0.0 1.921737e-05
0.0 1.5189162e-05 0.0 1.6225073e-05 3.6344502e-06 0.0 0.0 5.5862667e-08
5.5489327e-06 0.0 0.0 2.069527e-06 0.0 2.845409e-06 0.0 2.5309e-06

exp_avg f4 [6]
00000000: 463f 523d 9cba 44be 8fd3 a7bb 980c 393e
00000010: 63c0 5ebd 318c 60bc
0.051329874 -0.19211811 -0.0051216553 0.1807121 -0.054382693 -0.013705299

exp_avg_sq f4 [6]
00000000: a8f8 0d3a a887 503b 95d7 2038 94b6 3d3b
00000010: dc45 e239 3391 2c38
0.0005415776 0.0031819139 3.834775e-05 0.0028947936 0.00043158128 4.1143223e-05
