lightning_logs/version_9/checkpoints/epoch=9-step=130.ckpt (torch, 14835 bytes, 24 tensors)

encoder.layers.0.linear.weight f4 [12, 6]
-0.42500892 -0.193544 -0.35545418 -0.20603931 0.28514233 0.47487736 -0.049757127 0.10345276
0.034902807 0.39404348 -0.38179314 -0.071724124 0.19131923 0.09824765 -0.45232853 0.015377094
0.3997314 0.25033507 0.52510583 0.044458102 -0.11049691 -0.444719 -0.27513844 -0.35883665
0.22114052 0.004789046 0.045595724 -0.24836545 -0.065131575 0.39025557 -0.53728104 0.12657817
-0.19530231 -0.088694185 0.22255938 0.29528826 -0.29166338 0.01679055 -0.06797764 -0.14589041
-0.4632081 -0.14080945 0.41055545 0.34004903 0.19022536 -0.2033762 -0.038331434 -0.1646988
0.32744634 -0.35350233 -0.020030584 0.33853343 -0.18614934 0.3827462 0.17233105 -0.01251441
0.034365997 -0.18599853 -0.12493059 0.4103208 -0.24360335 0.21886471 0.36291748 -0.23043858
0.122551516 -0.24349631 0.0060764663 -0.1269623 0.11011514 0.27350268 -0.2706026 -0.2285548
00000000: c59a d9be 6630 46be 17fe b5be f8fb 52be
00000010: 2dfe 913e 2023 f33e 21ce 4bbd 0adf d33d
00000020: 3ff6 0e3d 11c0 c93e 647a c3be 19e4 92bd
00000030: 30e9 433e 1036 c93d 9b97 e7be 35f0 7b3c
00000040: 98a9 cc3e eb2b 803e 566d 063f b319 363d
00000050: 344c e2bd 35b2 e3be f2de 8cbe 70b9 b7be
00000060: a972 623e 6eed 9c3b 95c2 3a3d 8353 7ebe
00000070: b463 85bd 94cf c73e 408b 09bf b59d 013e
00000080: 54fd 47be 4ca5 b5bd 9be6 633e 0630 973e
00000090: e754 95be 568c 893c dc37 8bbd 4c64 15be
000000a0: 9d29 edbe 5a30 10be 5334 d23e e81a ae3e
000000b0: 70ca 423e da41 50be 6c01 1dbd cda6 28be
000000c0: 0ca7 a73e 42fe b4be 2e17 a4bc 4154 ad3e
000000d0: ef9d 3ebe 4ff7 c33e 8d77 303e 3d09 4dbc
000000e0: 5cc3 0c3d 6676 3ebe 9cdb ffbd 9115 d23e
000000f0: 2873 79be 121e 603e 52d0 b93e 17f8 6bbe
00000100: 4afc fa3d 1957 79be 181d c73b 6802 02be
00000110: 0c84 e13d 8b08 8c3e 6d8c 8abe 450a 6abe

encoder.layers.0.linear.bias f4 [12]
0.48482952 0.3374134 0.005349776 0.094160184 0.37280872 -0.16450918 -0.045488298 -0.20378877
0.13599962 -0.08205115 0.32143897 -0.1661635
00000000: 933b f83e 73c1 ac3e 2c4d af3b 0ed7 c03d
00000010: c9e0 be3e 1875 28be f051 3abd 01ae 50be
00000020: 7c43 0b3e 6f0a a8bd a693 a43e c426 2abe

encoder.layers.2.linear.weight f4 [4, 12]
0.027354637 -0.23329306 -0.17787471 0.13310392 -0.027836401 0.0072650164 0.205235 -0.13790324
-0.22622177 -0.06031294 -0.121731214 -0.08571361 0.24422239 -0.10221473 0.03587357 -0.3568695
-0.22307424 0.21234626 0.16140014 0.01683459 -0.1457062 0.041995272 -0.11470231 -0.22878839
0.35200948 -0.21325494 0.40267023 0.03199185 -0.0011742 0.42440343 0.10420713 0.2789451
-0.0075864154 0.3043473 0.377749 -0.02915688 0.3215371 -0.15240434 0.03497725 -0.4534568
0.09925814 0.34126353 -0.20733516 -0.3242274 0.24101855 -0.12175864 -0.2623811 0.11929691
00000000: d516 e03c 60e4 6ebe ca24 36be 654c 083e
00000010: 2a09 e4bc 600f ee3b 2029 523e 8236 0dbe
00000020: aea6 67be b40a 77bd 374e f9bd 9e8a afbd
00000030: 6f15 7a3e f555 d1bd 2af0 123d 99b7 b6be
00000040: 936d 64be 4c71 593e 1446 253e b2e8 893c
00000050: 0234 15be 3c03 2c3d 0be9 eabd 8147 6abe
00000060: 963a b43e 815f 5abe cb2a ce3e e309 033d
00000070: 9de7 99ba 684b d93e 8c6a d53d e4d1 8e3e
00000080: 7797 f8bb 69d3 9b3e 5168 c13e 69da eebc
00000090: 83a0 a43e e20f 1cbe 4e44 0f3d 7d2b e8be
000000a0: da47 cb3d 18ba ae3e ab4f 54be 2201 a6be
000000b0: 91cd 763e 985c f9bd d156 86be f051 f43d

encoder.layers.2.linear.bias f4 [4]
-0.23438463 -0.25307474 0.2637511 0.26611382
00000000: 8602 70be 0393 81be 620a 873e 1240 883e

decoder.layers.0.linear.weight f4 [12, 4]
-0.51045173 -0.40350902 0.5599902 0.5128833 -0.13513821 -0.25287825 -0.42199427 -0.11385542
0.118944906 -0.61396044 -0.060719594 -0.22834358 0.2730394 0.017085543 -0.47514352 0.1849647
0.34850985 -0.48405272 0.374871 -0.1421967 -0.46331206 0.010355064 -0.43424574 -0.3080172
-0.33830115 0.20428106 -0.017372686 -0.027093124 0.121966116 -0.5960648 0.2694387 -0.25036016
-0.5212043 -0.1313446 -0.36468226 0.14815927 0.21074358 -0.20394984 0.2334131 -0.45582658
0.49782866 0.22549117 -0.1761334 0.0071722865 -0.39209238 -0.21958305 0.25771046 -0.5132635
00000000: f7ac 02bf bc98 cebe 855b 0f3f 524c 033f
00000010: ac61 0abe 4279 81be a20f d8be 082d e9bd
00000020: 6399 f33d 832c 1dbf 1cb5 78bd e6d2 69be
00000030: d2cb 8b3e fbf6 8b3c 0346 f3be 6367 3d3e
00000040: e26f b23e c2d5 f7be 17ef bf3e 039c 11be
00000050: 3d37 edbe 49a8 293c 7555 debe 6eb4 9dbe
00000060: cf35 adbe 0e2f 513e 2a51 8ebc 66f2 ddbc
00000070: 5fc9 f93d b497 18bf dff3 893e 352f 80be
00000080: a56d 05bf 337f 06be a2b7 babe 10b7 173e
00000090: 2acd 573e 3ad8 50be d803 6f3e 1a62 e9be
000000a0: 66e3 fe3e 28e7 663e 505c 34be 8005 eb3b
000000b0: 55c0 c8be 61da 60be a0f2 833e 3d65 03bf

decoder.layers.0.linear.bias f4 [12]
0.14700072 -0.23480779 0.46516502 0.19497335 0.40729758 0.29045245 -0.120167255 0.3498914
0.26238126 -0.06120964 -0.16808838 -0.05939399
00000000: 5b87 163e 7471 70be 1c2a ee3e 18a7 473e
00000010: 4f89 d03e 2fb6 943e 401a f6bd f724 b33e
00000020: d656 863e f6b6 7abd 5c1f 2cbe 1d47 73bd

decoder.layers.2.linear.weight f4 [6, 12]
-0.19834259 0.08233238 -0.11670018 0.18692717 0.008482919 0.18221743 0.07239176 0.11096596
-0.10220345 0.20588578 -0.007433362 0.045436867 0.38260558 0.2592961 0.31822574 -0.18136905
0.14300966 0.12174053 -0.04358556 -0.109820716 0.14786366 -0.05143979 0.073813096 0.20504378
-0.18807428 0.10908696 0.27806354 0.09794787 0.078318074 -0.1220702 0.002307798 0.14261971
0.13740663 0.018129554 0.02129372 0.3072384 0.040285505 -0.2234864 -0.12180517 0.26340652
-0.16354468 0.1301693 0.1769607 -0.33522776 0.22098686 -0.22695369 -0.2643738 -0.019706886
0.24392815 0.15792266 -0.29543087 -0.20973338 -0.0054365513 -0.052442744 -0.03288984 -0.12486991
-0.13240391 -0.17305987 0.07073724 -0.1548859 0.32211006 -0.20051615 0.030318554 0.03855086
-0.119210355 0.083863474 0.2086198 -0.16206412 0.29069594 -0.09242976 -0.105121024 -0.3717895
00000000: 521a 4bbe e19d a83d 8100 efbd d669 3f3e
00000010: f1fb 0a3c 3597 3a3e 2242 943d 1f42 e33d
00000020: 0b50 d1bd b9d3 523e 8f93 f3bb 021c 3a3d
00000030: e1e4 c33e 75c2 843e 7cee a23e cfb8 39be
00000040: 2071 123e 1953 f93d c686 32bd afe9 e0bd
00000050: 9269 173e 87b2 52bd 522b 973d fff6 513e
00000060: 8b96 40be fc68 df3d 585e 8e3e e598 c83d
00000070: 3a65 a03d f1ff f9bd 6d3e 173b e70a 123e
00000080: 53b4 0c3e 6e84 943c 2b70 ae3c 5a4e 9d3e
00000090: 6a02 253d 9ed9 64be fd74 f9bd 38dd 863e
000000a0: 4278 27be 1a4b 053e 3035 353e f9a2 abbe
000000b0: 614a 623e 8c66 68be 015c 87be 5670 a1bc
000000c0: 4dc8 793e 7ab6 213e b742 97be 59c4 56be
000000d0: 1925 b2bb 34ce 56bd 7fb7 06bd ccbb ffbd
000000e0: e494 07be 9b36 31be b0de 903d 699a 1ebe
000000f0: 9ceb a43e 1b54 4dbe 9e5e f83c 82e7 1d3d
00000100: 8f24 f4bd 9dc0 ab3d 6ea0 553e 23f4 25be
00000110: 19d6 943e d04b bdbd b149 d7bd 315b bebe

decoder.layers.2.linear.bias f4 [6]
0.17775008 0.24848676 -0.21270128 -0.12901811 0.07654389 -0.021848839
00000000: 1e04 363e 5073 7e3e 5dce 59be 531d 04be
00000010: 0bc3 9c3d 56fc b2bc

exp_avg f4 [12, 6]
0.0048176823 -0.017216839 0.013758871 0.008829453 -0.0069812955 -0.0029316705 -0.0041287728 -0.010018144
-0.011221804 0.0010908089 0.0067358236 0.0026086767 0.0016526068 -0.007911064 0.0048840716 0.0022415752
-0.0022487715 -0.0011898674 -0.013794962 0.00013980184 -0.035079293 0.009291939 0.024400866 0.008997709
0.0005207656 -0.00534318 0.00037611282 -0.0018076774 -4.9122606e-05 -0.000114728435 0.004743264 -0.017647473
0.013866038 0.009458305 -0.0069768294 -0.003065508 -0.0016877351 0.0029531831 -0.0037985556 0.005474813
0.0035644828 0.0013714747 -0.0037615811 -0.0028321687 -0.009811075 0.003415856 0.0070453305 0.0028080074
0.00035791885 1.6406906e-05 0.0005522296 -0.00041679837 -0.00028822423 -0.0001412594 3.1900458e-05 -2.6370626e-05
-3.8945276e-05 9.6817756e-05 0.00021347983 0.00014388024 -0.0043488536 -0.0018979736 -0.011784943 0.0014694902
0.0083495695 0.0032696724 -1.5573065e-05 -0.0005425978 -0.00014459179 -0.00012365553 9.989735e-05 0.00010782102
00000000: a6dd 9d3b 540a 8dbc e36c 613c 69a9 103c
00000010: 5ac3 e4bb 4521 40bb a84a 87bb 2423 24bc
00000020: a8db 37bc 79f9 8e3a 2fb8 dc3b 55f6 2a3b
00000030: 489c d83a 689d 01bc 900a a03b 64e7 123b
00000040: 2060 13bb 53f5 9bba 4404 62bc c597 1239
00000050: 4eaf 0fbd 383d 183c 53e4 c73c 206b 133c
00000060: fd83 083a d815 afbb 0231 c539 97ef ecba
00000070: ff08 4eb8 5c9a f0b8 626d 9b3b 6f91 90bc
00000080: 612e 633c 02f7 1a3c e39d e4bb b1e6 48bb
00000090: fe36 ddba 318a 413b 30f1 78bb 0f66 b33b
000000a0: 199a 693b 0ec3 b33a dc84 76bb e89b 39bb
000000b0: a2be 20bc 8edc 5f3b 84dc e63b 8c06 383b
000000c0: 0ea7 bb39 90a1 8937 80c3 103a bb85 dab9
000000d0: cd1c 97b9 081f 14b9 dbcc 0538 7d36 ddb7
000000e0: 2c59 23b8 a30a cb38 8ed9 5f39 8fde 1639
000000f0: d480 8ebb 6dc5 f8ba a215 41bc e99b c03a
00000100: a2cc 083c 0048 563b e7a2 82b7 1f3d 0eba
00000110: 909d 17b9 87a9 01b9 fb7f d138 f81d e238

exp_avg_sq f4 [12, 6]
2.0275643e-06 1.3421715e-05 1.3488228e-05 4.8194165e-06 3.9234787e-06 6.232025e-07 1.071989e-06 7.1750596e-06
6.9134253e-06 1.7463956e-06 3.186889e-06 4.654439e-07 2.1846563e-07 3.1142945e-06 1.6994879e-06 6.514455e-07
4.3030036e-07 7.7670194e-08 1.7446986e-05 9.508664e-06 0.000106337866 1.6283819e-05 5.1030704e-05 7.194663e-06
4.4069648e-07 1.3113683e-05 2.0785405e-06 8.753402e-07 8.717837e-07 1.7351147e-07 1.8377333e-06 1.1136543e-05
1.1937724e-05 4.059335e-06 3.304808e-06 5.5014857e-07 9.150747e-07 2.2645394e-05 4.898388e-06 1.5327665e-06
1.8036748e-06 3.0217967e-07 9.925876e-07 2.9940518e-06 6.661209e-06 1.5065077e-06 3.1306809e-06 4.845021e-07
8.324585e-07 5.558169e-07 2.9460236e-06 1.3480518e-06 1.3294541e-06 1.4221096e-07 3.3277078e-07 1.0663515e-06
2.0194198e-06 2.9824326e-07 1.0395439e-06 1.3142709e-07 2.0508446e-06 4.2039615e-06 1.2660274e-05 8.1603275e-06
6.599493e-06 1.1395031e-06 2.813826e-07 4.2361276e-07 1.2388955e-06 4.854657e-07 7.433717e-07 7.72237e-08
00000000: 4a11 0836 d42d 6137 804b 6237 79b6 a136
00000010: 6da6 8336 264a 2735 43e1 8f35 4bc1 f036
00000020: dff9 e736 b265 ea35 56de 5536 1fe2 f934
00000030: 6093 6a34 2cff 5036 f619 e435 fede 2e35
00000040: 0804 e734 a4cb a633 1e5b 9237 6787 1f37
00000050: b501 df38 3c99 8837 cd09 5638 af69 f136
00000060: dd98 ec34 d702 5c37 0e7d 0b36 ecf8 6a35
00000070: 8504 6a35 784e 3a34 09a8 f635 17d7 3a37
00000080: 2248 4837 6c35 8836 2bc8 5d36 ecad 1335
00000090: 74a3 7535 9df6 bd37 d55c a436 75b9 cd35
000000a0: cb15 f235 423b a234 0d39 8535 6bed 4836
000000b0: 5a83 df36 3633 ca35 b018 5236 bb0e 0235
000000c0: 1d76 5f35 7233 1535 4db4 4536 b5ee b435
000000d0: b26f b235 a7b2 1834 aba7 b234 8f1f 8f35
000000e0: 5e85 0736 3e1e a034 7586 8b35 671e 0d34
000000f0: 3ea1 0936 c10f 8d36 7667 5437 57e8 0837
00000100: 3771 dd36 07f1 9835 ee10 9734 e56c e334
00000110: 2048 a635 f350 0235 1d8c 4735 2ed6 a533

exp_avg f4 [12]
-0.016462384 -0.0063442225 -0.0060342676 -0.0032448308 -0.0015221873 -0.017067967 -0.002005484 -0.0031398488
0.00030982663 1.01972955e-05 -0.00087976194 -0.00024027031
00000000: 1fdc 86bc 32e3 cfbb 1bbb c5bb 3aa7 54bb
00000010: 2184 c7ba 1fd2 8bbc 706e 03bb ecc5 4dbb
00000020: 3a70 a239 0d15 2b37 d39f 66ba 12f1 7bb9

exp_avg_sq f4 [12]
1.3628445e-05 4.11379e-06 2.3406365e-06 1.5601387e-05 5.58069e-06 1.1351175e-05 1.0480975e-05 2.6106375e-06
1.2381817e-06 7.0818436e-07 7.891671e-06 5.44703e-07
00000000: baa5 6437 3009 8a36 d413 1d36 b9df 8237
00000010: c341 bb36 ed70 3e37 72d7 2f37 6932 2f36
00000020: 992f a635 0f1a 3e35 7866 0437 b537 1235

exp_avg f4 [4, 12]
-0.0018636365 0.009903957 0.0036657972 -0.009643319 -0.0026705877 0.0019724253 -0.0034432686 0.0026870016
5.013471e-06 -0.0032496282 0.0045123743 -0.00031907595 -0.012917118 0.009925709 -0.005931682 0.011196077
0.0037303271 -0.0034001528 0.0047064982 0.014321566 -4.2310523e-05 0.001776923 0.011122401 0.0011887616
-0.011066948 0.0044658124 -0.0062951315 0.0050650756 0.0010138595 -0.0047769225 0.0014287821 0.006420535
2.110503e-05 0.0012406242 0.0037058492 0.0003194778 -0.028949382 0.008810948 -0.019162899 0.026561333
0.006957356 -0.012992288 0.009532524 0.021532055 1.397251e-06 0.005881685 0.013154146 0.0019687822
00000000: 4445 f4ba 3544 223c df3d 703b 03ff 1dbc
00000010: 0705 2fbb ce43 013b 76a8 61bb 6818 303b
00000020: 6339 a836 b7f7 54bb 8adc 933b a649 a7b9
00000030: 52a2 53bc 719f 223c 8e5e c2bb c06f 373c
00000040: 8178 743b 19d5 5ebb f838 9a3b 00a5 6a3c
00000050: 9476 31b8 a4e7 e83a bb3a 363c 38d0 9b3a
00000060: 2552 35bc f355 923b 6447 cebb eff8 a53b
00000070: 7be3 843a bb87 9cbb f945 bb3a 5a63 d23b
00000080: b50a b137 719c a23a d5dd 723b 967f a739
00000090: 4127 edbc cb5b 103c 83fb 9cbc 2797 d93c
000000a0: 88fa e33b 9bdd 54bc 4e2e 1c3c fe63 b03c
000000b0: 2e89 bb35 26bb c03b 7d84 573c af06 013b

exp_avg_sq f4 [4, 12]
5.688889e-06 8.346151e-06 2.9904181e-06 1.310293e-05 2.5856283e-05 1.7719294e-07 2.716279e-06 1.8249344e-05
1.7322714e-07 9.083525e-06 4.8939223e-06 1.2613965e-06 1.6016036e-05 1.3246213e-05 3.0224342e-06 3.243028e-05
4.032611e-05 1.0055596e-06 1.5286687e-05 3.342505e-05 3.3654246e-09 2.199503e-06 6.9834474e-05 3.9104947e-07
1.5366299e-05 5.373436e-07 2.4034755e-06 6.338733e-06 7.805202e-06 8.1041804e-07 2.827356e-06 1.3629821e-06
2.7572538e-09 3.3032057e-07 1.2698014e-05 2.0162894e-08 5.6049594e-05 3.1590375e-06 2.4027333e-05 3.6247722e-05
8.216635e-06 8.196578e-06 4.9953683e-06 2.2059088e-05 2.3683093e-08 3.015985e-06 8.340151e-06 4.3701317e-07
00000000: 2fe3 be36 7206 0c37 feae 4836 a8d4 5b37
00000010: f2e5 d837 6d42 3e34 5149 3636 2b16 9937
00000020: 5000 3a34 7165 1837 7936 a436 414d a935
00000030: 2d5a 8637 0d3c 5e37 06d5 4a36 bf05 0838
00000040: d523 2938 c4f6 8635 e93b 8037 e031 0c38
00000050: 2d45 6731 2c9b 1336 1974 9238 6ef1 d134
00000060: e0e6 8037 f93d 1035 654b 2136 4db1 d436
00000070: 16f3 0237 818b 5935 9bbd 3d36 b5ef b635
00000080: 1f7a 3d31 ea56 b134 8e09 5537 ac32 ad32
00000090: cb16 6b38 daff 5336 4e8e c937 b208 1838
000000a0: 2eda 0937 0984 0937 e39d a736 880b b937
000000b0: ac6f cb32 3a66 4a36 adec 0b37 a29e ea34

exp_avg f4 [4]
0.0076697017 0.0042824345 -0.0010274663 -0.0034855052
00000000: 1f52 fb3b aa53 8c3b 0cac 86ba 136d 64bb

exp_avg_sq f4 [4]
2.6118749e-05 0.00025426986 5.267206e-05 9.88692e-06
00000000: 9619 db37 864f 8539 32ec 5c38 00e0 2537

exp_avg f4 [12, 4]
0.004765121 -0.015545848 -0.014162401 -0.033328537 0.0 0.0 0.0 0.0
0.004084406 0.0136872735 0.004290214 0.024858195 -3.100353e-08 -1.3364476e-08 5.732337e-08 1.3729116e-08
0.00013543747 0.0014071615 0.0015087653 0.0030969924 0.0018831948 0.00028608763 -0.0012213144 -0.0010744535
-0.0016080427 0.0008530189 0.0071480935 0.0041466826 -0.0041639027 0.00576959 0.0040685767 0.0131939305
0.005209864 0.009496528 0.0015161008 0.015115597 -0.00095530617 0.0035219232 -0.0036062044 0.00487493
0.0 0.0 0.0 0.0 0.0040009734 0.01546684 0.0068374216 0.028101936
00000000: bb24 9c3b 03b4 7ebc 6a09 68bc 8183 08bd
00000010: 0000 0000 0000 0000 0000 0000 0000 0000
00000020: 7bd6 853b 9640 603c ec94 8c3b 6aa3 cb3c
00000030: be28 05b3 9699 65b2 b633 7633 4add 6b32
00000040: 3804 0e39 8170 b83a c3c1 c53a e9f6 4a3b
00000050: 88d5 f63a 08fe 9539 8314 a0ba add4 8cba
00000060: f6c4 d2ba 219d 5f3a 8e3a ea3b e5e0 873b
00000070: 5971 88bb d40e bd3b b251 853b 5b2b 583c
00000080: 82b7 aa3b 5397 1b3c e7b7 c63a 69a7 773c
00000090: 836d 7aba 11d0 663b 1256 6cbb e0bd 9f3b
000000a0: 0000 0000 0000 0000 0000 0000 0000 0000
000000b0: 991a 833b a168 7d3c 730c e03b 0836 e63c

exp_avg_sq f4 [12, 4]
6.5433246e-06 8.266174e-06 6.223695e-05 5.189199e-05 0.0 0.0 0.0 0.0
3.1434447e-05 3.2648364e-05 5.377577e-05 3.0734333e-05 4.8130863e-07 2.9758064e-08 1.6925798e-06 9.8725444e-08
2.5087188e-06 3.425805e-06 7.813216e-06 9.095901e-07 6.1904484e-06 1.5549142e-06 3.6784547e-06 6.9862085e-07
2.0739008e-06 6.293739e-08 5.726008e-06 7.7667056e-07 1.6959477e-06 3.700432e-06 4.6022647e-06 1.0795042e-05
2.4079127e-06 4.9027644e-06 1.9994816e-06 9.184988e-06 2.2494085e-06 8.8247447e-07 2.4536046e-06 7.8983487e-07
0.0 0.0 0.0 0.0 8.16769e-06 2.113639e-05 1.2095626e-05 4.0827228e-05
00000000: bb8e db36 f2ae 0a37 3585 8238 9aa6 5938
00000010: 0000 0000 0000 0000 0000 0000 0000 0000
00000020: 7bd8 0338 eaef 0838 4b8d 6138 bde8 0038
00000030: 4733 0135 ad9e ff32 992c e335 e302 d433
00000040: 765b 2836 e2e6 6536 8215 0337 8e2a 7435
00000050: 8cb7 cf36 72b2 d035 5fdb 7636 dc88 3b35
00000060: 582d 0b36 3228 8733 0922 c036 657c 5035
00000070: 52a0 e335 f054 7836 276d 9a36 5a1c 3537
00000080: a097 2136 6d82 a436 d52e 0636 3919 1a37
00000090: 8bf4 1636 2fe3 6c35 9ba8 2436 0a05 5435
000000a0: 0000 0000 0000 0000 0000 0000 0000 0000
000000b0: f607 0937 0d4e b137 51ee 4a37 e73d 2b38

exp_avg f4 [12]
-0.008792223 0.0 -0.0028610956 1.6302214e-07 0.00029090888 -0.0025857426 0.0041161315 0.005319957
-0.0048430967 -0.0009019078 0.0 -0.0024100957
00000000: 420d 10bc 0000 0000 3881 3bbb 2f0b 2f34
00000010: 2185 9839 9075 29bb 9de0 863b 0953 ae3b
00000020: d7b2 9ebb 026e 6cba 0000 0000 b2f2 1dbb

exp_avg_sq f4 [12]
0.000119315744 0.0 0.00031882105 1.3004661e-05 3.520049e-05 2.6637645e-05 1.9824665e-05 9.159922e-06
1.0547188e-05 1.5521404e-05 0.0 6.1360624e-05
00000000: 2739 fa38 0000 0000 7027 a739 982e 5a37
00000010: 3da4 1338 e873 df37 254d a637 91ad 1937
00000020: d4f3 3037 f633 8237 0000 0000 bcae 8038

exp_avg f4 [6, 12]
0.02737634 0.0 -0.017695876 7.562902e-10 -0.0030419247 -0.0071130567 0.00060670305 -0.012212427
-0.000717206 -0.012479345 0.0 -0.017812392 -0.0018174221 0.0 -0.002998256 -4.600128e-09
0.0022336943 -0.0056794505 0.0001965774 -0.0011416223 -0.008552884 0.003593603 0.0 -0.00209829
0.05640349 0.0 -0.047628198 9.758585e-10 -0.014179206 -0.022923023 0.0010924945 -0.03610222
-0.0035245195 -0.03285718 0.0 -0.047870655 0.014408628 0.0 -0.0155712245 2.588437e-09
-0.0016827636 -0.011170997 0.0004242918 -0.0101363035 -0.008482914 -0.005976707 0.0 -0.014604921
-0.029678969 0.0 0.017814562 -5.7625965e-10 0.0043449267 0.008638705 -0.0005203884 0.013322365
-0.002306477 0.016946057 0.0 0.020845748 0.0014350096 0.0 -0.0020278634 -8.2790497e-10
-0.0011213624 0.00028918855 2.8854876e-05 -0.0018751953 0.00017173287 -0.0014684559 0.0 -0.0019008204
00000000: 5944 e03c 0000 0000 f1f6 90bc 31e3 4f30
00000010: 075b 47bb a514 e9bb 270b 1f3a a216 48bc
00000020: e102 3cba 2b76 4cbc 0000 0000 4beb 91bc
00000030: 9136 eeba 0000 0000 637e 44bb 270f 9eb1
00000040: 2c63 123b af1a babb 5820 4e39 7da2 95ba
00000050: 6521 0cbc a782 6b3b 0000 0000 7783 09bb
00000060: 5907 673d 0000 0000 c915 43bd f81e 8630
00000070: e74f 68bc 10c9 bbbc 0832 8f3a ecdf 13bd
00000080: a0fb 66bb 4095 06bd 0000 0000 0514 44bd
00000090: 2b12 6c3c 0000 0000 731e 7fbc 44e0 3131
000000a0: 2d90 dcba 8f06 37bc 7b73 de39 bd12 26bc
000000b0: ecfb 0abc 41d8 c3bb 0000 0000 7b49 6fbc
000000c0: 4f21 f3bc 0000 0000 d8ef 913c ab66 1eb0
000000d0: e35f 8e3b 5b89 0d3c ad6a 08ba 0c46 5a3c
000000e0: 4328 17bb 75d2 8a3c 0000 0000 b4c4 aa3c
000000f0: ef16 bc3a 0000 0000 e7e5 04bb a292 63b0
00000100: aefa 92ba 3b9e 9739 600d f237 1dc9 f5ba
00000110: 3113 3439 3479 c0ba 0000 0000 f324 f9ba

exp_avg_sq f4 [6, 12]
3.5639234e-05 0.0 2.4573685e-05 8.091514e-10 8.326292e-06 1.1605187e-05 3.6900153e-07 2.0842497e-05
2.7407086e-06 7.622648e-06 0.0 1.5462403e-05 0.0006282421 0.0 0.00042321347 1.8737738e-08
0.0004925176 0.00016651333 2.1843096e-06 0.00091719604 6.430168e-05 3.197267e-06 0.0 2.920927e-05
0.00025997957 0.0 0.00024079735 7.627974e-10 0.0001143674 0.00014160835 3.7810735e-06 0.00030936595
3.5722496e-05 4.7314865e-05 0.0 0.000106596715 0.00019103315 0.0 0.00011497685 1.2513661e-08
0.00014940563 4.2330623e-05 8.497183e-07 0.00027788721 1.5718893e-05 2.1909252e-06 0.0 9.2012e-06
5.9509814e-05 0.0 2.1177351e-05 1.1015242e-09 1.6720976e-05 1.1636869e-05 5.3680617e-07 2.3258299e-05
2.3009331e-06 1.4498627e-05 0.0 2.1437598e-05 9.154192e-06 0.0 2.3138218e-06 6.0394806e-10
5.8010737e-06 8.16001e-07 6.2889676e-08 7.282019e-06 1.9085655e-07 4.355697e-07 0.0 6.456795e-07
00000000: 567b 1538 0000 0000 9623 ce37 f86a 5e30
00000010: 27b1 0b37 e6b3 4237 2f1b c634 ecd6 ae37
00000020: 04ed 3736 0cc6 ff36 0000 0000 42b5 8137
00000030: 9db0 243a 0000 0000 c0e2 dd39 b9f4 a032
00000040: 4c1c 013a 159a 2e39 2796 1236 fc6f 703a
00000050: b4d9 8638 a190 5636 0000 0000 6e06 f537
00000060: de4d 8839 0000 0000 8c7e 7c39 18ad 5130
00000070: 88d8 ef38 b47c 1439 59be 7d36 6532 a239
00000080: bdd4 1538 f373 4638 0000 0000 ad8c df38
00000090: 1250 4839 0000 0000 ba1f f138 aafb 5632
000000a0: c5a9 1c39 298c 3138 3218 6435 64b1 9139
000000b0: 11dc 8337 cf07 1336 0000 0000 da5e 1a37
000000c0: 2d9a 7938 0000 0000 04a6 b137 7064 9730
000000d0: 0644 8c37 f93b 4337 0a19 1035 d11a c337
000000e0: bb69 1a36 213f 7337 0000 0000 e4d4 b337
000000f0: f594 1937 0000 0000 2847 1b36 1103 2630
00000100: d8a6 c236 290b 5b35 f70d 8733 1158 f436
00000110: 40ee 4c34 3ed8 e934 0000 0000 c252 2d35

exp_avg f4 [6]
0.009044206 -0.0073014065 0.012050462 -0.002222774 -0.010740139 0.00092108815
00000000: 262e 143c a340 efbb 4d6f 453c f6ab 11bb
00000010: 68f7 2fbc 2e75 713a

exp_avg_sq f4 [6]
2.7719698e-05 0.0026691805 0.00065811764 0.000769224 4.092104e-05 2.1451122e-05
00000000: 9987 e837 6bed 2e3b 8785 2c3a c0a5 493a
00000010: a2a2 2b38 eff1 b337
