lightning_logs/version_44/checkpoints/epoch=9-step=90.ckpt (torch, 19379 bytes, 24 tensors)

encoder.layers.0.linear.weight f8 [12, 8]
000000 74 9c 8e 7c 52 f7 ce bf 90 37 34 03 ce 0d cb bf
       -0.24192267496002595 -0.21135878712123857
000010 8e e1 2e 7d 2f b2 d7 bf 36 fc c0 f7 a0 dc cc bf
       -0.37025058007159195 -0.22548305604320412
000020 99 c4 f6 39 04 23 b7 bf bc 4b 08 dd 90 ac a0 3f
       -0.09037805953154744 0.03256657312535746
000030 b9 49 a2 77 ad b0 cc 3f 7c b7 d5 59 c1 4f c4 bf
       0.2241417726659856 -0.15868393789736135
000040 dd 21 5e da 3b 85 d0 bf 8b 6a 3c fe 94 d3 bd 3f
       -0.2581319458481895 0.11650973517354594
000050 e1 62 25 29 98 65 b2 bf 7a 4d 8a 15 d6 54 d7 bf
       -0.07186270718137734 -0.3645529947618439
000060 ed 30 de ef 08 fb cf 3f 44 43 2e 74 40 1e 92 3f
       0.24984847748090236 0.017693526354892755
000070 2b 30 a8 c3 ca 1c c8 3f 4f 26 f9 c6 f6 5a b1 3f
       0.18837866357387276 0.06779425008530747
000080 22 c7 71 d0 59 9f c3 3f 27 d7 6f d9 f0 58 c0 bf
       0.1533005016131535 -0.1277142583564281
000090 6c 95 69 07 96 93 ae bf 8e 7e db 0a 68 90 c0 3f
       -0.059719742207373055 0.12940693407198406
0000a0 13 3a e3 70 49 aa a7 bf 38 af 17 05 27 0e ca bf
       -0.046221060781693656 -0.20355689762743068
0000b0 0c ad a3 36 ab 80 c6 3f 02 f6 87 cd 55 3d c6 3f
       0.17580166023194754 0.17374680076311227
0000c0 af 3b 20 a1 f0 fd c0 3f a0 92 c1 b1 9c 4f d1 bf
       0.13274963252521618 -0.2704841361903991
0000d0 84 7b d1 e7 25 8b c7 bf 18 ff 30 6e f1 af ca bf
       -0.18393396205189216 -0.20849435692252238
0000e0 05 dc 43 c2 30 41 c3 3f 9d 39 f7 b0 4f 7f d4 bf
       0.1504269550857488 -0.32027046472367166
0000f0 a5 3b 6e 16 49 9e cd bf 8a f5 a7 8b 0b dc ce bf
       -0.23139299006694816 -0.24109024352211988
000100 9d 8a a8 83 62 18 c5 3f 89 fa b2 57 da f2 ca bf
       0.16480666569357974 -0.21053628236946434
000110 7d 23 31 7f 4d ea d6 3f a1 83 d1 0d 64 3f d0 3f
       0.3580507032498231 0.25386906957106176
000120 dc 6e 20 f3 63 87 c7 bf 50 2d d9 29 28 0a d5 3f
       -0.1838192879812287 0.32874492727997495
000130 ca ba 67 8f 2e 97 bd 3f 2f 6e ea 4a 39 59 d3 3f
       0.11558810235122077 0.30232078853598215
000140 fa 57 ab 76 aa b0 c0 3f a3 6e 84 f5 12 96 bf bf
       0.13039141458892783 -0.12338369840693501
000150 12 10 b7 cd f1 62 d2 bf 39 a6 78 3d bc 27 c6 3f
       -0.28728909577716977 0.17308762551810888
000160 ce 2d b3 e4 7a e4 bc bf f5 ac 11 e7 71 46 c6 bf
       -0.11286132892126163 -0.17402480871837836
000170 9f 4d 35 04 1d ac c8 3f cd cc 47 e4 14 9c c7 bf
       0.1927524824665001 -0.18445073267466797
000180 72 17 30 d9 bf 36 d7 3f ac 32 8a 22 fb 3b 8d bf
       0.36271663865806325 -0.014274560920307287
000190 d8 37 97 38 eb 3b d0 3f 68 42 29 24 88 02 d5 bf
       0.25365715528903143 -0.3282795289169713
0001a0 80 7c ee 87 dd 53 97 bf e4 e3 a8 94 1f 50 d3 bf
       -0.02278085844193045 -0.30176534192611215
0001b0 9b 92 39 7c f7 bb b5 3f f9 66 75 51 89 e1 d9 3f
       0.08489939482530888 0.4043906493658223
0001c0 da 53 28 a1 2b 6c c2 3f bb a6 71 4e 74 f5 b9 bf
       0.14392609948177332 -0.1014015857232619
0001d0 ef 4b f6 d8 83 06 c1 3f 8e ab 07 f3 d4 8b b2 3f
       0.13301132291653014 0.07244616444920224
0001e0 cd 8e 66 a9 6a 34 c1 bf 36 8c 93 0b c7 b0 d4 bf
       -0.13441212913050152 -0.32328964357856493
0001f0 d2 db c5 81 79 6d cb 3f d5 74 50 bf 9b 12 90 3f
       0.21427840076986954 0.015695985366723193
000200 20 dd e0 7c 80 81 da 3f cf 81 60 0b f7 81 c7 3f
       0.4141541690364239 0.18365371757046353
000210 6e b4 23 43 a3 35 b2 bf fe 89 53 dd a6 05 cc bf
       -0.07113094700953734 -0.21892247969579154
000220 34 8d 55 bb 90 af d1 bf 46 dc 25 36 bd cb da bf
       -0.2763406590876969 -0.4186852482593547
000230 e1 73 0b b6 94 cd ce 3f d1 b1 89 15 46 75 d4 bf
       0.24064883126166506 -0.3196578226404912
000240 f0 69 80 e6 4a 0e d4 bf 60 14 d2 d2 f3 69 cf 3f
       -0.3133723498337124 0.24542091173148872
000250 2d cb 9d 7c ab 0e c3 bf 11 a1 d4 36 fc 12 a8 3f
       -0.1488851889112878 0.04701984566992413
000260 9c ec 61 ce 75 20 cc bf b2 0c dd c0 06 13 c5 bf
       -0.2197406060912258 -0.16464313904916633
000270 86 63 27 af db 7f c5 bf 8c a6 ef 89 c6 39 b7 bf
       -0.16796442081865964 -0.09072533481198714
000280 aa 91 8a e7 d9 ee a6 bf 12 28 af f0 b4 9e d5 bf
       -0.04479103995734886 -0.3378116941863719
000290 d1 86 e3 11 ad d7 c2 bf b2 67 6f 79 bf 94 d2 3f
       -0.1472069108340777 0.2903288541689292
0002a0 20 a9 b4 df 06 3f bd bf 90 1a 94 29 f7 03 d2 3f
       -0.11424296342434959 0.281492033580812
0002b0 d6 dc b2 12 aa ca c7 3f f4 3e 97 5d ae 0a d2 bf
       0.18587232506772605 -0.28190192355849253
0002c0 66 8e a7 2c db 0d c5 3f cc 02 dd a4 76 a6 b5 bf
       0.1644853561439163 -0.08457128071769232
0002d0 d5 eb b5 bf be 20 cd bf b1 25 bf c2 1b 05 94 bf
       -0.2275618015372333 -0.019550737153428425
0002e0 f0 ed b6 ab 43 8f c6 3f 38 d9 7b 2a 9f 83 db 3f
       0.17624708065510175 0.42990855358893354
0002f0 d2 32 0c f1 5c 73 c7 bf fc f3 1f ed 92 a3 d8 3f
       -0.18320810098557289 0.3849837604209936

encoder.layers.0.linear.bias f8 [12]
000000 99 17 31 4d a4 6f 9e bf 92 61 b3 0f 61 5a d5 3f
       -0.029722754680072325 0.33364130528709623
000010 3b d1 ae 5b 94 ff c0 3f b8 16 ae 06 6a 23 d7 3f
       0.1327996680898965 0.3615365090594014
000020 f1 39 43 3a 9b 36 bc 3f 20 75 77 89 0d 26 d7 bf
       0.11020822689463451 -0.36169756340480497
000030 de 36 1d de d0 3b d2 3f d6 d4 16 3c bf d0 a1 bf
       0.2849008721430958 -0.034795738301377874
000040 87 9d 58 c1 a2 d7 cd 3f b6 38 b8 97 e4 3b 96 3f
       0.23314318123560104 0.021712848434667996
000050 3c 9f 8e a3 2c 1a d9 bf 69 46 31 14 d1 68 a3 bf
       -0.392222556804416 -0.03790906306734316

encoder.layers.2.linear.weight f8 [4, 12]
000000 8c 41 c3 b4 92 66 a9 bf c4 7d 52 90 1c 2e aa 3f
       -0.0496106954248062 0.051133053414783386
000010 15 4b 1c 33 f6 0d 41 bf 2f 00 06 d2 1d 24 d6 3f
       -0.0005204631945353334 0.3459543753633651
000020 df af 30 55 6d 77 a6 bf 42 57 c7 ba 1e 21 d4 3f
       -0.04387990631980165 0.3145214866648197
000030 06 db 11 b1 58 3c cb 3f b3 a2 b3 4f cf d7 b1 3f
       0.2127791275595074 0.06969924636690443
000040 12 d4 b6 65 8c e6 c4 3f 1b 28 cb 5b cd 1f d0 bf
       0.16328577963364005 -0.25194105114189974
000050 32 39 ea 86 a3 58 42 bf 33 50 f1 c0 3a c1 c6 3f
       -0.0005598829719291375 0.1777718965628324
000060 77 3a 48 3f 9e 7c d1 bf e6 12 e9 71 91 0a c3 bf
       -0.27323108844658556 -0.14876001417191914
000070 cf 84 7b 15 29 b4 bd 3f 08 7f 01 e7 83 40 ba bf
       0.11603028082346899 -0.10254692449370506
000080 03 ae 7e 87 4c 1e c1 3f d6 25 c6 bb 9c ce c6 3f
       0.13373715034445874 0.1781803051820094
000090 3f c1 29 9b be f7 d3 3f 8a 3a eb e0 7b 1f a9 bf
       0.3119961276306817 -0.04906832810012414
0000a0 b8 c1 92 6e b4 7d cd 3f 8e ca dd 5e 7c 85 b0 3f
       0.23039870642743465 0.0645368320090631
0000b0 b0 c9 84 eb dd f5 c1 bf 1f d6 9e ff 20 cc d4 bf
       -0.14031576156555792 -0.32495903933463127
0000c0 52 07 a3 e6 be d1 c7 bf a2 13 4b 80 4d ba d6 bf
       -0.18608843099178302 -0.3551210167755078
0000d0 e9 b1 85 f6 2a 9b c2 3f 13 01 10 af 39 c6 c8 bf
       0.14536034619540253 -0.19354935691809114
0000e0 4b e9 21 ff 8f 5e c7 bf 1f 61 0d e2 e3 3d 94 bf
       -0.18257331807746832 -0.019767342254767614
0000f0 30 1c e4 e9 0a 53 d4 bf 67 3b 22 e4 e3 a3 a6 bf
       -0.31756851998256064 -0.04421913299403606
000100 06 80 9f 68 8a 81 92 3f 72 0a 3e 4a 89 d8 c3 3f
       0.018072283397373233 0.15504566311945528
000110 3f bf d0 79 11 09 9e 3f 1c 1d a3 42 1c 00 b1 bf
       0.029331467685721476 -0.06640793444522725
000120 b6 03 8c 78 1f 6d b6 bf 2b c6 e8 e6 d1 32 d0 bf
       -0.08760258381882022 -0.2531018023465516
000130 f9 33 a0 f3 a9 d5 d2 3f c6 42 37 f2 41 87 d1 3f
       0.294291007915319 0.2738804688824924
000140 1f 6c 2c 08 9a c6 8d bf cc 10 11 73 70 16 c1 bf
       -0.014538958906589681 -0.1334972917412699
000150 2d 0f c3 d4 58 43 c3 bf cf af 6b 82 0e ec c2 3f
       -0.15049276722685914 0.14782887809940212
000160 02 ef 03 cb ff 37 d4 3f b6 75 de 6b f3 e9 cc bf
       0.315917919404214 -0.22588961379089562
000170 70 e9 1b 4e e2 65 c2 3f ad e1 b0 38 3b 07 d2 bf
       0.14373425306241527 -0.2816913655874725

encoder.layers.2.linear.bias f8 [4]
000000 75 91 1c 80 60 0f bd bf 15 f2 64 06 c2 df c3 bf
       -0.11351588371014094 -0.1552660495016346
000010 2d 7c 35 28 07 3a b7 bf 09 4b 73 2f 56 12 cc 3f
       -0.09072918636000855 0.2193095905009488

decoder.layers.0.linear.weight f8 [12, 4]
000000 bc 24 8f aa c7 1e aa 3f 77 cc 33 d2 e8 70 dc bf
       0.051016082353791486 -0.44439144637653477
000010 ec 68 12 3e e2 bd df bf 98 14 80 0d 12 a4 be 3f
       -0.4959645849391012 0.11969101743314281
000020 99 39 a1 cf 24 9c d4 bf d3 65 42 f4 09 ac d3 3f
       -0.3220302608141537 0.30737542012647373
000030 37 4d fc ea c4 d4 dd bf 59 dd ee 57 8a 14 d0 bf
       -0.4661114020138543 -0.2512536867829645
000040 8e 01 1e cd 28 23 d3 3f eb 1f e3 0c d5 c7 cb 3f
       0.2990209582422033 0.21703589562662215
000050 58 f6 fa 35 63 58 da bf 44 a5 e7 d1 18 38 df 3f
       -0.41164474746242297 0.4877988862850382
000060 ae 8c ef ba 16 f9 b5 3f f1 d7 36 49 6e 47 ca bf
       0.0858320433031163 -0.20530489516175934
000070 ec ad e1 e0 61 75 d8 bf 52 46 03 f8 9e 0a b5 3f
       -0.3821644493206964 0.08219331316947745
000080 c8 d4 7f 33 ce d8 c6 bf 44 af d2 c3 b1 1b c3 bf
       -0.17849137796989667 -0.14928266584080963
000090 29 0d 8b ef c6 06 e0 bf 86 0f ef fc f9 fb c9 bf
       -0.500827281816247 -0.20300221300396631
0000a0 be b5 dc f1 ce 3e 90 bf 4f 5b 69 24 4d cc c2 3f
       -0.01586459494790459 0.14685978200824443
0000b0 fe 86 3b 7a 81 be 7d bf 3c 01 b8 cc 72 f7 d9 3f
       -0.007261758586283083 0.40572805397097844
0000c0 ce 79 73 3b 4d 27 d2 3f 3d 94 2f 94 1b 85 9a 3f
       0.28364878469247123 0.0258983906932324
0000d0 29 25 5c 71 4a 0c d6 3f 6d 18 ac 86 c1 25 d5 3f
       0.3445001704245266 0.33042944099032107
0000e0 a6 0e e0 1d dc bc df bf de 7c 6e ff 25 f6 d9 3f
       -0.4959020892858724 0.4056487078141354
0000f0 c2 de ce 50 83 2a a4 3f f6 b6 8b 9b e9 aa cf bf
       0.039386848081844686 -0.2474033364773544
000100 05 5e c9 27 79 9b c2 3f c6 6f 9e 23 f7 13 db 3f
       0.14536966746048577 0.42309359053046725
000110 be 59 8c 29 79 f8 d2 3f fd bb fe 43 44 a3 d8 bf
       0.2964156060928892 -0.3849650062574595
000120 b8 cd 06 ed 71 66 ae bf 86 2b 52 0c 4b 5e b4 3f
       -0.0593753434981425 0.07956379938893407
000130 43 c9 3d 48 93 a7 c0 3f 03 5d 31 f1 71 a2 d3 3f
       0.13011399295244006 0.3067898612402617
000140 95 67 d9 53 79 20 bf bf 5a 0e a4 e6 fe 3b da 3f
       -0.1215892629346896 0.40991184733886643
000150 a6 c5 5c 7c 21 f9 d1 3f 0c dc 9b d5 7c eb d3 bf
       0.2808307375408624 -0.31124802456128076
000160 36 83 87 5f 51 28 d3 bf eb de 1a 75 fd 31 d8 3f
       -0.2993358071235436 0.37805115161925923
000170 e9 bd 36 b3 20 ea e2 bf e6 66 a7 72 d4 2c cd bf
       -0.5910800457258435 -0.2279305991967739

decoder.layers.0.linear.bias f8 [12]
000000 8b e3 45 40 a7 3d ca bf 26 e1 04 aa 80 e1 db bf
       -0.20500651014642943 -0.43563858607696415
000010 ee a6 cf ac 60 d0 c8 3f 0c 1e b0 8b a4 35 c2 bf
       0.1938591808132552 -0.1422620470113859
000020 e2 54 a7 95 75 d7 c8 3f 8b 57 ca 7e 4c 55 ce 3f
       0.1940752964716586 0.23697811308801095
000030 52 49 3c e8 c8 56 ad 3f b2 8b 3c 55 ef 39 b0 3f
       0.05730274042993479 0.06338401633233451
000040 0f cd 52 10 e3 04 d8 bf 12 90 24 a1 47 6f e0 3f
       -0.37529827684484557 0.5135839602776306
000050 69 29 c5 09 09 20 c4 bf 5e d3 b8 34 0f 12 c5 3f
       -0.1572276399331927 0.1646136290961761

decoder.layers.2.linear.weight f8 [8, 12]
000000 5f 35 40 75 5e 6c cb bf 1e a0 99 a5 46 a7 b1 3f
       -0.21424465870988293 0.06895867865534952
000010 c9 12 d9 4a 8c cf c0 3f 93 22 55 6e 05 c3 c1 bf
       0.13133386282620155 -0.13876407515842412
000020 12 47 de 89 e2 36 d5 bf e8 32 1e d8 89 38 d2 3f
       -0.33147490943621094 0.2847008333708758
000030 12 06 f5 09 73 a9 cd 3f f5 56 5b ba 75 4d bd bf
       0.23173368440807046 -0.11446319389082389
000040 d1 45 bd f0 0b ea ca 3f 30 82 3e c3 24 dc b7 3f
       0.21026753668642909 0.09320287481978862
000050 67 7a 44 b8 56 a4 be bf 10 45 75 fb 85 8a c2 3f
       -0.11969511030881962 0.14485239771105585
000060 e2 da da ae 88 d3 ce bf cb 59 e1 a8 d2 4f a8 3f
       -0.24083050287091284 0.04748400031592189
000070 0f 2d 20 fb 4f 52 b4 3f 2b 48 9f dd 56 1d b4 3f
       0.07938098793981772 0.07857268248270148
000080 1c 2f 39 e5 b8 a2 bf 3f 07 7a fe a2 36 28 be bf
       0.12357669445298963 -0.11780110816332733
000090 14 dc bf 08 43 5b 93 bf 3c e8 e7 24 ca 2d 8f bf
       -0.01890282383825699 -0.01522405552985983
0000a0 06 12 b1 1f 5e a1 c0 bf fe eb 6e cd d6 b7 c6 3f
       -0.12992455050893187 0.17748532324716843
0000b0 ce 69 8c af 91 d9 af bf 2a 5e 75 a8 47 66 d7 3f
       -0.06220679538656136 0.3656176705457904
0000c0 95 88 ca 26 d2 d1 d3 bf a8 e8 0a 26 e3 cb ce 3f
       -0.30968145168493183 0.24059714658307496
0000d0 ba 15 c0 99 e3 b1 c1 3f 9e 07 b7 9d 20 66 b3 bf
       0.13824124343243033 -0.07577709055388346
0000e0 4b a1 16 78 aa 2e d0 3f bf 71 8d 96 8b d9 d0 3f
       0.25284826018698386 0.26327790930170275
0000f0 d3 03 b8 89 74 cb c0 bf 9f 64 ab 80 a5 4f c8 bf
       -0.13120896076728047 -0.1899306181210578
000100 c3 94 a0 7e be d5 c3 3f 6f 2f 89 14 a8 09 89 3f
       0.15496045287105717 0.012225449682908366
000110 2c 85 9e 76 91 b7 b8 3f 2a 1f cc 2c 3f fa b0 3f
       0.09655102869011917 0.0663184627884418
000120 a5 20 00 1a 21 61 c7 bf 6a a5 7c 41 70 3c c5 3f
       -0.1826516510921056 0.1659069366226434
000130 98 4b ea 46 c4 a1 c6 bf d1 dd 20 10 36 d1 cc bf
       -0.1768117281213477 -0.2251346186401251
000140 7d 76 a1 be e2 7a c4 bf fb ee cf 11 4a 4c c0 3f
       -0.16000017460003227 0.1273281657193975
000150 7f 91 83 12 48 24 a5 3f e4 1e da c7 3a b1 c2 bf
       0.04129243112564306 -0.1460336185302743
000160 ea 6a 7b db c8 cb a1 bf 70 b8 15 67 56 2b a5 bf
       -0.03475787810540061 -0.04134626396522456
000170 c0 31 31 f6 d9 9c a4 3f 3c ed 0a 25 c1 2c d2 bf
       0.04025918131137329 -0.28398159615945295
000180 89 dd 60 b2 3c 11 c2 3f de ef 53 59 5a e6 c8 bf
       0.14115103444940427 -0.19452981340134462
000190 8f 37 ab 4d a4 ac 96 3f 7b 59 a7 04 aa b5 d3 3f
       0.022142951241043426 0.3079628987738016
0001a0 ab 66 ab 93 cb 11 c0 3f 6d 3f c5 24 a5 7e cf bf
       0.12554306707788973 -0.2460524014991238
0001b0 c3 02 f5 55 5d 27 cd bf 83 6e d2 b6 69 7c af 3f
       -0.22776381203768467 0.06149607044900753
0001c0 23 ae 61 63 52 56 d0 bf f8 e1 5c c6 a4 3b 9a 3f
       -0.2552686663172798 0.025618147475343606
0001d0 b2 22 26 89 f0 aa c3 bf 7f d6 1e eb c0 f2 95 bf
       -0.15365416237570667 -0.021433843947042504
0001e0 db 91 22 68 94 4c 93 3f 9d 7d 53 fc 72 97 c5 bf
       0.018846815925501175 -0.16868436165439685
0001f0 41 42 f4 67 4d b5 d1 bf 63 64 1f b7 45 a0 c1 3f
       -0.27669081832667436 0.13770362321409654
000200 d5 4b 45 e1 9d ba c2 bf ee 42 22 3d 95 8d d6 bf
       -0.1463200902895482 -0.3523915383348556
000210 0f cb 57 37 6e f6 d4 bf 63 6d 4d 13 8b a1 bb bf
       -0.32754092602333257 -0.10793370457888822
000220 8f 20 fe cd aa bb b6 bf b9 82 89 24 47 bb 97 bf
       -0.08880107430570859 -0.02317534599785873
000230 f2 45 1e 50 bd 12 c8 3f 71 62 39 b7 a5 14 82 3f
       0.18807188426994476 0.008828444150979583
000240 e4 d2 47 73 3a 38 c7 bf c9 37 c4 8c ec 10 af bf
       -0.1814034521954887 -0.06067599504795813
000250 5b cf 47 90 df b8 b0 3f 07 50 ad 84 5f 2c ac 3f
       0.0653209426162084 0.05502604002563776
000260 1d 64 f7 73 ab ce aa 3f 1a bb 14 a8 40 b9 c9 bf
       0.05235801497082824 -0.20096595961646174
000270 9b 9d 8d 74 fc cb d0 bf f9 85 a3 8c 0e 4e a5 bf
       -0.26245032674929697 -0.041611151378457785
000280 92 3a 92 1c 09 ee b0 bf 1a 3a fd 93 71 e9 bc 3f
       -0.06613213489093031 0.11293706763283531
000290 79 27 50 18 68 c5 b5 bf ec 88 ec 6a 0f a1 b1 3f
       -0.0850434359892044 0.06886383400390955
0002a0 73 8f 07 87 78 10 c0 3f c2 58 ac 7b cb e6 b9 3f
       0.12550264924277207 0.101177900022182
0002b0 26 5a 76 fe 9c 34 9d 3f 59 c6 51 89 bf cc bd 3f
       0.028521016150614774 0.11640545942807402
0002c0 0b 91 1f 50 54 e0 c5 bf d9 b0 7d 9d a5 62 c6 bf
       -0.17090848839064451 -0.17488546552647824
0002d0 4d 8c 15 54 53 00 c6 bf 4b c1 e7 bf c0 b5 b4 bf
       -0.17188493352577652 -0.0808983295935423
0002e0 b6 35 48 73 55 e8 cc bf e3 f4 92 7e b8 b3 b8 bf
       -0.22584026459700873 -0.09649231996714351
0002f0 37 eb 81 e9 cb ec c2 3f 1f 27 12 af b7 86 cc 3f
       0.1478514566586797 0.22286125229248285

decoder.layers.2.linear.bias f8 [8]
000000 f3 c2 84 bc fe 76 bf 3f 86 f4 fc 6a fd 07 d7 3f
       0.12290947058205486 0.35986266563470115
000010 6f 03 45 68 0e d3 a8 bf f4 db 30 e0 59 5c d3 bf
       -0.048485231617184314 -0.30251166242254546
000020 4e bd 5e 82 4a fb c8 bf a8 59 cd b2 13 ec c6 3f
       -0.1951687943050992 0.17907949667524048
000030 a3 01 60 80 c3 10 94 bf a1 13 97 33 6c d5 b2 3f
       -0.019595198355092724 0.0735690713837145

exp_avg f8 [12, 8]
000000 8a 20 ef bd de 3e 4a 3f a4 c0 d8 ad bd fc 53 bf
       0.0008009517294960283 -0.001219926103100768
000010 e6 23 78 60 f8 a9 6a 3f 7c 23 40 a9 1e 9d 67 3f
       0.003254876242639859 0.0028825377321521333
000020 0b 7b ba 60 01 87 72 bf a7 60 d6 72 78 b9 56 bf
       -0.004523282415589201 -0.0013869930511188151
000030 7b 7b 4c 64 fc 0e 11 3f 31 a5 6c a2 98 f5 30 bf
       6.507316090818657e-05 -0.00025877930095193335
000040 6a 81 5f d5 f8 06 60 3f af f0 8f cc 47 5c 90 bf
       0.00195644951143963 -0.015977022037973295
000050 7a 98 07 43 f0 61 55 3f bf 4b 95 64 52 15 7a 3f
       0.0013050886446932795 0.006367990348127016
000060 0b 5e 34 90 2f e3 76 bf 57 bb 80 2c 6b 3a 60 bf
       -0.005587755006920779 -0.0019809811820076617
000070 28 e6 77 d1 7d ea 21 bf c4 3c 35 8f 04 cf 46 bf
       -0.0001366880976403789 -0.0006960651648259199
000080 81 52 39 91 98 c1 5b bf c4 6e 52 0b 06 b1 2c bf
       -0.0016941060938694687 -0.00021889876157820374
000090 d1 34 09 ae c2 cc 62 bf 4a 76 5c b1 2e 4b 56 3f
       -0.0022949030247106724 0.0013606983170072634
0000a0 fd f1 6f be 7e 8b 6d 3f dc 93 ff de 2b 75 6d 3f
       0.00360655550639266 0.0035959107262777245
0000b0 d9 3d 32 8d 77 7b 2e bf 2b ab 76 a5 a3 b8 1a bf
       -0.0002325614392231074 -0.00010193346803670222
0000c0 79 4a 0c 1a a5 b1 4a bf 03 21 02 2b 37 5a 56 bf
       -0.0008146339569939507 -0.0013642824888240874
0000d0 b8 5f b8 39 68 2d 4f bf 31 85 97 18 f5 fb 6a 3f
       -0.0009514578736711165 0.003293970778699994
0000e0 84 d0 09 09 33 32 54 3f 46 37 12 d0 3d a0 67 3f
       0.0012326715842876654 0.002884026268083514
0000f0 3d dd 7b a0 4a c2 26 3f c4 c6 ba 05 e0 c8 33 bf
       0.00017363701794413127 -0.00030189008041779327
000100 68 1b 71 b7 0b 08 56 bf 91 be 97 5f cf e4 6d bf
       -0.001344691698038603 -0.003649144197645012
000110 9b 3f 57 ac 64 b4 6d bf ea 38 dd 64 5f 4c 66 3f
       -0.0036260572694359456 0.0027219641841958924
000120 8a b4 fc 16 45 24 5c 3f 60 a3 76 f9 f6 c6 37 3f
       0.0017176317887319958 0.00036281137132703443
000130 2a 1f b7 70 98 0f 2e bf f7 3b 35 45 e4 1f 25 bf
       -0.00022934661715922597 -0.0001611677313157753
000140 85 95 c1 05 e3 f4 f7 be 67 85 85 87 81 bd da be
       -2.2846783722126687e-05 -6.375374248386362e-06
000150 a2 39 8e 15 39 75 06 bf fd 6f 6f 16 3b 06 00 3f
       -4.283504922063536e-05 3.056400128517709e-05
000160 40 be 1d b1 96 cc 17 3f 7d 6c 98 0c fd 76 26 3f
       9.078664541361473e-05 0.0001713928125333975
000170 4b d5 89 d0 7f af f3 be cc 96 41 f5 62 88 c1 be
       -1.8773597761219824e-05 -2.0900678610488457e-06
000180 e2 59 ba 5e b8 5e 69 bf 7b b7 6f 12 7e 4e 91 bf
       -0.003096923921314985 -0.016900987506168513
000190 79 5e 97 27 8f 3c 82 bf 9b d3 72 79 99 2b 82 3f
       -0.008904570003252165 0.008872221964660023
0001a0 3b 4a ac 0a a7 54 69 3f f6 0e b0 99 f5 5d 4f 3f
       0.0030921232731853355 0.0009572457523749623
0001b0 d2 d0 17 b8 15 38 41 bf 98 69 f6 d0 21 cd 42 bf
       -0.0005254846620901482 -0.0005737700575310532
0001c0 eb 20 ee b7 0a 43 4b bf cd d1 0c fb a2 8f 57 bf
       -0.0008319666229548416 -0.0014380542381334683
0001d0 9a 41 eb 0c 4d 39 5d bf d1 77 a0 0e 6b 9d 50 3f
       -0.0017836811490959726 0.0010140939216465204
0001e0 6d 9d 5e 1d 19 3e 5e 3f 6e 83 f3 79 d8 4b 55 3f
       0.001845860029314607 0.0012998212840147033
0001f0 0e b1 49 78 33 19 09 3f 3f 30 66 11 96 2a 0a bf
       4.787147830573507e-05 -4.9908356390821345e-05
000200 00 c7 d1 2e 79 bb 73 bf 3a de 38 53 52 1f 4c 3f
       -0.0048174604136066446 0.0008582260110818259
000210 fa 66 67 70 11 6a 80 bf 70 a9 80 a2 aa e7 6f 3f
       -0.008014808886332759 0.003894646903082215
000220 97 c6 df b5 8a e0 82 3f e8 3f f6 7c af b5 78 3f
       0.009217342067106045 0.0060326437955069215
000230 fe a4 23 d6 fb e9 2c 3f ea a8 7c 0c fd 8c 2d bf
       0.000220596305616362 -0.0002254542252953581
000240 4a 08 dc 8a 7d c0 5b 3f 39 36 59 5d 8e 11 70 3f
       0.0016938425064272505 0.003922992813000508
000250 9c a0 a0 ad 60 d3 70 3f 95 ec 53 b3 38 49 65 bf
       0.004107835435242315 -0.0025983912879588658
000260 34 c1 8b 0c 10 7b 71 bf 40 8a 11 8d e3 c7 6a bf
       -0.004267752353129862 -0.003269142566339839
000270 9b 9f c9 6a 70 f6 27 bf 32 12 c0 3b 23 95 22 3f
       -0.00018282053260354207 0.00014177374930581102
000280 e9 15 a8 08 e4 7d e1 3e 96 32 28 55 4f 75 b6 be
       8.340721497477953e-06 -1.338615522986053e-06
000290 56 f7 68 0d 7d b0 c8 3e a6 d3 2b 33 77 cb 94 be
       2.943206804744307e-06 -3.0986648195891875e-07
0002a0 2c d5 e4 18 35 29 e0 be 41 a8 b9 88 9d c8 f6 3e
       -7.70614931564858e-06 2.172818544324989e-05
0002b0 0c dc 40 57 22 5d e8 3e 05 4e 64 55 b9 ee c3 be
       1.161756765820194e-05 -2.3761410076290835e-06
0002c0 52 70 16 15 1d 26 4e 3f d2 38 2a 17 22 b2 62 bf
       0.000920070839288476 -0.0022822061376422753
0002d0 e1 72 8a 18 aa bb 6f 3f 48 db bf ce 86 fd 6c 3f
       0.0038736650643172864 0.0035388596497755477
0002e0 19 1b 2f 95 db 0c 75 bf 5d 30 46 b1 ce b5 5b bf
       -0.005139215226285265 -0.001691295478937447
0002f0 11 e9 59 b2 87 e3 0c 3f 23 cc b6 22 80 b5 38 bf
       5.510099280754873e-05 -0.0003770292120989801

exp_avg_sq f8 [12, 8]
000000 b5 e7 11 73 09 3a 6f 3e 5d a2 4c 7b 8a 28 72 3e
       5.8164273738497065e-08 6.764517375120792e-08
000010 59 eb 4d d8 72 0e ab 3e 6f 25 ff 90 9d e8 a3 3e
       8.063447444051028e-07 5.933241329299664e-07
000020 cd bb 50 b4 95 06 b9 3e 43 c0 a5 67 76 49 90 3e
       1.491649258566119e-06 2.4269466049938953e-07
000030 0c a9 a1 31 40 44 51 3e f1 0e 7d 0b ca 54 69 3e
       1.6080778577148053e-08 4.718305163115102e-08
000040 57 74 e1 97 4f 94 89 3e 69 af 0f b9 0b f0 fa 3e
       1.9058093053944412e-07 2.5689772488776174e-05
000050 3e af ff d6 3e 19 ba 3e c5 73 43 cd 2a f1 d7 3e
       1.555598682752076e-06 5.708231771897733e-06
000060 d8 91 ce 0d 95 3f c3 3e 95 10 54 b5 3c 83 a4 3e
       2.2945842900903763e-06 6.113244618581924e-07
000070 93 0b c9 82 19 b0 78 3e ab 76 59 4f 8f 6b 88 3e
       9.196955436892759e-08 1.8194433664107867e-07
000080 9d 1c b2 64 23 64 81 3e 15 97 2c b8 d3 c1 5f 3e
       1.2957427695059436e-07 2.957613843691422e-08
000090 1b 2f 5e 10 c1 76 93 3e 95 a7 83 80 76 2f 7e 3e
       2.900344643278763e-07 1.1244938502891785e-07
0000a0 e7 86 11 58 62 de b0 3e df 0b f5 5f 93 4e b7 3e
       1.005452162660222e-06 1.3892016566686479e-06
0000b0 5f cc 26 5c d6 e5 50 3e d7 2f 4d e6 f8 16 54 3e
       1.573730457901967e-08 1.8710024102336977e-08
0000c0 6e ee 36 82 41 15 80 3e a5 19 f8 4a 73 cb 7b 3e
       1.1982791746171257e-07 1.035434304894925e-07
0000d0 6f e0 7a d7 dd 4c 94 3e 92 73 11 2f f0 5d b1 3e
       3.02497447073324e-07 1.0351506569896064e-06
0000e0 d5 fd 6f ea 66 17 a9 3e b2 a9 2b 06 46 a3 b4 3e
       7.477824127687905e-07 1.2301079769747435e-06
0000f0 f9 4a 1b e3 12 1d 5c 3e 9a 2e 36 4e 1f 2a 78 3e
       2.6182801876973457e-08 9.001992711513664e-08
000100 42 c5 45 26 99 eb 6e 3e 92 28 f5 74 db 6b 96 3e
       5.759355728691031e-08 3.3410366469657254e-07
000110 9d 6a c2 87 38 b9 98 3e 40 57 d9 87 47 4f 8c 3e
       3.684091394257643e-07 2.1092359141449694e-07
000120 b1 57 95 c9 de 64 7e 3e f3 3a e8 cb 5b 2a 4e 3e
       1.132265644761808e-07 1.4046888427630952e-08
000130 9e 9f c4 b4 93 f4 3d 3e 1c 16 3d 0f ab bc 27 3e
       6.974530130766384e-09 2.7633487667448512e-09
000140 de 60 02 e2 30 e7 1d 3e 27 65 37 ec 6c ca e7 3d
       1.7405889022093313e-09 1.7310030328235443e-10
000150 8a 28 34 af 31 80 2d 3e d9 4c 58 63 93 24 08 3e
       3.434340251099896e-09 7.026501105694045e-10
000160 de 5b 76 77 68 01 61 3e c5 a3 ff 45 63 34 67 3e
       3.167521261530518e-08 4.322200974888809e-08
000170 58 16 87 9e a5 14 0b 3e f7 04 c4 0d 25 c6 e0 3d
       7.881507088075638e-10 1.22046934089267e-10
000180 fc 3e 21 0d 4c 59 9a 3e 1d 6d 9a a6 9a 8e f0 3e
       3.9262796492233615e-07 1.57900307501238e-05
000190 19 4b 93 e7 db f6 c7 3e a6 ba 39 03 5e 69 d2 3e
       2.8567663404669805e-06 4.3896653100077896e-06
0001a0 b3 d0 d8 89 a1 2b a8 3e 0d 14 69 2b 1a e3 9f 3e
       7.203350553320833e-07 4.751550863084317e-07
0001b0 67 9b 77 a1 4f 69 75 3e cd a5 bf 91 70 39 7a 3e
       7.976357384969268e-08 9.769340575363465e-08
0001c0 df e3 ea 42 d6 26 54 3e a7 22 4d b0 bd aa 69 3e
       1.8767739524557766e-08 4.780843280164482e-08
0001d0 d9 9c 32 3b d4 0b 76 3e 12 c4 f5 a6 0f 1a 5c 3e
       8.212852158300383e-08 2.61718419691816e-08
0001e0 3a c8 12 b1 38 37 7d 3e 3f 12 d0 d0 db ff 77 3e
       1.0883699654259787e-07 8.940491032233897e-08
0001f0 be ce 6d 6b 8d 90 20 3e c7 b6 b6 07 85 29 08 3e
       1.9283799795109516e-09 7.032121685542876e-10
000200 79 dc 13 7b c7 69 b1 3e 96 9f ac c7 4c e2 d9 3e
       1.037907605470362e-06 6.171222703334111e-06
000210 6f eb d6 83 d5 0a c1 3e 96 88 45 78 59 e1 b0 3e
       2.0316029167555167e-06 1.0061425835474416e-06
000220 1f a5 4f e0 4a d2 d3 3e af 28 95 34 a2 a8 ce 3e
       4.725803141683305e-06 3.6548048326967264e-06
000230 46 d2 9d 89 d8 7a 73 3e c2 21 a0 7e 99 46 6a 3e
       7.256815806411016e-08 4.894245349279681e-08
000240 cd fd b0 82 44 9a ab 3e 63 51 ec 74 22 87 c5 3e
       8.226218190034954e-07 2.566322030781385e-06
000250 9b 41 20 15 11 65 ce 3e c0 38 1f 6b 5b 03 b6 3e
       3.6233415494706453e-06 1.3120838215810682e-06
000260 27 26 d4 d2 f7 b6 ca 3e 69 90 91 e0 d6 30 c0 3e
       3.1846426710210605e-06 1.930091233991574e-06
000270 38 4e ac 57 ae f6 5f 3e 82 ed 39 a0 e4 0e 44 3e
       2.9768420155177806e-08 9.3403160824146e-09
000280 72 42 51 2c 44 e6 d4 3d 85 ca 07 7d 13 a0 a6 3d
       7.603185709442308e-11 1.0288794041747128e-11
000290 c7 70 a7 df 29 6d af 3d d1 0a e3 95 95 b8 96 3d
       1.4291081329780643e-11 5.1661646679178324e-12
0002a0 8a a2 1f 6e 86 dd d0 3d 25 33 99 00 16 5e ff 3d
       6.135572217903565e-11 4.5645753895265777e-10
0002b0 6d 58 a0 77 74 a3 eb 3d 09 8d 8f 9a b1 c0 ab 3d
       2.010965246868531e-10 1.262047136069778e-11
0002c0 4b 1c 7e 3a 1b 84 6d 3e d4 98 39 fb 82 32 8d 3e
       5.497790961290985e-08 2.1753691968883803e-07
0002d0 cf bd f6 ff ec cb ac 3e b9 06 84 20 97 af a7 3e
       8.582051122442524e-07 7.058948208462247e-07
0002e0 46 0d 1e 45 04 d7 b6 3e 55 80 34 f4 02 dd 82 3e
       1.3613646569772798e-06 1.4054273309808493e-07
0002f0 91 1e c2 d3 d5 5e 56 3e dd a1 63 66 d5 13 5e 3e
       2.083410531640733e-08 2.8011831431595168e-08

exp_avg f8 [12]
000000 fa 63 77 5f f1 4c 62 bf d7 09 63 63 16 74 88 bf
       -0.0022339548411136586 -0.011940169246717964
000010 2a 7d ef 94 f1 55 64 bf d3 30 a4 5c c3 2c 6d bf
       -0.0024823873895766417 -0.003561383787319719
000020 62 9f 45 56 ee 63 69 bf 5b 6a 45 ec 77 0d 0b bf
       -0.003099408628418774 -5.1598760850442216e-05
000030 b2 0b a9 ba 74 90 8a bf 7c a0 7f 3e 07 07 5e bf
       -0.012970840403004977 -0.0018327303641801065
000040 2e 81 10 7c f5 e6 69 bf 8c db e2 0c 7c 5a 71 3f
       -0.0031618876096361137 0.004236683436991916
000050 8c cf fa 20 d0 b7 ef 3e 0e 9b 3c a2 50 9e 6e bf
       1.5124330303130177e-05 -0.003737599838035683

exp_avg_sq f8 [12]
000000 fa 2f 77 b3 f4 bf 95 3e b0 eb 5d 78 25 0b f2 3e
       3.240976868795327e-07 1.720766115152387e-05
000010 a5 16 77 ad 29 ac 95 3e 72 d9 b2 ce bb 94 b2 3e
       3.2294557913664803e-07 1.1075133510680873e-06
000020 7a ae 79 12 1d 14 91 3e 1c fb 6e 32 76 44 44 3e
       2.544905037596466e-07 9.437756865835454e-09
000030 52 58 b0 40 d3 e3 e3 3e 31 c5 ee f2 69 85 77 3e
       9.484263520359027e-06 8.76231040908718e-08
000040 15 ec 6f 90 8c 0e c6 3e 1b 73 4e b5 b6 b1 cc 3e
       2.6293793129439967e-06 3.4206144996065566e-06
000050 7b 73 b5 85 9d 30 f9 3d fa 6f 5e 7c 72 53 a7 3e
       3.665613417913547e-10 6.951679487501681e-07

exp_avg f8 [4, 12]
000000 92 6f 17 46 cc b5 3e bf 13 7d c2 34 89 6c 70 3f
       -0.000468599673778541 0.0040097579586977515
000010 16 74 5e 31 50 c2 4e bf 71 b0 5e e9 5e 8b 52 bf
       -0.0009386912886274492 -0.001131861388311808
000020 75 df 0a ee 8b 96 1b bf 62 c2 78 0e 8a 19 27 bf
       -0.00010524014534041093 -0.00017623720417382903
000030 21 b1 e0 fc c6 cc 6b 3f 20 2f d2 ee a8 50 54 bf
       0.003393543861440432 -0.001239933942346512
000040 4b 8c 75 b7 25 8b 71 3f 33 0e aa 3a ed 49 5b 3f
       0.00428309186040383 0.0016655747118940023
000050 b3 69 48 15 77 5b d1 3e d5 df 33 d1 91 2a 42 bf
       4.138299420942287e-06 -0.0005543910978351672
000060 36 ce 17 50 f5 cf 65 3f 90 60 fd d9 33 43 5d 3f
       0.002662638785062811 0.0017860418665432178
000070 0f f1 a9 c6 62 df 53 bf c3 f8 89 53 2d 55 56 3f
       -0.0012129273042367804 0.0013630812301524276
000080 28 7d e4 58 9a 89 67 bf 75 30 66 d4 2a 13 20 bf
       -0.0028732313723051246 -0.00012264154265684597
000090 e3 ee 5e 06 20 d8 92 bf 61 f1 25 f2 4a 66 6a bf
       -0.018402576817364468 -0.003222605112737906
0000a0 3e 46 ac ab d3 a1 92 bf 13 6b 01 6d 41 82 64 bf
       -0.018195445397458203 -0.0025035169456207955
0000b0 fa da ba 1b 02 a1 e0 3e db 03 62 86 bb 55 6f 3f
       7.929295740322681e-06 0.0038250601383542477
0000c0 17 05 76 b4 c8 f0 61 3f 26 8e e8 05 04 c9 99 3f
       0.0021900100725252935 0.02518087659895065
0000d0 19 70 1a f5 03 98 51 bf c3 b7 4f fb 2b 43 74 3f
       -0.001073840965921674 0.004946872523744208
0000e0 8a 72 f1 e5 71 c3 51 3f f9 6a 3e 05 e5 d5 2f bf
       0.0010841953551540572 -0.00024288578663064062
0000f0 1d 20 c2 20 67 4c 99 3f 6d 81 a9 da 49 1e 3e bf
       0.02470551621857463 -0.0004595690067272982
000100 96 69 51 48 4d 1f 9a 3f 65 2b 0c 9b 62 64 83 3f
       0.025510032214108934 0.009468813282656982
000110 5c bb d8 63 a2 6c 1f bf 3c bf b3 a6 df 03 65 3f
       -0.00011987439298686897 0.002565323656760569
000120 4e d3 90 7c 49 f3 4c 3f 50 32 bb b3 6e f4 72 3f
       0.0008834942647185458 0.004627640180569673
000130 cb 12 c9 31 f2 a1 66 bf f2 05 1d eb 5a 73 65 bf
       -0.00276276877983359 -0.002618482184431719
000140 52 16 47 d4 32 b2 67 bf 5e 2d ce 75 7f 69 3c bf
       -0.0028925888784410514 -0.0004335342580865288
000150 90 db 72 62 67 55 90 bf a3 3c c8 44 6c 29 77 bf
       -0.01595078981764747 -0.0056547383542372735
000160 b0 37 44 4c 8c 88 90 bf 52 15 0f 7b d2 ad 60 bf
       -0.01614588942998524 -0.0020360098792219583
000170 93 1d 02 9c 89 78 0a 3f a9 22 92 81 3c 41 60 3f
       5.04891390856146e-05 0.001984232116744107

exp_avg_sq f8 [4, 12]
000000 2e 0d ae b1 02 c3 57 3e 4b c9 94 85 53 17 c1 3e
       2.2129863368463487e-08 2.0374200572433415e-06
000010 a9 c1 ec 5c 23 0c 7a 3e 10 02 86 48 cb df 85 3e
       9.703418089586747e-08 1.6297545736219953e-07
000020 0f 1d 8d 53 0e 70 5f 3e 8a 4b 0b 4f 2e d6 55 3e
       2.9278657029464786e-08 2.033695961878975e-08
000030 f1 43 b2 28 12 3c be 3e e7 b3 4e 50 d9 26 8a 3e
       1.8021256973680593e-06 1.948457467848253e-07
000040 46 b6 00 99 74 a8 d1 3e a0 77 82 ca b8 67 b2 3e
       4.210002217103881e-06 1.0970332287372665e-06
000050 25 96 51 d8 18 91 d5 3d ea 9c 11 f6 04 7e 5b 3e
       7.845950805690012e-11 2.5604165347292738e-08
000060 02 4f 49 8b 2b 24 9b 3e 19 a3 34 96 b7 b1 bd 3e
       4.044367288059563e-07 1.7699126935810258e-06
000070 78 3a 1b f0 0b 9a 72 3e 56 a3 fb 6e 52 3b ad 3e
       6.929689890941247e-08 8.711733396590678e-07
000080 eb 24 dc c0 f4 ac 8f 3e b4 1d 31 14 e5 01 35 3e
       2.3600168257861857e-07 4.891166863083822e-09
000090 ec c6 0a 9f 03 69 e8 3e 77 ac 6e c3 a1 8d 96 3e
       1.1639695885665384e-05 3.3606960719396204e-07
0000a0 af a9 ae 7a d4 51 ed 3e 11 cc 1d c9 6a c9 bd 3e
       1.3980697834832559e-05 1.7754307788081116e-06
0000b0 e4 6d 46 e7 01 bb dc 3d a4 09 10 d1 5f d4 a6 3e
       1.0452094209125824e-10 6.803747131248043e-07
0000c0 ce e0 bb 7b 70 ae 9d 3e ac 98 02 d6 63 b1 0c 3f
       4.422873833699539e-07 5.472742009375703e-05
0000d0 a9 d4 35 e0 18 ff 90 3e 23 72 1c e5 12 bb cf 3e
       2.532671887414361e-07 3.7826010065424256e-06
0000e0 ff 05 ce 0f 24 16 76 3e 14 42 8e 35 1d 41 61 3e
       8.227857857363108e-08 3.213873495729833e-08
0000f0 1c c1 13 1b 7f 85 06 3f 88 09 2e e5 0b 57 95 3e
       4.295629640605118e-05 3.1799115623328416e-07
000100 d2 c3 90 c5 47 3b 12 3f 17 b1 85 ae 10 a4 ed 3e
       6.954789695680301e-05 1.4133872767906536e-05
000110 e0 eb 1e e8 1a ed 26 3e c0 a3 07 69 71 4e b0 3e
       2.668959998291994e-09 9.719382526535099e-07
000120 75 8e fe 9a c8 72 71 3e 69 db 83 6d 5e 2b cb 3e
       6.500025650932022e-08 3.2388460163806107e-06
000130 9d 0c 46 7c a4 25 a6 3e 82 e1 e6 2b c6 56 b2 3e
       6.600332587567514e-07 1.0930872772330193e-06
000140 9f dc e1 91 27 ef 91 3e d3 97 ac 4d 9d 14 80 3e
       2.6724036839655755e-07 1.1980924948770862e-07
000150 b5 7f 0a 13 93 8f f1 3e 75 b2 04 7a 94 55 c0 3e
       1.6747320105481046e-05 1.947199919657891e-06
000160 e7 70 a7 e6 34 f0 ef 3e be c9 e9 db 03 4b ad 3e
       1.52293716454911e-05 8.730002532666152e-07
000170 ac 24 3d 42 22 57 08 3e c4 f9 ed 4c f6 ee 8a 3e
       7.083978997825966e-10 2.0066980829440356e-07

exp_avg f8 [4]
000000 d5 04 db 2e 0d bb 7c 3f 8d cb 24 fa fe 68 85 bf
       0.007014323707779731 -0.010454170235424854
000010 ac 08 29 76 13 6e a4 3f f3 26 f2 7d 26 7f 76 bf
       0.03990231339823089 -0.005492353781969095

exp_avg_sq f8 [4]
000000 75 53 7a 2f 88 66 e0 3e ff 79 f7 9c 38 21 e5 3e
       7.820375216108344e-06 1.0075459527078728e-05
000010 85 91 d1 6c b1 4e 27 3f fc 42 72 6a 07 6c d1 3e
       0.00017782131036193582 4.15372566133008e-06

exp_avg f8 [12, 4]
000000 b3 4c b1 c6 ed f2 3f 3f 21 4e af 4f be 6c 7d 3f
       0.0004875021465455362 0.007183783915894832
000010 1a 1f 56 0d 77 59 3d 3f d2 22 70 3e a8 1a 6a 3f
       0.0004478374151735007 0.0031865392697948214
000020 00 00 00 00 00 00 00 00 00 00 00 00 00 00 00 00
       0.0 0.0
000030 00 00 00 00 00 00 00 00 00 00 00 00 00 00 00 00
       0.0 0.0
000040 d9 15 82 cc 65 13 7c bf a0 ec fd 40 00 2a 81 bf
       -0.006854436542317066 -0.008380891784091127
000050 92 0b 44 a6 a4 fb 80 3f ee 7c 80 eb c8 8b 79 bf
       0.008292471241025532 -0.006236824840043937
000060 57 10 a1 1c 12 b2 61 3f d1 67 b4 b1 e3 4b 86 3f
       0.002160106062577365 0.010886935101144165
000070 cb 30 9b a7 e1 c8 5d 3f 40 96 ea 84 98 4a 79 3f
       0.0018179134043974528 0.006174655702726961
000080 2e c0 52 65 a8 2d 74 bf c3 f3 9c e4 b4 29 77 bf
       -0.004926355167455694 -0.005655008900984751
000090 36 40 e9 c7 da f8 88 3f ed 39 7d e0 5c ed 78 bf
       0.012193402505687439 -0.00608574180644304
0000a0 38 0d ca 68 b6 52 83 bf 08 94 ff cd 16 80 94 bf
       -0.009435105393328244 -0.020019871066228517
0000b0 54 18 b6 ab c8 a0 79 3f c2 86 34 f4 32 d4 8a bf
       0.006256851072413101 -0.013100050046492288
0000c0 7c da 2b 61 65 98 69 bf 1c 92 ae ad 0b e6 6b bf
       -0.003124425894721226 -0.0034055927366856264
0000d0 34 f1 df 18 27 3e 62 3f 23 08 98 a5 29 98 6e bf
       0.0022269023529572166 -0.003734666196352003
0000e0 ec 75 33 ae 47 4f 5a 3f 82 22 9c 87 6b 52 66 3f
       0.0016058158878914331 0.0027248478116955197
0000f0 76 0d b9 c6 02 95 77 bf 8c 6d af b7 9a 35 67 3f
       -0.005757342190523365 0.002833177740723952
000100 a5 2b 05 e2 14 e3 7c be 0b cc 5a b0 7b dd 78 be
       -1.0761260016871548e-07 -9.262997132767924e-08
000110 f8 cb 04 8e e8 91 5c 3e 38 7a 37 e9 98 78 38 be
       2.660784381817923e-08 -5.697618060916796e-09
000120 c3 50 0b 90 45 0b 5c bf bc c5 d4 83 08 0f 5c bf
       -0.0017116717646575165 -0.0017125685838660218
000130 a9 8f cb 1c 32 21 78 3f 7d ba c7 a4 ff 9c 68 bf
       0.005891032935981069 -0.0030045502701264147
000140 02 7c d5 d2 23 b0 6d 3e 95 46 fa ed d6 44 64 3e
       5.529829603489172e-08 3.775377676902719e-08
000150 b6 5c 61 a2 53 10 55 be 92 94 f6 1b bb 54 35 3e
       -1.961717024269843e-08 4.966505817205542e-09
000160 12 82 a8 45 80 22 7c bf 0f 43 5f ca 6a cc 7e bf
       -0.006868840277576742 -0.007519166136220403
000170 98 72 91 65 8b 38 92 3f e8 8c 80 ad 99 9e 7c bf
       0.01779382522032566 -0.006987190536196432

exp_avg_sq f8 [12, 4]
000000 f9 f2 7b da c1 b9 a7 3e 29 69 17 c6 a2 78 c5 3e
       7.070784037995569e-07 2.559570518851106e-06
000010 13 52 88 2c 82 bd bd 3e df 62 38 4d 75 f4 98 3e
       1.7726580826593702e-06 3.7185720922062395e-07
000020 00 00 00 00 00 00 00 00 00 00 00 00 00 00 00 00
       0.0 0.0
000030 00 00 00 00 00 00 00 00 00 00 00 00 00 00 00 00
       0.0 0.0
000040 a0 59 2e 9f 4f a4 d6 3e 9c eb 29 f2 fd 14 ca 3e
       5.398235304895921e-06 3.1092166790625083e-06
000050 ee 83 7f fc 94 59 d1 3e 5d 00 e1 87 26 c6 c0 3e
       4.136545562944702e-06 1.9996196547745043e-06
000060 3d d7 7a 6a 8e 7e b0 3e 6e 12 5f c5 d1 ed d3 3e
       9.831405040466975e-07 4.751439595500173e-06
000070 c9 6b cc 11 bc 6d c1 3e 28 f9 9a 4b e8 a3 b5 3e
       2.07765709915378e-06 1.2898602065738072e-06
000080 e1 46 58 f7 c4 7b c4 3e 5c 35 d6 7a 3f 1f b4 3e
       2.4418204087683046e-06 1.1993683800311022e-06
000090 16 71 5e fb 1a 46 d9 3e 2b 33 cf 04 10 11 c0 3e
       6.025755217378234e-06 1.9152940126998495e-06
0000a0 0f e8 4e c6 a5 b5 e1 3e 92 64 b9 fd 45 8a f5 3e
       8.444576630729115e-06 2.0542269210420206e-05
0000b0 ba 83 a2 59 fc c3 cd 3e 3c 97 42 46 fd be db 3e
       3.548332370221079e-06 6.615174332013682e-06
0000c0 eb 4b 6d bf 31 a7 b5 3e 75 a6 3c 45 2b 3e b4 3e
       1.2906255030988933e-06 1.2065677496654634e-06
0000d0 c9 76 0a ca 23 8f a0 3e e8 4c e4 5b ac 18 b6 3e
       4.935008242783479e-07 1.317046880060241e-06
0000e0 3d 36 90 49 3b a0 b3 3e d9 4f a5 04 fb 2d b4 3e
       1.1697950752538859e-06 1.2027985741473999e-06
0000f0 b4 13 6f c3 42 89 b5 3e 6a 0f c9 8e 73 0b b8 3e
       1.2836560594347702e-06 1.4331777108558848e-06
000100 16 49 1a 31 35 e7 48 3e 71 48 7e 56 cb d0 42 3e
       1.1596435398127872e-08 8.761697769901568e-09
000110 b1 59 0b f2 e3 12 08 3e f9 55 23 38 46 d6 c7 3d
       7.006395221712281e-10 4.335926671287188e-11
000120 12 fa ec 84 05 8b 94 3e 6d 55 09 4c 99 be 90 3e
       3.061153436740323e-07 2.495128903814068e-07
000130 04 72 27 cc 3f cf b5 3e e1 9a dc 2a 0a c7 9f 3e
       1.2999515069867708e-06 4.7352163333668275e-07
000140 82 23 e5 eb 58 a1 38 3e ad 5d 12 f3 da 3d 33 3e
       5.734680007183816e-09 4.480039271111706e-09
000150 dd 6c 53 d7 a6 7f f7 3d 33 0a d7 d6 e9 be b9 3d
       3.4195021061760716e-10 2.3415628314354225e-11
000160 4a f9 e2 a2 0a cf d5 3e cb f4 42 a2 ad 2e ba 3e
       5.1996126286243275e-06 1.5605888928204612e-06
000170 86 c2 09 05 ac 0d eb 3e f9 f8 a5 0a e4 ef c5 3e
       1.2900069266326126e-05 2.6151029334779016e-06

exp_avg f8 [12]
000000 d9 11 2b 0c 1f 4f 64 3f 00 00 00 00 00 00 00 00
       0.0024791342160332794 0.0
000010 e7 a4 a5 ba b3 64 8d bf aa 97 88 72 43 36 42 bf
       -0.014352230199352124 -0.0005557851155273315
000020 8e d9 a5 34 8c 7e 9f bf e3 d8 36 ae 68 71 8b bf
       -0.03075617858254414 -0.013399904076191798
000030 ea 56 f6 9c 51 63 74 bf ce 1c 96 33 02 ab 90 3f
       -0.00497753028993995 0.016277346037466604
000040 fe b8 f9 9e 43 64 78 be 6c 1d b7 75 c4 9d 91 bf
       -9.086600249463373e-08 -0.01720339745022896
000050 28 1d d2 9a 5f 93 43 3e 7e 02 27 30 1b 96 a5 bf
       9.115635213906497e-09 -0.04216084444806699

exp_avg_sq f8 [12]
000000 39 79 54 b1 d2 13 d0 3e 00 00 00 00 00 00 00 00
       3.833158890102691e-06 0.0
000010 95 4a 65 20 38 36 02 3f cb f8 6b b4 f7 59 d6 3e
       3.473624024032566e-05 5.3289975940879945e-06
000020 ad 29 7f 40 35 77 15 3f 9e 53 6a 42 a2 29 f9 3e
       8.188498043107976e-05 2.3996955997935083e-05
000030 a3 f8 c9 f3 ee e9 fa 3e d1 61 e9 2a 87 37 15 3f
       2.5667002079725884e-05 8.093607423498925e-05
000040 a0 75 fc 63 7d 1f 42 3e 0d d3 8c a4 4e 34 f4 3e
       8.439182796642625e-09 1.9268345826622827e-05
000050 3f 41 cc 78 5d 22 33 3e 26 f7 49 c6 71 ce 25 3f
       4.4550371280631465e-09 0.00016636980867084614

exp_avg f8 [8, 12]
000000 2a cd c4 d2 0d 6a 40 3f 00 00 00 00 00 00 00 00
       0.0005009238716752508 0.0
000010 fb 5d c9 71 c2 ea 76 bf ae 37 9a 08 f3 01 48 bf
       -0.00559497790216978 -0.000732654255630063
000020 df ec 83 0c 8a 9f 61 3f 54 88 66 16 0a 10 52 bf
       0.002151269556745924 -0.0011024569044839798
000030 4b f3 13 e3 31 c0 40 bf f2 df 4e d8 ea 25 51 3f
       -0.0005111926640491785 0.0010466378600835183
000040 83 c5 5f 8c da 2a 21 be 14 3a 56 62 6f a8 5b 3f
       -1.9985480796271517e-09 0.0016881072745921254
000050 cf 4e a5 27 35 e2 fe bd ad ea f3 42 1c ce 53 bf
       -4.4941587226480174e-10 -0.0012088085166498772
000060 53 c9 3b de 3b ed 3a 3f 00 00 00 00 00 00 00 00
       0.000410868755564971 0.0
000070 5d 3f 3c 99 a4 f5 a6 bf a2 85 72 2f 2b 70 2d 3f
       -0.04484285707996947 0.00022459532894906787
000080 9f 14 a7 c3 44 0b a0 bf b1 39 60 07 63 4b a1 bf
       -0.03133597267473331 -0.03377828087842561
000090 c9 3d fa c0 9d 8f 64 bf b7 49 a5 0e 3a 40 71 bf
       -0.002509887803007625 -0.004211642061209656
0000a0 08 c1 ab c1 46 a9 04 be 65 25 b3 2b fa e1 ad bf
       -6.013211069197981e-10 -0.058364694437453214
0000b0 ec c6 83 9a 6c 2e 20 3e c2 90 9e 85 af ce a1 bf
       1.8837564460718746e-09 -0.03478001123520037
0000c0 8c 08 7c 53 90 3f 74 3f 00 00 00 00 00 00 00 00
       0.004943431638596018 0.0
0000d0 57 e8 28 d3 87 58 b0 bf 66 06 81 3e 08 f4 53 bf
       -0.06385086922901571 -0.0012178497800196197
0000e0 26 32 ab 56 0e 4e 97 bf ca 2d 0c ba ed 62 a3 bf
       -0.02275869754775974 -0.03786414047325655
0000f0 14 a3 07 c8 2a 29 73 bf 8f d1 25 80 fd bc 5b bf
       -0.004677931894982352 -0.0016930080024311932
000100 ba 78 e5 18 e2 b0 49 be 95 0c 19 9b e0 ac aa bf
       -1.1963280835313544e-08 -0.05210019963535576
000110 71 c2 d7 8b b1 1a 50 be 68 35 8a d5 4b 94 a4 bf
       -1.4998271726952044e-08 -0.04019391042411763
000120 94 b6 3d 32 cd b3 6a 3f 00 00 00 00 00 00 00 00
       0.003259564184125827 0.0
000130 87 5a 34 fa e8 76 78 3f 95 ea 8c 5d d1 3e 6f 3f
       0.005972776477639947 0.0038141335648139243
000140 56 31 9f db 3d 51 47 3f bb 65 95 d3 f0 47 65 bf
       0.0007115890541569507 -0.002597780575041423
000150 6b 5f 80 67 2a de 4a bf b4 52 72 f4 f9 ce 5a bf
       -0.000819941239572392 -0.0016362610784074584
000160 63 95 39 24 0f cc 39 3e 66 78 86 44 f1 76 7e bf
       6.006356803935571e-09 -0.007437651111471854
000170 f4 53 b7 a1 c1 ff 26 3e 14 28 8e d7 86 08 63 3f
       2.677441613669651e-09 0.0023234017975868413
000180 78 6e e4 ca bb 3d 81 bf 00 00 00 00 00 00 00 00
       -0.008418528680116596 0.0
000190 b7 bf 5e ef 36 16 99 3f 12 a5 88 aa df 1b 6e bf
       0.02449880443572258 -0.0036754005889362363
0001a0 94 74 94 c1 e6 7b 70 bf f4 5a 38 43 06 e6 90 3f
       -0.004024411574644966 0.016502473690787903
0001b0 60 a9 2c 97 44 18 74 3f 23 2c 2a 25 a2 e5 50 3f
       0.004905956203211964 0.0010313113640758674
0001c0 6d e8 dd c5 49 52 49 3e 67 ce 87 c6 55 14 92 3f
       1.1791213501889047e-08 0.017655697100009606
0001d0 c2 57 d1 44 6a 42 66 3e a7 9e 05 92 99 01 86 3f
       4.146142682712132e-08 0.010745239037262279
0001e0 0e 86 0d a9 eb b0 66 bf 00 00 00 00 00 00 00 00
       -0.0027699091664750214 0.0
0001f0 dc e3 a2 95 5d dd 60 3f aa 17 1c 59 cc 6d 58 bf
       0.002058680326709068 -0.0014910216891066233
000200 9e f7 31 da fc 5a 81 bf a6 c3 17 6e bf 72 5c 3f
       -0.008474326523579209 0.0017363423761447088
000210 a9 29 e7 bd c3 1c 6c 3f 73 4d 9c d5 dd 76 21 3f
       0.0034316847879598167 0.00013324220599795662
000220 6a a4 c1 91 6a ce 67 3e 12 c1 03 3c 4e a3 53 bf
       4.4342714584246213e-08 -0.0011986030586364532
000230 e7 5e ec 62 5a 6d 67 3e 50 17 dd f8 3b b3 73 bf
       4.363648674880184e-08 -0.004809602991206877
000240 18 6e e5 bd 9a cb 28 3f 00 00 00 00 00 00 00 00
       0.00018917335450906246 0.0
000250 9f bb fc ab 45 f2 47 3f 80 10 a2 22 5b e4 06 bf
       0.0007307853884180765 -4.366305468386875e-05
000260 a4 38 2a 31 89 76 64 3f d3 b4 60 0e 6b 28 4d 3f
       0.0024979285747753367 0.0008898279891177647
000270 3c ae 60 19 31 5e 45 bf e3 5d bc a1 70 f5 3e 3f
       -0.0006520976774075436 0.00047239303397492003
000280 ae 06 1b 1d 8b db 37 be e9 1d 6e 1d 35 fb 65 3f
       -5.55477837484956e-09 0.002683261623534373
000290 2a 7b 2f 3d 76 31 ed bd c2 84 1b 5a 09 3d 61 3f
       -2.1240856174006886e-10 0.002104299798575044
0002a0 c3 17 88 bb f4 d4 1e bf 00 00 00 00 00 00 00 00
       -0.0001176142094508606 0.0
0002b0 a3 88 e3 31 98 dc 3a bf 6f 9f e8 b9 b4 e0 27 bf
       -0.00040987697310702393 -0.0001821728337330036
0002c0 8c 99 d4 e5 fb 6b 5e bf a5 a2 53 7a f8 eb 39 3f
       -0.0018568000735484673 0.00039553467133982895
0002d0 a1 06 bc e6 9a c6 43 3f 53 70 51 d6 10 69 35 bf
       0.0006035095552478672 -0.0003266969782254093
0002e0 f7 04 d6 79 50 70 19 be 66 c7 c5 0b 14 c6 29 3f
       -1.480728851463488e-09 0.00019663805677399697
0002f0 f3 aa 58 1f 5e 59 1e be 03 4d 7f 7e 89 13 64 bf
       -1.7665496820444496e-09 -0.0024507222587800705

exp_avg_sq f8 [8, 12]
000000 b2 b2 a6 0e 02 0c 78 3e 00 00 00 00 00 00 00 00
       8.958170708587602e-08 0.0
000010 d1 95 f2 6a 8e 39 d1 3e 89 bf af 91 ab b7 6d 3e
       4.1067193442870365e-06 5.53530858578584e-08
000020 e0 6d 85 ed 7d 85 ad 3e 7a 34 4a 8a 07 04 a8 3e
       8.798078523874292e-07 7.157248274755958e-07
000030 75 25 6e 3f 2e 0d 81 3e 0f be d5 5a 70 1c 79 3e
       1.2704347770687143e-07 9.354609772026097e-08
000040 63 5e 5a f1 e1 bc 97 3d 52 05 95 12 f3 1d c0 3e
       5.397355974605274e-12 1.921294956603336e-06
000050 6f 41 ef f2 06 f4 93 3d 59 01 a6 f2 d5 9e a6 3e
       4.536839476887609e-12 6.741420055939394e-07
000060 51 64 30 17 b9 24 77 3e 00 00 00 00 00 00 00 00
       8.621606699433364e-08 0.0
000070 e8 4f f4 3d 09 41 24 3f 49 90 f2 e2 f8 95 70 3e
       0.00015452611749167057 6.178702770476588e-08
000080 c6 df 2a f2 fc 0f 09 3f f9 5f ca eb 00 3f 21 3f
       4.7802836225796115e-05 0.0001315773605667923
000090 98 d6 69 80 f2 11 fe 3e 6c d1 09 c8 cd 0d e4 3e
       2.8677088290205045e-05 9.562454807745319e-06
0000a0 d0 78 68 dc dd d0 64 3d 15 c6 fb 1b 25 90 40 3f
       5.916230443781651e-13 0.0005054646680646169
0000b0 43 cc 9a 45 46 f9 a8 3d 3a 9a 1b ef c4 b4 08 3f
       1.1356736883497687e-11 4.7123203229127973e-05
0000c0 c6 ba 8b 8f 4c 04 c1 3e 00 00 00 00 00 00 00 00
       2.028559830661569e-06 0.0
0000d0 73 31 83 df 6b 64 2d 3f fd 28 19 a2 65 ec a0 3e
       0.00022424523172616013 5.043573915811125e-07
0000e0 0a 90 66 a4 47 cd f8 3e cf ef ce c6 c7 3d 1c 3f
       2.3652910636010083e-05 0.00010773212279863098
0000f0 cc 09 59 f2 e5 d1 f5 3e d8 21 16 13 65 f4 db 3e
       2.0809092481374918e-05 6.664912051042704e-06
000100 7e e9 05 db 4e 1e ea 3d 76 0a e2 43 d8 7f 36 3f
       1.9003630397739903e-10 0.00034331350241970733
000110 23 b6 09 68 69 e5 f6 3d 4b fb c7 ad 3b 67 0d 3f
       3.331826828652374e-10 5.6082257035675204e-05
000120 c8 5d 5d f2 5a 31 ab 3e 00 00 00 00 00 00 00 00
       8.104084130250872e-07 0.0
000130 e2 24 15 18 99 50 f8 3e 5f 79 b2 c7 34 00 a8 3e
       2.3188434629593873e-05 7.152797389003575e-07
000140 e2 e1 34 aa 78 3c c0 3e b6 57 40 92 70 2c d3 3e
       1.935507798169821e-06 4.571340728195684e-06
000150 3a b9 23 af 50 6c bc 3e 8e 5c d3 c1 f4 51 98 3e
       1.6941491450223548e-06 3.623983405148854e-07
000160 70 af a1 3a ac a1 ca 3d c7 de bd 31 4e f0 f1 3e
       4.844247861262091e-11 1.7107670927412105e-05
000170 50 82 1b ba 7f 6a b3 3d a6 a3 36 1e cc 85 c3 3e
       1.765875955159555e-11 2.327280741194461e-06
000180 89 8e 6f 38 ab 61 d0 3e 00 00 00 00 00 00 00 00
       3.905658451739223e-06 0.0
000190 49 f1 76 bc 86 b2 fb 3e af 63 16 95 cb c3 b1 3e
       2.6414268885708863e-05 1.0588660937836584e-06
0001a0 fe 36 8f 9b d7 94 da 3e 27 44 2e 76 e5 74 e9 3e
       6.3375031737597406e-06 1.2138665345580859e-05
0001b0 73 2e db 50 23 2a c8 3e cd 0d c3 21 a1 14 b6 3e
       2.880644962432495e-06 1.3161053465251247e-06
0001c0 77 6f 85 eb 96 1c ea 3d 05 1a e6 9d a8 ae fb 3e
       1.8998746131924235e-10 2.6399860752169077e-05
0001d0 de 89 95 01 75 97 2c 3e 05 bb 62 06 c6 7e d3 3e
       3.328503705880385e-09 4.6480200578808165e-06
0001e0 aa 54 11 dc e2 ab 94 3e 00 00 00 00 00 00 00 00
       3.0802831580318657e-07 0.0
0001f0 cc 0e 77 31 7f 99 f2 3e 76 27 83 a4 a7 0b 80 3e
       1.7737958015974842e-05 1.1954849044585142e-07
000200 b2 a0 b9 1d b2 1f be 3e a6 e8 ad 6e 87 57 dc 3e
       1.795519088876703e-06 6.7572379788221494e-06
000210 55 5b 81 f7 41 bc cc 3e e6 00 7f b9 4f 11 aa 3e
       3.4255244223778893e-06 7.768756970991352e-07
000220 30 7b 75 09 76 c9 26 3e 87 21 5b e9 08 d6 f4 3e
       2.652750973462174e-09 1.987082813206941e-05
000230 8e 57 b8 3a 9f dd 29 3e b4 ca bb 49 c7 f0 b2 3e
       3.01116505840919e-09 1.1289442118338462e-06
000240 7d 6b aa 33 0c 85 76 3e 00 00 00 00 00 00 00 00
       8.389248488465176e-08 0.0
000250 f8 f6 f4 0c eb 81 b6 3e 8b 82 46 d7 ab 7e 66 3e
       1.3415511153769921e-06 4.1899847955154604e-08
000260 63 ea 15 6f c9 23 aa 3e ca 4f 1b a9 c1 96 ac 3e
       7.79026519889228e-07 8.520153917620487e-07
000270 cc 7e 91 da fc b6 84 3e 39 7a 91 fa 80 d9 80 3e
       1.543372552285498e-07 1.255394839497864e-07
000280 73 f9 43 81 c4 0a c6 3d 4e fb 90 15 53 9b ce 3e
       4.0094275259401824e-11 3.6486073154146553e-06
000290 17 ef 2a 80 9f 93 b7 3d 7d ea aa da 42 ac a1 3e
       2.1442840567807986e-11 5.266933177019704e-07
0002a0 56 b1 6a 54 69 24 88 3e 00 00 00 00 00 00 00 00
       1.7987364682915105e-07 0.0
0002b0 0c 60 66 bd 46 02 bb 3e e1 0d af 3e 2b fd 71 3e
       1.609855407735605e-06 6.70140278122412e-08
0002c0 19 62 83 47 7b fe ae 3e a1 28 14 0a ee 6e b0 3e
       9.236952243320495e-07 9.795021827540927e-07
0002d0 ed f2 67 1e 13 20 91 3e 5c 7a 16 a8 d3 74 88 3e
       2.551867325504724e-07 1.8221404122789256e-07
0002e0 17 42 ab 41 ea dd 8e 3d 9e f1 92 ad b0 2d d1 3e
       3.5091552173090217e-12 4.095668111489193e-06
0002f0 88 85 7e 81 b2 07 b0 3d be 5e 05 85 c3 24 a4 3e
       1.457926149024425e-11 6.003263113658209e-07
