lightning_logs/version_1/checkpoints/epoch=9-step=70.ckpt (torch, 14835 bytes, 24 tensors)

encoder.layers.0.linear.weight f4 [12, 6]
-0.13568294 0.078701556 -0.29662335 -0.3047112 0.33091348 -0.009413045 0.25952852 -0.24127406
-0.34927008 -0.40345466 -0.3350212 0.25604615 0.21622254 0.16271758 -0.032318722 -0.12536785
-0.34321475 0.35779658 -0.30064872 -0.12501335 0.26536202 -0.20166177 -0.40356177 -0.2924981
0.08058463 0.035912912 -0.012108111 0.36381444 0.22035193 -0.19683315 0.30625027 0.21693118
-0.020572629 0.35355031 0.069723204 -0.28477848 -0.12713258 0.4185911 0.10998494 -0.4781845
0.0049123988 0.23057278 0.2723694 0.16797152 -0.22254781 -0.12393987 0.096594594 -0.43346158
-0.0030052087 -0.42459366 -0.28828713 0.3917042 -0.2956281 0.059395026 0.01451271 0.14834632
-0.20929784 0.44723666 0.18364444 0.31229228 -0.42964664 0.10179566 -0.45955932 -0.26274988
0.21762873 0.062958606 -0.1335676 -0.20444213 -0.27992034 -0.17519897 0.010131838 -0.2873805
00000000: 78f0 0abe 482e a13d 04df 97be 1b03 9cbe
00000010: 7e6d a93e 2c39 1abc ece0 843e 8c10 77be
00000020: 87d3 b2be 9c91 cebe e687 abbe 7b18 833e
00000030: 7169 5d3e 709f 263e a360 04bd 6e60 00be
00000040: d8b9 afbe 1d31 b73e a1ee 99be 8003 00be
00000050: 88dd 873e 6c80 4ebe a69f cebe 50c2 95be
00000060: 8e09 a53d 6b19 133d 1961 46bc e345 ba3e
00000070: f0a3 613e a18e 49be d6cc 9c3e 3523 5e3e
00000080: ee87 a8bc 8c04 b53e 0acb 8e3d 7cce 91be
00000090: 0b2f 02be 9351 d63e c93f e13d 99d4 f4be
000000a0: 30f8 a03b 451b 6c3e 0174 8b3e ba00 2c3e
000000b0: 93e3 63be 30d4 fdbd 63d3 c53d adee ddbe
000000c0: 09f3 44bb 5764 d9be 5f9a 93be 748d c83e
000000d0: 915c 97be 3348 733d b8c6 6d3c 19e8 173e
000000e0: 2c52 56be 34fc e43e 4a0d 3c3e c6e4 9f3e
000000f0: a5fa dbbe 3e7a d03d 5c4b ebbe 2787 86be
00000100: 11da 5e3e 71f0 803d f2c5 08be 4759 51be
00000110: b851 8fbe 5c67 33be 0200 263c 8923 93be

encoder.layers.0.linear.bias f4 [12]
-0.25009522 0.4115105 -0.38320512 0.04441951 -0.07407818 -0.39370808 0.1835339 -0.30333263
-0.19531816 0.19112983 0.14154643 0.3004659
00000000: 7b0c 80be 81b1 d23e 7633 c4be 3bf1 353d
00000010: 4db6 97bd 1b94 c9be 50f0 3b3e 6a4e 9bbe
00000020: 7c01 48be 8ab7 433e 8cf1 103e abd6 993e

encoder.layers.2.linear.weight f4 [4, 12]
-0.1303633 -0.24465396 -0.0022587858 -0.013221577 0.15406796 0.04084786 -0.10132951 -0.113892354
-0.030462673 0.18353464 -0.038388945 -0.2944783 0.062510766 0.19877209 0.14196463 0.0067000017
-0.105100825 -0.078799225 -0.059880763 -0.31527767 0.010682395 0.005671098 -0.21148027 -0.2291085
0.32259655 -0.17272235 -0.10038263 -0.16334465 -0.20149626 -0.28997153 -0.023031482 -0.2921603
-0.04901117 0.05784231 0.08566875 0.3119714 0.10995068 -0.21439439 0.029390035 -0.36326715
-0.34095386 -0.0038519753 -0.13763942 -0.27856302 0.16059639 0.17160356 0.09504915 0.11132508
00000000: f57d 05be 9186 7abe 2308 14bb 509f 58bc
00000010: fec3 1d3e 1650 273d d985 cfbd 6540 e9bd
00000020: db8c f9bc 81f0 3b3e ba3d 1dbd dcc5 96be
00000030: a505 803d e98a 4b3e 2d5f 113e b08b db3b
00000040: 1a3f d7bd 7d61 a1bd 8845 75bd 136c a1be
00000050: 3605 2f3c 9ed4 b93b 498e 58be 6b9b 6abe
00000060: 602b a53e 21de 30be 6995 cdbd d243 27be
00000070: 0955 4ebe 2677 94be 85ac bcbc 0996 95be
00000080: f0bf 48bd 0fec 6c3d 1973 af3d b7ba 9f3e
00000090: d22d e13d 348a 5bbe 5fc3 f03c 27fe b9be
000000a0: 8191 aebe 6c71 7cbb 59f1 0cbe d09f 8ebe
000000b0: 6173 243e d8b8 2f3e 21a9 c23d 67fe e33d

encoder.layers.2.linear.bias f4 [4]
0.081230626 -0.1528561 -0.10759021 -0.32818964
00000000: 3e5c a63d 4f86 1cbe 4258 dcbd 7908 a8be

decoder.layers.0.linear.weight f4 [12, 4]
0.17771989 -0.14506322 -0.43587023 0.22036386 0.30170193 -0.11809237 -0.05966682 0.14279579
0.36674336 0.23072588 -0.24404423 -0.14783356 0.47417587 0.3321246 -0.22615567 -0.08668591
0.35904458 0.3818491 -0.32249898 -0.18697467 0.29956526 0.25078714 -0.3405547 0.32619503
-0.076283045 -0.04093891 0.26084927 -0.50554764 -0.3945359 0.22261614 0.50774115 0.3724677
0.35634112 -0.24292172 -0.14315541 -0.31517145 -0.46778387 -0.5215067 -0.14912729 -0.40616325
0.25627014 -1.1827244e-05 0.115429014 0.103388414 0.4893875 -0.34986544 0.4242603 -0.41634476
00000000: 34fc 353e 748b 14be 622a dfbe 10a7 613e
00000010: ad78 9a3e 6ada f1bd 3265 74bd 0f39 123e
00000020: c9c5 bb3e 6843 6c3e bbe6 79be ae61 17be
00000030: 2ec7 f23e 3c0c aa3e 5a95 67be 6288 b1bd
00000040: b1d4 b73e ba81 c33e 961e a5be 4a76 3fbe
00000050: 9e60 993e 2c67 803e 305d aebe 0903 a73e
00000060: 493a 9cbd 8faf 27bd 098e 853e 926b 01bf
00000070: 9c00 cabe 7cf5 633e 53fb 013f 16b4 be3e
00000080: 5872 b63e 79c0 78be 5597 12be 275e a1be
00000090: 5e81 efbe 7781 05bf d3b4 18be a1f4 cfbe
000000a0: d735 833e a06d 46b7 0c66 ec3d 4ebd d33d
000000b0: 0091 fa3e 9021 b3be a538 d93e 242b d5be

decoder.layers.0.linear.bias f4 [12]
-0.38360113 0.25653142 -0.15049331 0.3769311 -0.13888088 0.03248066 0.11712875 -0.2362902
0.3675751 0.39780515 0.1939174 -0.34433776
00000000: 5e67 c4be 1658 833e eb1a 1abe 1dfd c03e
00000010: ca36 0ebe 710a 053d 33e1 ef3d 0ff6 71be
00000020: ce32 bc3e 1ead cb3e 4892 463e 0a4d b0be

decoder.layers.2.linear.weight f4 [6, 12]
0.068916984 0.056214485 -0.06405271 0.13621333 0.022863967 0.20287395 -0.15660454 -0.079852074
0.05851142 -0.06298787 0.025121596 -0.06585168 0.002493273 -0.0073764278 -0.07744794 -0.09012878
0.2425788 0.27977338 0.3531018 0.066219315 0.067058146 0.35479328 -0.08417317 0.07198328
-0.14154139 0.18858112 -0.107323654 0.029576195 0.29272586 0.023572665 -0.19667237 -0.06540183
0.23440501 -0.077318385 -0.26417223 0.08456903 0.20559874 -0.30642176 0.14206508 0.12447148
0.202479 0.0327961 -0.22007567 -0.12326104 0.08623557 -0.20610204 -0.30097473 0.14297113
-0.008747069 0.1874088 -0.0055256994 -0.060369637 -0.24370445 -0.02115174 -0.27302572 -0.06530246
-0.050575744 -0.07471406 -0.17439854 -0.25076059 -0.2411085 0.24274218 0.17268567 -0.1924994
0.16715787 0.2714142 -0.057469953 0.19596586 0.032641456 -0.28145432 0.18181531 0.23478436
00000000: 5924 8d3d 2941 663d 112e 83bd 827b 0b3e
00000010: 374d bb3c 30be 4f3e f15c 20be 7c89 a3bd
00000020: aca9 6f3d c9ff 80bd cecb cd3c 3fdd 86bd
00000030: 2e66 233b f6b5 f1bb 079d 9ebd 7095 b8bd
00000040: 9466 783e 753e 8f3e c2c9 b43e fe9d 873d
00000050: c855 893d 77a7 b53e fc62 acbd f86b 933d
00000060: 3af0 10be 691b 413e 81cc dbbd c749 f23c
00000070: 2ae0 953e 761b c13c 7b64 49be 65f1 85bd
00000080: de07 703e 1a59 9ebd 9541 87be 8732 ad3d
00000090: 7a88 523e 50e3 9cbe 8279 113e e7ea fe3d
000000a0: a856 4f3e 3455 063d 845b 61be 4970 fcbd
000000b0: 469c b03d 6a0c 53be 5c19 9abe 0667 123e
000000c0: de4f 0fbc 18e8 3f3e ed10 b5bb 2746 77bd
000000d0: a98d 79be 6a46 adbc 07ca 8bbe 4cbd 85bd
000000e0: 8328 4fbd af03 99bd 8895 32be b163 80be
000000f0: 26e5 76be 6891 783e 83d4 303e 901e 45be
00000100: 6f2b 2b3e cdf6 8a3e 9d65 6bbd 46ab 483e
00000110: 0cb3 053d c81a 90be cb2d 3a3e 506b 703e

decoder.layers.2.linear.bias f4 [6]
0.20579854 -0.10389898 0.11325954 -0.22593947 0.027467059 0.21958664
00000000: dabc 523e fdc8 d4bd 9ef4 e73d ad5c 67be
00000010: 9902 e13c 52db 603e

exp_avg f4 [12, 6]
0.003523056 -0.0066564064 0.0073001715 0.0045550317 -0.0047351755 -0.0028803458 0.00057992653 -0.021159297
0.0026444704 0.005989422 0.0021017168 0.004660359 0.0011898722 0.0023545893 0.0023009062 -0.0014840276
-0.0014674524 -0.00086907414 -0.0062142913 -0.01641941 -0.013306632 0.009273124 0.009660887 0.007080837
-0.0005118722 -0.0031611372 -0.0009016062 -0.0005414324 0.0010220589 0.0019342345 -0.00026541253 -0.0002206682
-0.00042573278 -1.855824e-05 0.00056606706 0.0010019677 8.936128e-05 -0.024289906 0.00024897075 0.0077372617
0.001472459 0.0025299988 2.912341e-06 -0.0061112014 0.0017769767 0.0020237437 0.0013781281 0.003128508
2.9576042e-06 1.0802991e-07 3.8878334e-06 -9.940267e-07 -9.467629e-06 -1.0189668e-05 -0.003633602 0.028209003
-0.008050724 -0.0063841883 0.0029308589 -0.0012531289 0.0015330169 -0.0056899018 0.0034607525 0.0028128042
-0.0020873055 -0.0010849723 0.008566194 -0.028623745 0.018997973 0.012304912 -0.009738586 -0.005183298
00000000: 12e3 663b fc1d dabb 4736 ef3b 6042 953b
00000010: 8829 9bbb 2fc4 3cbb 3606 183a 4356 adbc
00000020: da4e 2d3b ea42 c43b f5bc 093b edb5 983b
00000030: 7cf5 9b3a 744f 1a3b cdca 163b b483 c2ba
00000040: 8857 c0ba 94d2 63ba 41a1 cbbb 0082 86bc
00000050: 0f04 5abc 4dee 173c b248 1e3c 5e06 e83b
00000060: 292f 06ba 152b 4fbb c559 6cba eaee 0dba
00000070: 9bf6 853a 2486 fd3a 1127 8bb9 2b63 67b9
00000080: e334 dfb9 84ad 9bb7 1e64 143a 7554 833a
00000090: 7967 bb38 a0fb c6bc 4a88 8239 db88 fd3b
000000a0: 86ff c03a 56ce 253b a371 4336 7940 c8bb
000000b0: 72e9 e83a c9a0 043b 4ea2 b43a a807 4d3b
000000c0: 417b 4636 12fe e733 3c74 8236 7f6a 85b5
000000d0: 28d7 1eb7 4af4 2ab7 ba21 6ebb 9116 e73c
000000e0: 2fe7 03bc 7432 d1bb a713 403b 0740 a4ba
000000f0: 83ef c83a 5b72 babb cbcd 623b 0657 383b
00000100: 2dcb 08bb a135 8eba 3959 0c3c 587c eabc
00000110: a3a1 9b3c 8b9a 493c 978e 1fbc a8d8 a9bb

exp_avg_sq f4 [12, 6]
1.228028e-06 3.4339034e-06 4.8031106e-06 2.0659393e-06 1.9535444e-06 6.0499053e-07 5.384783e-07 2.3241371e-05
3.3907763e-06 1.8514921e-06 5.379179e-07 9.640881e-07 7.865453e-07 3.9396014e-06 3.3211172e-06 2.0248244e-06
1.3338699e-06 2.9242952e-07 1.4847221e-06 8.284472e-06 6.182886e-06 2.9767123e-06 3.9153483e-06 2.5871464e-06
1.8961899e-07 1.9402116e-06 1.1411802e-06 6.914383e-08 6.4297296e-07 3.5794932e-07 2.6696387e-09 1.4471249e-07
8.750227e-09 3.4898044e-09 1.3245231e-08 3.8379582e-08 3.131e-08 2.489552e-05 1.7103974e-07 3.1199586e-06
2.0659655e-07 2.8816473e-07 8.619797e-08 7.812093e-07 2.3027593e-07 9.090755e-08 5.17994e-07 1.3728743e-06
1.6249063e-09 2.6209306e-12 2.7684284e-09 1.2781028e-10 1.4440226e-08 2.0518645e-08 2.5178e-06 0.00010995388
1.0748853e-05 1.039566e-05 2.1675385e-06 3.5013812e-07 7.6187575e-08 1.001299e-06 3.5470217e-07 2.4631007e-07
1.7841668e-07 6.234022e-08 5.5646387e-06 5.645558e-05 2.4408931e-05 2.3505554e-05 6.02439e-06 1.3293551e-06
00000000: b9d2 a435 0372 6636 682a a136 91a4 0a36
00000010: a319 0336 a266 2235 f28b 1035 77f6 c237
00000020: 188d 6336 c980 f835 7065 1035 d165 8135
00000030: fb22 5335 eb30 8436 5ce0 5e36 38e2 0736
00000040: 6c07 b335 35ff 9c34 aa46 c735 89fd 0a37
00000050: 9676 cf36 87c3 4736 9660 8336 d69e 2d36
00000060: 129a 4b34 9534 0236 a72a 9935 397c 9433
00000070: c498 2c35 2e2c c034 c874 3731 4462 1b34
00000080: e853 1632 4ad1 6f31 248d 6332 ccd6 2433
00000090: b679 0633 b9d6 d037 0ca7 3734 7b60 5136
000000a0: d4d4 5d34 0fb5 9a34 d61b b933 4bb4 5135
000000b0: c441 7734 f438 c333 470c 0b35 9a43 b835
000000c0: 4f53 df30 7d6e 382c b53e 3e31 6587 0c2f
000000d0: c914 7832 fa40 b032 7af7 2836 0a97 e638
000000e0: f955 3437 0569 2e37 0776 1136 9efa bb34
000000f0: 909c a333 5f64 8635 e56d be34 993c 8434
00000100: ce92 3f34 e6df 8533 e2b7 ba36 b8ca 6c38
00000110: c8c1 cc37 cb2d c537 1e25 ca36 4b6c b235

exp_avg f4 [12]
-0.007449313 -0.016121233 0.0020221262 -0.016350243 -0.002835194 -0.00050107884 -0.019236634 -0.0060530603
4.0911436e-06 0.020999873 -0.005432338 -0.02491836
00000000: 5e19 f4bb ad10 84bc a685 043b f2f0 85bc
00000010: aace 39bb d55a 03ba 2596 9dbc c058 c6bb
00000020: a846 8936 ed07 ac3c c101 b2bb 9721 ccbc

exp_avg_sq f4 [12]
4.6511277e-06 1.4604775e-05 3.863164e-06 8.7845565e-06 1.0523853e-06 8.003994e-08 1.661376e-05 8.912487e-07
2.8750349e-09 7.133307e-05 8.938641e-07 5.749521e-05
00000000: e210 9c36 0807 7537 53a0 8136 6261 1337
00000010: af3f 8d35 6ce2 ab33 c75d 8b37 253e 6f35
00000020: 2692 4531 a698 9538 e0f1 6f35 0327 7138

exp_avg f4 [4, 12]
0.016571093 0.01880851 -0.00086991215 0.0012572203 0.00058809074 0.00046265865 0.05962617 0.0009275011
4.1923806e-07 0.026726931 0.048443798 0.018463992 0.005633593 0.016349288 0.0016079892 0.00844056
0.00021185433 -4.041016e-05 0.04890625 -0.00011729613 8.2956866e-08 0.012021799 0.020345997 0.008233687
-0.0096975835 -0.008879761 0.0009154254 0.005195275 0.00022527087 0.0006566531 -0.015841363 0.00086340815
2.0634317e-07 -0.011163744 -0.024112443 -0.007949421 0.0056334035 0.021282585 0.002700966 0.018702965
0.00081671483 0.0012958396 0.06917533 0.0021519633 9.305276e-07 0.016259886 0.02581899 0.013306871
00000000: 1ac0 873c 4e14 9a3c d10a 64ba 50c9 a43a
00000010: 1a2a 1a3a fe90 f239 923a 743d 8c23 733a
00000020: a413 e134 70f2 da3c 016d 463d cc41 973c
00000030: 019a b83b f1ee 853c 2ac3 d23a 464a 0a3c
00000040: 3725 5e39 147e 29b8 ec51 483d e1fc f5b8
00000050: 0526 b233 14f7 443c a6ac a63c 96e6 063c
00000060: 9de2 1ebc 6b7c 11bc 29f9 6f3a 203d aa3b
00000070: b036 6c39 3e23 2c3a bfc5 81bc 5756 623a
00000080: 2e8f 5d34 23e8 36bc 7587 c5bc 4a3e 02bc
00000090: 6a98 b83b d158 ae3c b102 313b f636 993c
000000a0: ce18 563a 29d9 a93a ccab 8d3d f407 0d3b
000000b0: 5fc9 7935 7433 853c 5982 d33c 1005 5a3c

exp_avg_sq f4 [4, 12]
2.479912e-05 5.6449317e-05 1.8512508e-06 2.956649e-06 1.9605123e-07 8.0675285e-08 0.0005855704 1.751113e-07
2.573156e-10 0.0001744078 0.00034694612 3.07858e-05 1.3784506e-06 1.7954819e-05 2.705902e-06 4.6429404e-06
2.6189224e-09 2.138377e-09 0.00014378784 3.473804e-09 9.321045e-12 8.31182e-06 1.9599383e-05 3.1951045e-06
5.5738337e-06 1.0884757e-05 1.4895787e-07 7.261726e-07 7.647077e-09 1.9295875e-08 5.4833024e-05 5.2243916e-08
3.0631227e-11 1.690821e-05 5.210601e-05 4.51697e-06 1.5821066e-06 2.3084574e-05 1.7084685e-06 1.4209266e-05
2.6298519e-08 1.1370602e-07 0.0002429653 3.5108582e-07 7.0651474e-10 1.9642077e-05 3.7074475e-05 9.517818e-06
00000000: b407 d037 fec3 6c38 7e78 f835 d86a 4636
00000010: 2782 5234 b53f ad33 f780 193a 3a06 3c34
00000020: f475 8d2f 3de1 3639 52e6 b539 0020 0138
00000030: 3403 b935 ae9d 9637 0b97 3536 8eca 9b36
00000040: 92f8 3331 baf2 1231 c1c5 1639 ceb7 6e31
00000050: 41fa 232d ff72 0b37 5b69 a437 7a6b 5636
00000060: de06 bb36 ad9d 3637 3af1 1f34 33ee 4235
00000070: 3360 0332 14c0 a532 83fc 6538 cb62 6033
00000080: b2b7 062e 1bd6 8d37 678c 5a38 7a90 9736
00000090: c558 d435 bfa5 c137 884e e535 5564 6e37
000000a0: 0ee7 e132 8c2e f433 80c4 7e39 de7c bc34
000000b0: 8e34 4230 0ac5 a437 6a80 1b38 b8ae 1f37

exp_avg f4 [4]
0.07276098 0.05724935 -0.01765492 0.0854891
00000000: b503 953d 4b7e 6a3d 0da1 90bc e914 af3d

exp_avg_sq f4 [4]
0.0011322893 0.00024183288 9.439295e-05 0.0004488352
00000000: 5369 943a 8594 7d39 d4f4 c538 a451 eb39

exp_avg f4 [12, 4]
0.0 0.0 0.0 0.0 0.0022195624 -0.005966909 0.0012294279 0.00131495
-0.00061676366 5.4124037e-05 -0.0017452411 -0.0034790253 -0.0040226886 -0.008034248 0.0041503278 -0.004136005
0.001613009 0.0001898537 0.003811485 0.00814437 -0.00011834013 7.83026e-05 0.00013056121 0.00013153948
0.011782547 0.024809206 0.00416676 0.037067417 0.00055429764 0.0007195618 -0.0006622133 6.388326e-05
-0.0067019938 -0.00892009 0.013583531 0.01084263 0.010091354 0.023414174 0.009258291 0.042610537
0.0067174365 0.00041011674 -0.007977114 -0.00873032 -4.3939992e-05 -0.00015707272 -0.00012566587 -0.00025402298
00000000: 0000 0000 0000 0000 0000 0000 0000 0000
00000010: 1476 113b 1086 c3bb c124 a13a 665a ac3a
00000020: 4fae 21ba 3e03 6338 93c0 e4ba 5c00 64bb
00000030: c2d0 83bb 14a2 03bc 79ff 873b 5387 87bb
00000040: 9a6b d33a 7713 4739 1bca 793b f76f 053c
00000050: 602d f8b8 6336 a438 42e7 0839 dced 0939
00000060: 960b 413c ad3c cb3c 5189 883b 01d4 173d
00000070: 494e 113a faa0 3c3a 6298 2dba 10f9 8538
00000080: 669c dbbb 9225 12bc 758d 5e3c 49a5 313c
00000090: 3556 253c 15cf bf3c 16b0 173c 6388 2e3d
000000a0: f11d dc3b f004 d739 71b2 02bc 9e09 0fbc
000000b0: 354c 38b8 e3b3 24b9 2dc5 03b9 632e 85b9

exp_avg_sq f4 [12, 4]
0.0 0.0 0.0 0.0 2.5642955e-06 4.415525e-06 1.7114647e-06 1.1217275e-06
1.1210083e-07 9.00631e-08 4.2713846e-06 6.9169478e-06 4.047798e-06 4.404144e-06 5.986184e-06 2.5702263e-06
5.8672196e-08 3.151152e-08 5.4093323e-07 1.8081665e-06 4.3105982e-07 7.013012e-08 7.307977e-07 4.7280383e-07
5.1482407e-06 2.2159902e-05 1.9154115e-05 6.761648e-05 8.394624e-09 1.5121508e-08 1.2896233e-08 2.1466137e-10
3.494807e-06 5.3559015e-06 6.5450563e-06 4.1409576e-06 7.1697646e-06 2.0581334e-05 3.503001e-05 9.8535726e-05
3.0539559e-06 6.515702e-07 3.8626854e-06 5.544158e-06 3.0935704e-10 3.865038e-09 2.4450415e-09 1.0176563e-08
00000000: 0000 0000 0000 0000 0000 0000 0000 0000
00000010: 4316 2c36 1229 9436 7bb5 e535 438e 9635
00000020: 15bc f033 b668 c133 ea52 8f36 2118 e836
00000030: 52d2 8736 4fc7 9336 eedc c836 277c 2c36
00000040: c3fe 7b33 4857 0733 a634 1135 21b0 f235
00000050: 696c e734 719a 9633 092c 4435 aad5 fd34
00000060: 0dbf ac36 07e4 b937 26ad a037 52cd 8d38
00000070: f237 1032 8ce4 8132 3c8e 5d32 ce05 6c2f
00000080: 5488 6a36 d8b6 b336 9b9d db36 8ef2 8a36
00000090: cf93 f036 14a6 ac37 30ed 1238 f7a4 ce38
000000a0: 90f2 4c36 90e7 2e35 379c 8136 f407 ba36
000000b0: 2212 aa2f 3ccd 8431 a005 2831 ffd4 2e32

exp_avg f4 [12]
0.0 0.00576902 0.004265705 0.032464184 -0.010081772 -0.00085875316 -0.100188226 -0.0011697083
0.0066642356 -0.099286094 0.0116313305 0.00025972712
00000000: 0000 0000 0c0a bd3b 54c7 8b3b 2af9 043d
00000010: 042e 25bc f31d 61ba 7c2f cdbd e650 99ba
00000020: a95f da3b 8256 cbbd 5691 3e3c fc2b 8839

exp_avg_sq f4 [12]
0.0 8.812033e-05 3.9974722e-05 0.00027589608 3.4290906e-06 1.2360922e-05 0.00087439374 3.801e-08
0.00012117099 0.0010670924 4.6182602e-05 1.0807908e-08
00000000: 0000 0000 3ecd b838 88aa 2738 25a6 9039
00000010: 541f 6636 c161 4f37 9237 653a 7040 2333
00000020: 2e1d fe38 aedd 8b3a 31b4 4138 afad 3932

exp_avg f4 [6, 12]
0.0 0.015689878 -0.00018646344 0.008934973 -0.00055664504 6.461874e-05 0.016444508 0.0003340903
0.027049294 0.048112005 0.011772223 -1.110713e-06 0.0 -0.05498112 -0.00012249674 -0.08267298
-0.00018794333 -0.000111515605 -0.06853324 -0.00024127768 -0.1297515 -0.16838656 -0.035551473 1.0064011e-06
0.0 0.012890151 -0.00048617646 -0.014772511 -0.001342826 9.866852e-05 0.0028706798 0.0006113046
0.0033657823 0.025332963 0.012149048 -1.586126e-06 0.0 -0.00012382382 0.00027755566 0.0070455684
0.0007028852 -1.7242844e-05 0.014937407 0.00010489503 0.013956681 0.031396262 -0.0011381186 -1.1616788e-06
0.0 -0.00993861 0.00035703834 0.00711082 0.0009544481 -7.357161e-05 -0.0018535621 -0.00054856815
-0.003140349 -0.0152960755 -0.0093775485 1.8279399e-06 0.0 0.0018269458 0.00010746391 0.010654936
0.00022225185 -6.0230752e-05 0.010882572 -0.00013386439 0.01779159 0.022758732 -0.0008393403 5.6484614e-06
00000000: 0000 0000 0f88 803c 6685 43b9 fe63 123c
00000010: d1eb 11ba ec83 8738 a2b6 863c d728 af39
00000020: 7b96 dd3c 1811 453d 48e0 403c cf13 95b5
00000030: 0000 0000 e233 61bd 7872 00b9 7450 a9bd
00000040: a712 45b9 7cdd e9b8 285b 8cbd 7cff 7cb9
00000050: 94dd 04be 876d 2cbe 6c9e 11bd ae13 8735
00000060: 0000 0000 3631 533c 80e5 feb9 6708 72bc
00000070: c401 b0ba 42ec ce38 0422 3c3b f53f 203a
00000080: 7594 5c3b 1387 cf3c cd0c 473c e0e2 d4b5
00000090: 0000 0000 b4d6 01b9 e484 9139 83de e63b
000000a0: d441 383a baa4 90b7 07bc 743c 17fb db38
000000b0: 90aa 643c 5e99 003d ec2c 95ba fbea 9bb5
000000c0: 0000 0000 8dd5 22bc e030 bb39 e201 e93b
000000d0: ee33 7a3a 754a 9ab8 39f3 f2ba c9cd 0fba
000000e0: 50ce 4dbb 649c 7abc 4aa4 19bc 8957 f535
000000f0: 0000 0000 2176 ef3a 3f5e e138 0a92 2e3c
00000100: 470c 6939 47a0 7cb8 d14c 323c f35d 0cb9
00000110: abbf 913c 8570 ba3c 2d07 5cba ea87 bd36

exp_avg_sq f4 [6, 12]
0.0 9.433391e-05 6.5436936e-08 0.00016447729 9.376446e-09 1.2774049e-06 1.177649e-05 4.1087582e-09
0.00020642174 0.00019503385 5.137137e-05 2.504557e-13 0.0 0.00060441735 2.2028978e-06 0.0015139737
7.1606268e-09 3.8970256e-06 0.00017472332 2.4343065e-09 0.0018622841 0.0017134785 0.00032095946 2.0071412e-13
0.0 7.302787e-05 4.290366e-07 7.024593e-05 6.355296e-08 2.370138e-06 3.2592582e-06 1.4270076e-08
9.026203e-05 7.302477e-05 4.1025385e-05 5.167867e-13 0.0 1.9152263e-05 5.052976e-07 7.601965e-05
2.5101516e-08 5.5594587e-08 1.3634346e-05 3.5199219e-10 7.934885e-05 0.00011690768 1.0118515e-05 2.6899723e-13
0.0 1.7516408e-05 2.4533568e-07 1.0754901e-05 3.6988233e-08 8.432966e-07 2.548488e-06 1.2090905e-08
1.4381208e-05 1.6799917e-05 1.0693568e-05 7.28647e-13 0.0 2.3429226e-05 2.0412217e-07 7.915856e-05
6.993767e-09 1.235297e-07 1.2566722e-05 7.5176243e-10 0.00010390909 0.00011219824 1.2188044e-05 6.5096648e-12
00000000: 0000 0000 22d5 c538 5686 8c33 8977 2c39
00000010: 0c16 2132 4c73 ab35 a493 4537 052d 8d31
00000020: ea72 5839 0082 4c39 9777 5738 78fe 8c2a
00000030: 0000 0000 c371 1e3a 7fd5 1336 8770 c63a
00000040: 8a09 f631 32c3 8236 ef35 3739 c648 2731
00000050: e317 f43a cc96 e03a 7346 a839 e8fb 612a
00000060: 0000 0000 8a26 9938 5756 e634 ff50 9338
00000070: 9c7a 8833 a90e 1f36 a1b9 5a36 7528 7532
00000080: 0f4b bd38 e024 9938 ac12 2c38 6876 112b
00000090: 0000 0000 2ca9 a037 c9a3 0735 bd6c 9f38
000000a0: d19e d732 e5c6 6e33 12bf 6437 7f82 c12f
000000b0: 1768 a638 552c f538 b1c2 2937 966e 972a
000000c0: 0000 0000 33f0 9237 aeb6 8334 f36f 3437
000000d0: fedc 1e33 e75e 6235 b106 2b36 5db8 4f32
000000e0: d146 7137 8ced 8c37 8668 3337 8d18 4d2b
000000f0: 0000 0000 e189 c437 ad2c 5b34 ee01 a638
00000100: d34d f031 96a3 0434 a9d5 5237 94a4 4e30
00000110: c5e9 d938 f94b eb38 407b 4c37 d909 e52c

exp_avg f4 [6]
0.07157765 -0.24691252 0.045310136 0.031094538 -0.03310931 0.017192518
00000000: 4e97 923d a3d6 7cbe 1f97 393d f9b9 fe3c
00000010: a19d 07bd 53d7 8c3c

exp_avg_sq f4 [6]
0.0009284694 0.006728284 0.0005123072 0.0003491225 0.000108673645 0.00030556027
00000000: 8764 733a f078 dc3b 5b4c 063a 6e0a b739
00000010: b8e7 e338 9b33 a039
