lightning_logs/version_5/checkpoints/epoch=9-step=70.ckpt (torch, 14835 bytes, 24 tensors)

encoder.layers.0.linear.weight f4 [12, 6]
000000 11 24 71 be 42 ba 82 be 77 49 d8 be 2d 99 e5 be
       -0.23548914 -0.25532728 -0.4224355 -0.44843426
000010 18 09 22 bd 74 8a ee bd 24 52 f0 be a4 9a 2e 3d
       -0.039559454 -0.116475016 -0.46937668 0.042627946
000020 88 d2 be be ca 85 88 be c9 88 34 be 78 98 39 be
       -0.37269998 -0.26664573 -0.17630304 -0.18124568
000030 59 b0 cd 3e 3a 7f 0d be 57 c3 d0 3c 8f bb 36 be
       0.40173605 -0.13818064 0.02548377 -0.17844985
000040 b6 9d c6 be a2 57 ec 3e b2 a8 15 3e 2e 81 88 3e
       -0.387922 0.4616061 0.14615133 0.26661056
000050 01 bc 00 3e e1 26 76 3e df 6e 6b be 7f ca 4c 3e
       0.12571718 0.24038269 -0.22991513 0.19999121
000060 24 52 90 3e 9e 31 9e be e8 3e bc 3e 47 01 4a 3d
       0.28187668 -0.3089723 0.36766744 0.049317624
000070 1e 5f d5 3e 9f 16 a1 bd a4 f4 9b be 1b d5 c2 bc
       0.4167413 -0.07865643 -0.30460083 -0.023783257
000080 43 d4 dc 3d 92 21 88 3e 58 c2 b9 3e f1 85 b1 3e
       0.10782673 0.26588112 0.36281085 0.34672502
000090 dd 96 b8 be c6 c3 18 3e 39 ec 89 bd 38 a8 89 3e
       -0.360526 0.14918432 -0.06734509 0.26886153
0000a0 a1 56 b4 3e ca 46 a3 3e 8e f5 a2 3e 08 76 55 3d
       0.35222343 0.31889945 0.31827968 0.052114516
0000b0 d3 6f b6 be f0 9b 1e be ef 93 61 be 0c 19 da 3e
       -0.3563219 -0.15489173 -0.22029088 0.42597234
0000c0 5c 53 f4 3e 23 c6 91 3e 02 87 8f 3e b3 4f ae be
       0.47719848 0.2847148 0.2803269 -0.3404518
0000d0 20 51 a6 3e 2d 00 39 3e ab 04 f1 bd 3a c2 0c be
       0.32483768 0.18066473 -0.117684685 -0.13745967
0000e0 42 0a 81 be 2e 53 6c 3e f6 ac 72 3c 79 77 07 3e
       -0.2520314 0.23078606 0.014811745 0.13229169
0000f0 15 c6 b5 be 1f 8d 9b 3e 47 ca cc be eb 63 77 3e
       -0.35502687 0.30381104 -0.39998075 0.2415921
000100 20 bf fc bd f4 01 c4 3d a4 90 c0 3d 87 c2 96 be
       -0.12341142 0.09570685 0.09402588 -0.29445288
000110 40 92 9b 3e 8f c7 4d 3e a0 2f 77 bc 7d 75 8f bd
       0.30385017 0.20095657 -0.015087038 -0.07004831

encoder.layers.0.linear.bias f4 [12]
000000 c4 04 b2 3c ad e8 2c 3e dc bd 94 3e e2 e7 a4 3d
       0.021730788 0.16885634 0.290511 0.08052041
000010 16 0f d0 bd a8 08 3c be 4a af 8b bd a1 41 bb 3e
       -0.101591274 -0.18362677 -0.06820543 0.36573508
000020 ab a7 ad be b0 fb b7 bd 0d 23 6d be 2f df f0 bd
       -0.33916983 -0.089835525 -0.23157902 -0.11761319

encoder.layers.2.linear.weight f4 [4, 12]
000000 f3 4e 67 3d d4 66 af 3e 68 b6 8f be 46 72 b1 be
       0.056471776 0.3425814 -0.28068852 -0.34657496
000010 24 fa 7f 3e 01 c6 32 bd a1 f9 73 3e d3 10 83 3e
       0.24997765 -0.043645862 0.23825695 0.25598773
000020 93 11 04 be d4 05 c7 bd 91 d2 b0 3e 20 0d 79 3d
       -0.12897329 -0.097179085 0.3453565 0.060803533
000030 e3 ff 7b 3e 02 f1 44 3d 42 a2 86 be ba 4d a4 be
       0.24609332 0.048081405 -0.26295668 -0.3209055
000040 08 1f 8c be 3a 34 2b be bc 47 cb bd 25 b6 22 be
       -0.27367425 -0.16719142 -0.099257916 -0.15889795
000050 0a 7e 5f be bd 99 13 3e 70 48 3e be 0c 72 42 3e
       -0.21825424 0.14414115 -0.1858232 0.18988818
000060 70 95 2b 3e 85 e3 72 3e fc 55 e6 bd 49 e5 a9 3e
       0.16756225 0.23719604 -0.11246869 0.33182743
000070 ec 5f a5 be b6 53 03 3e 3a d5 a6 3d 92 5a ca bc
       -0.32299745 0.12824902 0.081461385 -0.02470139
000080 c6 c9 bc bd 54 0f 68 be a0 87 2d 3b c1 30 45 be
       -0.09218173 -0.22662097 0.0026478544 -0.1925688
000090 c1 94 ac 3e 40 ef 9d 3e e4 32 a7 3e 4d ac 84 3e
       0.3370724 0.30846596 0.32656014 0.25912705
0000a0 6f d0 74 bd f5 39 16 bd 20 73 9d 3e 28 65 0d be
       -0.05976909 -0.036676366 0.30751896 -0.1380812
0000b0 a9 d4 43 be 76 4b 66 3e 20 0a 9d 3e 58 7c 19 3e
       -0.19124092 0.22489724 0.30671787 0.1498884

encoder.layers.2.linear.bias f4 [4]
000000 3f 67 4b 3d 9e 9b 26 be 85 6b e9 3d 9d bc 73 3e
       0.04965901 -0.16270301 0.11397461 0.23802419

decoder.layers.0.linear.weight f4 [12, 4]
000000 f1 19 0e bf 9a 1f 39 be 17 a3 a6 3d c9 72 bd bd
       -0.55508333 -0.18078461 0.08136576 -0.09250409
000010 f7 ce 20 3e 60 b8 43 be cb f3 e0 be ef f7 1f be
       0.15703951 -0.19113302 -0.43936 -0.15621923
000020 e2 68 8f 3e 7e d8 d9 be 8f f3 07 be d6 da 49 3e
       0.28009707 -0.42547983 -0.13276504 0.19712386
000030 bd b1 e6 3c 9c 0c 9d be f7 77 fe be 78 48 22 be
       0.028160924 -0.30673683 -0.497009 -0.15847957
000040 6c 9d b6 be ce e6 ad 3e 50 54 ce 3e 60 c3 b7 bd
       -0.35666978 0.33965153 0.402987 -0.08972812
000050 7d 5a 53 3e c4 18 e6 3d 42 b9 3f 3e fa 46 5d 3e
       0.20639987 0.112351924 0.18723014 0.21609107
000060 b0 73 c5 3d 76 40 ce 3e 90 0c 9d 3e e0 5d 49 be
       0.09641206 0.40283555 0.30673647 -0.19664717
000070 de 46 0f 3f 72 9a d8 3e b8 f2 91 3e 60 42 82 bd
       0.5596751 0.42305332 0.28505492 -0.06360316
000080 40 0c 56 be 40 6c 86 3c c0 60 ad bd 40 65 31 be
       -0.2090311 0.01640904 -0.08465719 -0.1732378
000090 20 3c 97 be 2d 8b 3d be 25 24 03 bf 06 9a b1 3d
       -0.2953806 -0.18510123 -0.5122703 0.08671956
0000a0 9d 58 21 be 4f 10 bf 3d b8 ff d7 3e 75 92 42 be
       -0.1575646 0.093292825 0.42187285 -0.19001181
0000b0 f0 4f cf be 8d 9e da 3d b4 b5 53 bc 04 5d 86 3e
       -0.40490675 0.106747724 -0.012921739 0.2624284

decoder.layers.0.linear.bias f4 [12]
000000 80 1e 04 3f 70 3b 0c 3d ed 38 01 3e 71 49 d7 3e
       0.5160904 0.03423637 0.12619372 0.4204822
000010 cc 93 d0 be 95 98 fa be bc 03 fc be d1 02 0e 3f
       -0.4073776 -0.48944536 -0.492216 0.5547305
000020 30 c3 d4 bd dd 6f 17 3e 0d a1 db 3e 1f e0 c2 3e
       -0.103887916 0.14788766 0.4289631 0.38061616

decoder.layers.2.linear.weight f4 [6, 12]
000000 7e b2 a8 3d af e0 e4 bd 80 cb 43 3e 0d 6c 8e bd
       0.0823717 -0.111756675 0.19120598 -0.06954203
000010 4a c4 4b 3e 08 8d 33 3e 28 1b 02 be 5b 5c 53 bd
       0.19899097 0.17534268 -0.12705672 -0.05160175
000020 99 1d 93 3e 44 ad 1f bd 1a b8 a6 3d 15 3e 8d bd
       0.2873352 -0.0389836 0.08140583 -0.06896607
000030 28 b0 45 3d c2 5f 91 be 5b 27 8d 3e 5e 54 ed bd
       0.0482637 -0.2839337 0.27569088 -0.115883574
000040 51 3a 20 bd 45 30 72 be 5c 50 86 3e 05 f5 9b 3d
       -0.039118115 -0.23651226 0.26233184 0.07615093
000050 71 c9 25 be 9d 43 0b bd ae 85 28 3e d0 a3 59 3e
       -0.16190125 -0.034000028 0.16457245 0.21253896
000060 25 fb a4 3e 23 94 e8 3d 14 83 2d 3d 44 4c 84 3e
       0.32222858 0.1135638 0.042361334 0.25839436
000070 01 33 70 3e 4c 61 84 3d c2 d9 3c bd 10 00 a5 be
       0.23456956 0.064638704 -0.046106108 -0.3222661
000080 01 2a 70 3e de c9 f3 3d b6 65 90 be b2 e2 28 3d
       0.23453523 0.119037375 -0.282026 0.04123182
000090 51 95 15 be ce 9d 3c be 6a bb b7 be 24 e9 8f bd
       -0.14607741 -0.18419573 -0.35885173 -0.0702689
0000a0 02 5f f8 3b 06 8d 9b 3b 0a 15 7d be d5 2d aa be
       0.007579685 0.004747036 -0.24715057 -0.33238092
0000b0 7b 63 14 bd 20 62 41 be 53 5c ff 3d 99 b5 05 be
       -0.036227684 -0.18885088 0.12468781 -0.13057555
0000c0 95 e0 8f bd ea 18 ef bd d4 f7 88 3e 1d 60 60 bd
       -0.070252575 -0.11674674 0.26751578 -0.05477916
0000d0 86 6b 59 3d c4 5c 79 3d 3b 94 06 3e 0e df 0c be
       0.053081058 0.060879484 0.13142483 -0.13756964
0000e0 15 ff 63 be b0 1a 25 3e 1f fa 90 bd 2b 5b 67 be
       -0.22265275 0.16123462 -0.07078957 -0.22593372
0000f0 7f a4 46 3e 1c 06 a0 3e 84 fd b1 3e 01 96 bc bd
       0.19398688 0.3125466 0.3476373 -0.092082985
000100 ce 0a 93 bd 60 89 9d 3c de d2 23 bd 7e bc 48 be
       -0.07179795 0.019230545 -0.03999602 -0.19603154
000110 b2 ed d4 bd 19 b6 8d 3d 32 4c 34 be 0c b5 fc bb
       -0.10396899 0.06919498 -0.17607191 -0.007712012

decoder.layers.2.linear.bias f4 [6]
000000 dd be 86 3d 82 04 f2 3d 67 26 ea 3b c4 e7 b3 bc
       0.06579373 0.11817266 0.007145691 -0.0219611
000010 da b1 5d 3d 1f 97 91 bd
       0.05412469 -0.07108902

exp_avg f4 [12, 6]
000000 02 d3 39 3b d7 cb c8 bb fc 41 9b 3b cd bd 47 3b
       0.002835453 -0.006127815 0.0047380906 0.003047812
000010 5b e0 93 ba 11 6c 1c ba 51 85 62 3b e2 a6 64 bc
       -0.0011282073 -0.0005967031 0.0034564326 -0.013955804
000020 70 1e 4d 3c 75 cf fc 3b 0f 07 0e bc 1c 71 5b bb
       0.012519464 0.0077151605 -0.008668675 -0.0033484166
000030 56 d3 f1 bb b4 95 01 bc bf bf 55 bc 24 ad 0f 3c
       -0.0073799295 -0.007909227 -0.013046204 0.008769307
000040 a0 4e a8 3a 2d 66 53 bb 7e d0 3e bb 6d b7 8a bc
       0.0012840815 -0.0032256946 -0.002911597 -0.016933167
000050 73 43 c1 bb d9 db c5 3b b4 c2 f4 3a ed 32 be b9
       -0.005897933 0.006038171 0.0018673749 -0.00036277567
000060 54 6c ac bb a7 5a 11 ba ac 1b 7a bb a2 b5 c6 3b
       -0.005261937 -0.0005544819 -0.0038163466 0.006064133
000070 da 35 ac bb bf d7 db bb 32 74 b6 b8 67 26 02 38
       -0.005255443 -0.0067090685 -8.700079e-05 3.103018e-05
000080 f4 02 24 b8 4e 71 20 38 6b 7d 38 b9 08 7f 85 b9
       -3.9103397e-05 3.8252496e-05 -0.00017594329 -0.00025462382
000090 a3 bb 92 3a 41 60 bc bb d6 d7 90 3b 19 b2 67 3b
       0.0011194836 -0.005748779 0.004420261 0.0035353957
0000a0 be fa 89 bb 26 66 5c bb 06 9a 1d ba 39 f2 82 3b
       -0.004210799 -0.003363022 -0.0006012026 0.0039961603
0000b0 8f cf 8f 3b c9 d0 1d 3b 6a 26 f0 bb cf 3e 8a bb
       0.0043887566 0.0024080744 -0.007328798 -0.004218913
0000c0 36 34 6f bb 9a 78 1f 3a 77 2c b4 bb 0e 12 19 3b
       -0.0036499626 0.00060833397 -0.0054984647 0.0023356709
0000d0 64 0e f1 b9 e6 b0 ec ba ad 73 38 ba 22 5b 68 3a
       -0.00045977824 -0.0018058091 -0.000703628 0.00088636775
0000e0 cf 57 da ba 7c 4c 5b ba 7d 15 9b 3a 66 d9 eb 39
       -0.0016658249 -0.0008365584 0.0011831966 0.00044984667
0000f0 eb b9 f1 3a 33 ef 95 bb a8 ba bf 3b 1d fe 8f 3b
       0.0018442249 -0.004575634 0.0058511086 0.0043943063
000100 58 b4 91 bb 88 a1 f2 ba 6c b2 d6 37 f5 07 09 b7
       -0.0044465475 -0.0018511275 2.5593872e-05 -8.167689e-06
000110 aa 07 09 38 e4 e7 96 b7 ef 72 40 37 13 84 20 36
       3.2670483e-05 -1.7989376e-05 1.1470852e-05 2.3918735e-06

exp_avg_sq f4 [12, 6]
000000 45 75 01 35 b6 78 da 35 56 b2 a4 35 8e 06 1a 35
       4.8226894e-07 1.6277397e-06 1.2270855e-06 5.737901e-07
000010 a5 16 ff 33 29 2b f2 32 ab 60 75 35 ea d0 3f 37
       1.1878482e-07 2.8192135e-08 9.141028e-07 1.1433129e-05
000020 73 6a 1d 37 e8 64 9b 36 9a bc 9c 36 c3 61 43 35
       9.382714e-06 4.631107e-06 4.6711184e-06 7.2785423e-07
000030 02 e3 7e 36 58 09 ba 36 00 64 1f 37 b7 15 a9 36
       3.7981085e-06 5.5443197e-06 9.500422e-06 5.0391204e-06
000040 df 4f 83 34 bd 1c be 35 5b d2 0b 35 fe 9b 61 37
       2.4458765e-07 1.4164467e-06 5.208764e-07 1.3447365e-05
000050 f0 0f df 35 aa 38 c2 35 c2 3c 14 34 97 58 27 34
       1.6619433e-06 1.4470618e-06 1.3805678e-07 1.5585316e-07
000060 8f fd d1 35 e8 af 95 32 ab d1 55 35 a8 c8 0f 36
       1.5645509e-06 1.7425876e-08 7.965379e-07 2.1425458e-06
000070 e7 c0 e2 35 55 6c 30 36 5c 1f 27 32 30 36 f0 31
       1.6894454e-06 2.6289101e-06 9.72781e-09 6.9910797e-09
000080 df 60 41 33 6f ab a2 32 90 18 17 33 4d fc 2f 32
       4.5024418e-08 1.8937241e-08 3.5179767e-08 1.0243707e-08
000090 2c 8f f0 33 e6 ae b2 35 44 73 98 35 bc 43 09 35
       1.1201914e-07 1.3312936e-06 1.1358429e-06 5.1135044e-07
0000a0 99 5b 92 35 b6 9a 23 35 d8 a5 57 33 47 30 85 35
       1.0904506e-06 6.0947366e-07 5.0209422e-08 9.923323e-07
0000b0 32 60 7e 35 af b4 d7 34 d2 c7 1d 36 3a cc 3e 35
       9.4762356e-07 4.0178335e-07 2.3511134e-06 7.1077704e-07
0000c0 c9 1b 29 35 08 7a 52 34 d6 32 b6 35 07 04 9a 34
       6.299784e-07 1.9602169e-07 1.3574852e-06 2.8687666e-07
0000d0 f4 d7 6b 33 a1 e3 77 34 45 1f 98 33 cd 80 e8 33
       5.491161e-08 2.3086479e-07 7.0837395e-08 1.08267706e-07
0000e0 45 e8 ac 34 93 09 bf 33 0f bf 01 34 ef 30 bd 32
       3.2206495e-07 8.895872e-08 1.2083568e-07 2.2024748e-08
0000f0 be 77 39 34 24 a9 44 35 6d 58 d7 35 ad 90 38 35
       1.727303e-07 7.326182e-07 1.6044484e-06 6.875587e-07
000100 fd 77 9a 35 78 fe 4c 34 4b cc 27 31 39 f9 3d 31
       1.1508815e-06 1.9091556e-07 2.4417826e-09 2.7644786e-09
000110 17 90 c2 31 6c 4d b6 30 2c 5b 47 30 d4 43 b0 2f
       5.6625242e-09 1.3264247e-09 7.252534e-10 3.2062408e-10

exp_avg f4 [12]
000000 3e a8 a9 bb 77 c8 70 bc 53 82 36 bc ad d7 66 bc
       -0.0051775267 -0.014696232 -0.01113947 -0.014089507
000010 d6 f2 f2 bb ce 25 c9 b8 cf b4 d5 bb 72 c6 95 ba
       -0.007414202 -9.5914686e-05 -0.006521798 -0.0011426939
000020 2c 56 14 bb 36 62 98 3a d9 df b9 bb ee e8 04 38
       -0.002263437 0.0011625949 -0.0056724367 3.1688185e-05

exp_avg_sq f4 [12]
000000 63 f1 ad 35 00 7f 67 37 9d 9c 26 37 2e de 1c 37
       1.2959757e-06 1.3798242e-05 9.930835e-06 9.350055e-06
000010 b4 6c 4a 36 ea e7 b3 32 33 67 ef 35 b8 b6 0a 34
       3.016362e-06 2.0943805e-08 1.7836923e-06 1.2918724e-07
000020 96 c8 b6 34 1b 6d 24 34 8f 28 97 35 a3 39 52 31
       3.4046087e-07 1.5313383e-07 1.1262181e-06 3.0591785e-09

exp_avg f4 [4, 12]
000000 96 7f 39 bc 20 f4 48 bc 59 7d 36 3b b5 20 b1 3b
       -0.011321923 -0.012265235 0.002784571 0.0054055103
000010 3e 23 a9 ba fb 69 4a bb fe 73 cd bb 6d dd 35 bc
       -0.001290418 -0.0030885923 -0.006269931 -0.011100155
000020 9d 44 3e 3b 7d 75 b7 ba 59 23 72 bb 1a f5 8d 38
       0.0029032596 -0.0013996806 -0.0036947338 6.769058e-05
000030 44 13 61 ba 8e 55 a5 bb 99 3e 81 3c db 5e 80 3b
       -0.00085859396 -0.0050455993 0.01577692 0.0039175577
000040 24 c9 ac 3b 0d e4 63 3b ce 23 0e 3b ed 55 35 3c
       0.0052730013 0.003477338 0.0021688822 0.01106785
000050 47 b6 8a 3c e1 25 99 39 72 87 09 bb 3f a6 31 39
       0.01693262 0.00029210656 -0.0020985273 0.00016941967
000060 4e ec 0f bb da 9e 16 bc a8 7b 40 3c 81 20 51 bb
       -0.0021960917 -0.009193147 0.011748232 -0.0031910243
000070 57 f4 8c 3b 28 1e 01 3b d4 22 1e bb 13 64 4d bb
       0.0043015885 0.0019701812 -0.0024129646 -0.0031340166
000080 d3 49 27 3c ef 63 a4 b9 63 a0 c8 bb 22 b0 35 39
       0.010210472 -0.00031354974 -0.006122635 0.0001732712
000090 0b 79 62 bb b6 ea fb bb 2b e5 01 bc 10 c7 a8 bb
       -0.003455701 -0.007687892 -0.007928173 -0.005150683
0000a0 11 a6 89 ba e5 3f 67 ba bb 43 0c bb 74 06 62 bc
       -0.0010501762 -0.0008821472 -0.0021402675 -0.013795484
0000b0 32 f8 cf bb 1f b9 61 b9 a7 52 02 bb 60 f7 3e 37
       -0.006346726 -0.00021526635 -0.001988569 1.1382479e-05

exp_avg_sq f4 [4, 12]
000000 18 8c 04 37 5d f5 2d 37 88 6d e8 34 9b 51 93 35
       7.900431e-06 1.0368732e-05 4.3293062e-07 1.0976104e-06
000010 42 8d 87 33 be 33 6b 35 44 81 e7 35 9b e6 0b 37
       6.312122e-08 8.7619617e-07 1.7248462e-06 8.338738e-06
000020 04 10 23 35 6a 9c 52 35 9c cf f4 34 8b 25 04 30
       6.074554e-07 7.845871e-07 4.5599597e-07 4.807467e-10
000030 0e a4 4d 34 b1 86 06 36 9a a9 8c 37 6a 85 74 35
       1.9151796e-07 2.0045957e-06 1.6768277e-05 9.1091226e-07
000040 30 ad b4 35 38 3c b8 35 7b a9 0c 35 e2 2f 32 37
       1.3461449e-06 1.3726594e-06 5.240069e-07 1.0620775e-05
000050 94 cf a1 37 88 0e c7 32 54 60 4f 34 ba 83 21 32
       1.9289357e-05 2.3173257e-08 1.9313421e-07 9.401385e-09
000060 a7 45 6e 34 ea 65 3e 36 90 6d 47 37 0c 14 a9 34
       2.2190817e-07 2.8371528e-06 1.1886834e-05 3.149329e-07
000070 b3 cf 61 35 72 fd f0 34 1e 10 a4 34 5a f5 0a 36
       8.4121274e-07 4.488789e-07 3.0559107e-07 2.0706416e-06
000080 b2 1c 0e 37 ec 64 61 33 99 e8 a2 35 a4 8a f2 31
       8.470541e-06 5.2478683e-08 1.2137635e-06 7.0588886e-09
000090 e0 53 42 35 37 97 80 36 31 10 83 36 ba 8e b2 35
       7.2392686e-07 3.832301e-06 3.905989e-06 1.3303572e-06
0000a0 50 84 9a 33 b3 10 8b 34 fc bd ac 34 4d 5c 96 37
       7.195251e-08 2.5902918e-07 3.2175728e-07 1.7924374e-05
0000b0 75 58 4a 36 b9 82 8f 33 21 af 32 34 6c 3f 97 2f
       3.0151834e-06 6.682735e-08 1.6641253e-07 2.7511804e-10

exp_avg f4 [4]
000000 67 41 10 bc fc 4d 96 3c 92 71 ab bb 61 3d c8 bc
       -0.008804656 0.018347733 -0.0052320445 -0.02444333

exp_avg_sq f4 [4]
000000 4e ec 7e 37 99 fc 15 38 f2 a7 06 37 55 ee 7b 38
       1.5194599e-05 3.575962e-05 8.026125e-06 6.0065027e-05

exp_avg f4 [12, 4]
000000 36 e9 fc 3b c6 f3 6f 3c 21 07 83 37 d7 c6 bf bb
       0.0077182306 0.014645522 1.5619737e-05 -0.005852561
000010 66 a8 94 b9 e8 70 87 3b 4e ca 1e 3a 6d b1 b6 ba
       -0.00028354226 0.0041333325 0.00060573674 -0.0013938375
000020 d8 ed 87 bc cd 82 2d 3d 66 ab 80 bc bc ff 24 bd
       -0.016592905 0.04236107 -0.01570673 -0.04028295
000030 44 72 53 3c 2e 93 15 bc c6 85 fd 3b 19 7c 5b 3c
       0.012905661 -0.009129329 0.0077368943 0.013396286
000040 00 00 00 00 00 00 00 00 00 00 00 00 00 00 00 00
       0.0 0.0 0.0 0.0
000050 17 10 d9 3a 89 8a 80 b9 d6 47 79 3a 7d dd 0c 3b
       0.0016560581 -0.0002451728 0.00095093006 0.0021494322
000060 00 00 00 00 00 00 00 00 00 00 00 00 00 00 00 00
       0.0 0.0 0.0 0.0
000070 4a 8e 59 bc 33 4d 8b 3b cb ae 25 bc 0a 85 a5 bc
       -0.013278553 0.004251146 -0.010112475 -0.02020504
000080 00 00 00 00 00 00 00 00 00 00 00 00 00 00 00 00
       0.0 0.0 0.0 0.0
000090 06 27 28 3a f2 16 97 3b 2f fb cd 3a 7f 57 b9 ba
       0.00064145064 0.0046108896 0.0015715117 -0.0014140456
0000a0 7d a2 b8 bb 83 6f 6d b9 54 c2 af bb 13 9c 81 bb
       -0.0056346045 -0.00022643623 -0.005363742 -0.003955373
0000b0 07 a0 26 bb 01 6b 69 3c 4e ad 35 bc 7c eb 98 bc
       -0.0025424974 0.014246703 -0.011088682 -0.018666975

exp_avg_sq f4 [12, 4]
000000 34 09 62 36 5a d5 26 37 43 9b ef 33 41 ba b5 35
       3.3681981e-06 9.944046e-06 1.1157547e-07 1.3539758e-06
000010 d2 50 47 31 29 90 1d 35 1c 36 15 32 18 54 91 33
       2.9004252e-09 5.869684e-07 8.6852445e-09 6.767385e-08
000020 52 f5 66 37 ba 50 f6 38 7b 2d de 37 d1 d6 b1 38
       1.3766186e-05 0.000117452306 2.648564e-05 8.4800304e-05
000030 c8 be 2c 37 72 36 2e 37 06 f8 0a 37 ed 24 8a 37
       1.0296419e-05 1.0383885e-05 8.283188e-06 1.6468077e-05
000040 00 00 00 00 00 00 00 00 00 00 00 00 00 00 00 00
       0.0 0.0 0.0 0.0
000050 41 c6 02 34 5d 74 22 31 80 dc 39 33 2f dd 81 34
       1.2179318e-07 2.3640248e-09 4.3274213e-08 2.4189055e-07
000060 00 00 00 00 00 00 00 00 00 00 00 00 00 00 00 00
       0.0 0.0 0.0 0.0
000070 e2 83 f2 36 d3 67 aa 35 ea e7 81 36 de 32 7d 37
       7.227515e-06 1.2696204e-06 3.871498e-06 1.5091819e-05
000080 00 00 00 00 00 00 00 00 00 00 00 00 00 00 00 00
       0.0 0.0 0.0 0.0
000090 87 39 98 32 15 8b 51 35 f2 ae ac 33 8c 39 da 33
       1.772129e-08 7.806096e-07 8.0411965e-08 1.0161884e-07
0000a0 f3 42 82 35 f7 97 b5 36 58 2b 04 36 ed 67 4c 36
       9.70524e-07 5.4119114e-06 1.9694762e-06 3.0458862e-06
0000b0 62 36 50 35 81 e1 0b 37 ec 22 ad 36 3c ec 55 37
       7.7565176e-07 8.33755e-06 5.159867e-06 1.2750792e-05

exp_avg f4 [12]
000000 8c 91 a4 bc 52 b6 70 bb 9b 21 bc bd 29 86 d1 3c
       -0.020088933 -0.0036729765 -0.09186097 0.025576668
000010 00 00 00 00 a7 e0 ef 3a 00 00 00 00 76 cd dc bc
       0.0 0.0018301205 0.0 -0.02695344
000020 00 00 00 00 69 27 be bb 0e 07 ca bb b4 d8 1e bd
       0.0 -0.005803038 -0.0061653918 -0.038780883

exp_avg_sq f4 [12]
000000 13 ad bb 37 15 c5 2a 35 0b 2a 7d 3a 39 87 2b 39
       2.2372731e-05 6.361673e-07 0.0009657449 0.00016358205
000010 00 00 00 00 8a e4 5c 34 00 00 00 00 8c f9 f8 37
       0.0 2.0572239e-07 0.0 2.9680108e-05
000020 00 00 00 00 36 be f4 35 e2 7b 5f 38 ae e4 9d 38
       0.0 1.8234775e-06 5.3282718e-05 7.528938e-05

exp_avg f4 [6, 12]
000000 b2 05 8d 3a 75 b7 54 bb 19 1d 8f 3c 24 ef 8f 38
       0.0010759144 -0.0032457982 0.01746993 6.863315e-05
000010 00 00 00 00 b1 b6 23 3a 00 00 00 00 65 d6 47 3d
       0.0 0.00062451797 0.0 0.048788447
000020 00 00 00 00 98 57 1d bc 77 ac 87 3c 22 92 43 3c
       0.0 -0.0096034035 0.01656173 0.011936696
000030 c0 fd b0 bd 82 1f 6a 3a 68 77 90 bd 88 d9 8d bd
       -0.08642149 0.00089310866 -0.07054025 -0.069262564
000040 00 00 00 00 a4 ac fa 36 00 00 00 00 ab e4 ba bd
       0.0 7.4706786e-06 0.0 -0.09125646
000050 00 00 00 00 4e c6 6c bc 8a c0 93 bd 51 5b 88 bd
       0.0 -0.014451576 -0.07214458 -0.06658042
000060 07 e3 99 bc 7b 1d 8f ba 9f 22 12 3c 82 25 06 bc
       -0.018785013 -0.001091882 0.008919387 -0.0081876535
000070 00 00 00 00 22 7f 6c 3a 00 00 00 00 3c fb 0d 3d
       0.0 0.000902163 0.0 0.034663424
000080 00 00 00 00 c0 2b 36 bc 19 e2 08 3a 38 f3 c0 bb
       0.0 -0.011118829 0.00052216795 -0.005888369
000090 46 67 e4 3c ce ab fd 3a 0e bc d2 3c 00 fe ca 3c
       0.027881276 0.001935357 0.025724437 0.02477932
0000a0 00 00 00 00 8e 78 a8 39 00 00 00 00 8a 1f 19 3d
       0.0 0.00032133277 0.0 0.037383594
0000b0 00 00 00 00 a4 bc 07 3c f8 ae c1 3c 02 24 d8 3c
       0.0 0.0082847215 0.023643002 0.026384357
0000c0 78 3c e2 bb 9a ea 6d bb b5 e7 a5 bc 94 b7 87 bc
       -0.006904181 -0.0036303164 -0.020252088 -0.016567029
0000d0 00 00 00 00 e9 02 7b ba 00 00 00 00 8e 4f e6 bc
       0.0 -0.0009575324 0.0 -0.028114107
0000e0 00 00 00 00 c5 33 9b bb 8d e0 16 bc 37 8a c3 bb
       0.0 -0.004736396 -0.0092088105 -0.005967404
0000f0 1a 1f a8 bc 0b 63 69 bb 64 49 df bc e3 e2 c7 bc
       -0.020522643 -0.0035612013 -0.027256675 -0.02440018
000100 00 00 00 00 fd af e4 b9 00 00 00 00 84 3b e3 bc
       0.0 -0.0004361867 0.0 -0.02773834
000110 00 00 00 00 5a c2 fa bb b3 28 84 bc 31 dc 7f bc
       0.0 -0.007652563 -0.016132688 -0.015616463

exp_avg_sq f4 [6, 12]
000000 e0 8a 9c 37 b6 40 83 34 0a a8 97 37 0b ff d6 37
       1.8661318e-05 2.4447735e-07 1.8078852e-05 2.5629552e-05
000010 00 00 00 00 ca 97 3e 32 00 00 00 00 a3 d5 1c 39
       0.0 1.1093968e-08 0.0 0.00014956905
000020 00 00 00 00 d5 7b 41 36 1b a5 49 38 fb 12 75 37
       0.0 2.883132e-06 4.80759e-05 1.4607557e-05
000030 77 65 2e 3a e6 83 b1 32 63 d3 82 39 b9 2e 29 3a
       0.00066526927 2.0665492e-08 0.00024953028 0.00064538006
000040 00 00 00 00 75 ca 09 2e 00 00 00 00 5c 91 47 3a
       0.0 3.133001e-11 0.0 0.0007612908
000050 00 00 00 00 7c fd 08 37 f0 09 2d 3a 6d 7f 93 39
       0.0 8.165251e-06 0.0006600907 0.00028132965
000060 7a 30 83 37 78 bb 25 33 df 5e 86 36 fd b7 9e 36
       1.563899e-05 3.8587558e-08 4.0045556e-06 4.730186e-06
000070 00 00 00 00 4f 40 cc 32 00 00 00 00 95 4b 6d 38
       0.0 2.377797e-08 0.0 5.6575594e-05
000080 00 00 00 00 e2 ba ae 36 c3 38 49 36 9b ad 3f 36
       0.0 5.20736e-06 2.9984374e-06 2.856227e-06
000090 ac c9 2f 39 e3 4a ec 33 d5 12 7e 38 7f 2e 44 39
       0.00016764429 1.1003228e-07 6.0575858e-05 0.00018709338
0000a0 00 00 00 00 f5 f5 71 31 00 00 00 00 2a cb 77 39
       0.0 3.5209926e-09 0.0 0.0002363144
0000b0 00 00 00 00 88 8b 86 36 bd c8 41 39 37 c2 ae 38
       0.0 4.009755e-06 0.00018480695 8.333142e-05
0000c0 0d c9 4e 38 cb 55 bd 34 b4 62 d8 37 a2 29 97 38
       4.930147e-05 3.5266416e-07 2.5795169e-05 7.207996e-05
0000d0 00 00 00 00 91 ac e1 32 00 00 00 00 65 ae bc 38
       0.0 2.6271922e-08 0.0 8.997022e-05
0000e0 00 00 00 00 92 b1 d3 35 99 6d 74 38 ee b0 9c 37
       0.0 1.5772405e-06 5.8276204e-05 1.8679038e-05
0000f0 c2 f8 f5 38 0a 3b c0 34 4e 47 55 38 15 c2 18 39
       0.00011728845 3.5805743e-07 5.0849565e-05 0.00014568151
000100 00 00 00 00 29 cd b8 31 00 00 00 00 23 ed 06 39
       0.0 5.378429e-09 0.0 0.00012867576
000110 00 00 00 00 d9 2f 6d 36 42 e8 f9 38 58 5e 34 38
       0.0 3.5343603e-06 0.000119165066 4.300321e-05

exp_avg f4 [6]
000000 63 20 37 3d 6b 93 3f be 71 c6 29 3c 72 65 8f 3d
       0.04470862 -0.18708579 0.0103622535 0.07001771
000010 5d d0 1a bd e6 38 5f bd
       -0.037796367 -0.054497622

exp_avg_sq f4 [6]
000000 80 df 91 39 51 62 67 3b 19 90 d8 37 a0 53 88 3a
       0.00027823076 0.0035306404 2.5816307e-05 0.0010400899
000010 88 97 b2 39 85 75 2d 3a
       0.00034063705 0.0006616938
