lightning_logs/version_50/checkpoints/epoch=9-step=80.ckpt (torch, 15411 bytes, 24 tensors)

encoder.layers.0.linear.weight f4 [12, 8]
0	0x3ebc1b84	0.36739743
1	0xbea98d7d	-0.3311576
2	0xbc06972f	-0.008214756
3	0xbe979afd	-0.29610434
4	0xbd99a63a	-0.07502408
5	0xbececa4f	-0.40388724
6	0x3c1920ac	0.0093461685
7	0x3e3966db	0.18105642
8	0xbc5b167b	-0.013372059
9	0x3c5d2140	0.013496697
10	0xbe8110a9	-0.25208023
11	0x3ec00c2e	0.37509292
12	0xbe910247	-0.2832205
13	0x3df5e485	0.12006477
14	0x3dd9cfd3	0.106353424
15	0xbe76ad5f	-0.24089573
16	0xbe0bc876	-0.13650689
17	0xbe9788c4	-0.2959653
18	0x3eb07bd7	0.34469482
19	0x3da427e6	0.080154225
20	0x3dc8f2ff	0.09811973
21	0xbea82a7c	-0.32844913
22	0x3e8e43a1	0.27785972
23	0xbcc631ed	-0.024193728
24	0xbe69908b	-0.22809045
25	0xbe4744f9	-0.19459905
26	0xbe05f7c7	-0.13082801
27	0x3eaa940a	0.3331607
28	0xbe8e1a2d	-0.27754346
29	0x3ea87469	0.32901314
30	0x3d8229c7	0.06355625
31	0xbeb99ead	-0.36253873
32	0x3df137e9	0.11778242
33	0x3ecf427d	0.40480414
34	0x3d62dee3	0.055388343
35	0xbe876d9b	-0.2645081
36	0x3e75fc6f	0.24022077
37	0xbe778357	-0.24171196
38	0x3e550509	0.20802702
39	0xbe3caea5	-0.18425997
40	0x3dcf9147	0.10135131
41	0xbecc0361	-0.39846328
42	0x3b41fe0b	0.0029600884
43	0xbd8c1223	-0.06839397
44	0xbe9f7152	-0.31141144
45	0xbcaaea14	-0.02086357
46	0x3d5faf6b	0.05461065
47	0x3e37e3ea	0.17958036
48	0xbcf4f136	-0.029900175
49	0xbe7aba41	-0.24485113
50	0xbe4a0d7a	-0.19731703
51	0xbc5959a2	-0.013265999
52	0xbd882f0a	-0.06649597
53	0x3dc47796	0.09593122
54	0xbe6d33f6	-0.23164353
55	0xbe71c41c	-0.23609966
56	0x3da9007b	0.08252045
57	0xbe9e5eac	-0.30931604
58	0xbe98612e	-0.29761642
59	0xbdc164c6	-0.09443049
60	0xbd571d0b	-0.052517932
61	0x3dd8fd8c	0.10595235
62	0x3e9763e8	0.2956841
63	0xbdb13b56	-0.086538956
64	0xbdcb3425	-0.09922055
65	0xbdd768eb	-0.105180584
66	0xbdf6387e	-0.12022494
67	0xbed300a8	-0.41211438
68	0x3eb5be49	0.3549674
69	0x3e9ff949	0.31244877
70	0xbe820c00	-0.2539978
71	0xbd912387	-0.070868544
72	0x3d246675	0.040136773
73	0xbd96ea32	-0.07368888
74	0xbd7319e3	-0.05935086
75	0x3ea42c57	0.3206508
76	0xbe95dd30	-0.29270315
77	0x3ecaac82	0.39584738
78	0xbd65292a	-0.05594746
79	0xbed0fa9a	-0.40816194
80	0xbd1ff3a9	-0.03905073
81	0xbe7150e4	-0.23566014
82	0x3ed83fa1	0.42236045
83	0xbe2f407a	-0.1711444
84	0x3e9149c3	0.28376588
85	0xbc579867	-0.013158894
86	0x3ebdb088	0.37048745
87	0xbe73d0a5	-0.2381006
88	0x3e2af713	0.16695814
89	0xbdd89505	-0.10575298
90	0xbdb76384	-0.08954528
91	0x3ec11522	0.37711436
92	0xbe73c786	-0.23806581
93	0x3df7fec9	0.12109143
94	0xbe1bb4c1	-0.15205671
95	0xbe89a19a	-0.26881105

encoder.layers.0.linear.bias f4 [12]
0	0x3de0b97f	0.109728806
1	0xbc8a6105	-0.016891966
2	0x3e9c9fb8	0.30590606
3	0xbd4c8cf6	-0.04993912
4	0x3df7af3a	0.12093969
5	0x3e8bb5bd	0.27287093
6	0x3da7ca54	0.08192888
7	0xbc7af23a	-0.01531654
8	0xbe7629a9	-0.2403933
9	0x3e63f86c	0.22262734
10	0x3ece94b4	0.40347826
11	0xbccc5159	-0.024941133

encoder.layers.2.linear.weight f4 [4, 12]
0	0x3e037bc6	0.12840185
1	0xbe794652	-0.24343231
2	0x3e950354	0.29104102
3	0xbe97bf21	-0.29638007
4	0x3da66b77	0.08125966
5	0x3e659238	0.2241906
6	0xbe88cfb2	-0.2672096
7	0x3c3708c1	0.011171521
8	0xbe3a7506	-0.18208703
9	0xbe944ef8	-0.28966498
10	0xbd6e336b	-0.058154505
11	0xbe952db9	-0.29136446
12	0x3cc9af37	0.024619682
13	0x3e1033de	0.14082286
14	0xbd8eacb6	-0.06966536
15	0xba16dcdf	-0.0005754958
16	0x3e591718	0.21200216
17	0x3bb35358	0.005472582
18	0xbe537d2f	-0.20653223
19	0xbd33621e	-0.043794744
20	0x3eb2d72f	0.34929797
21	0xbe584e05	-0.21123512
22	0x3e709db6	0.23497662
23	0x3e2f8e5f	0.17144154
24	0xbd2674a8	-0.040638596
25	0x3e12924e	0.14313623
26	0x3d859c03	0.065238975
27	0xbb84fbc3	-0.0040583326
28	0x3e2eb222	0.1706014
29	0xbe35258b	-0.17690103
30	0xbe3b2c2a	-0.18278566
31	0xbe6733ee	-0.22578403
32	0xbe02e6b0	-0.12783313
33	0x3e7d2358	0.24720514
34	0x3de58df8	0.11208719
35	0x3e313424	0.17305046
36	0x3e73d06a	0.23809972
37	0xbe15146d	-0.14558573
38	0x3d6d3197	0.05790862
39	0xbd1fb8a9	-0.038994465
40	0x3e760ce6	0.24028358
41	0xbdc002c3	-0.09375527
42	0x3e08fbba	0.13377276
43	0xbe7b6cc5	-0.24553211
44	0xbea9ae02	-0.3314057
45	0x3ddf52b7	0.109044485
46	0xbadd9706	-0.001690597
47	0xbceee064	-0.029159732

encoder.layers.2.linear.bias f4 [4]
0	0xbe8b4862	-0.2720366
1	0xbe0caebe	-0.13738534
2	0x3e2ce412	0.16883877
3	0xbdab95f4	-0.08378211

decoder.layers.0.linear.weight f4 [12, 4]
0	0xbe1c41b8	-0.15259445
1	0x3e032548	0.1280719
2	0xbef93256	-0.48671216
3	0x3ed0b032	0.40759426
4	0xbe62be40	-0.22142887
5	0x3e1ceb7b	0.15324204
6	0xbebe06bc	-0.37114513
7	0xbe5a92a0	-0.21344995
8	0xbebd9404	-0.3702699
9	0x3e75afe0	0.23992872
10	0xbda03a80	-0.07823658
11	0xbed97bd6	-0.42477292
12	0xbdc89898	-0.0979473
13	0x3c9b2c80	0.018942118
14	0x3e8048a0	0.25055408
15	0x3e597604	0.21236426
16	0x3ebfe26c	0.37477434
17	0x3e09c92f	0.13455652
18	0xbf01cfe6	-0.5070785
19	0x3f07de52	0.5307361
20	0x3ecdfaf9	0.4023054
21	0x3ea8a78d	0.3294033
22	0x3e854771	0.26031068
23	0x3ebfde0a	0.3747409
24	0xbe24a737	-0.16079412
25	0xbe89e3c1	-0.26931575
26	0xbe9cfb7b	-0.30660614
27	0xbbd4d3ba	-0.0064949663
28	0xbd195430	-0.037433803
29	0xbe09fc84	-0.13475233
30	0x3ea5cf70	0.32384825
31	0xbefc7c0a	-0.49313384
32	0xbe80bdd8	-0.2514484
33	0x3ec016ba	0.3751734
34	0x3e364f16	0.17803606
35	0xbe29ac05	-0.16569526
36	0xbf028256	-0.50980127
37	0x3a0a84be	0.00052840624
38	0x3e94d116	0.2906577
39	0x3e528335	0.20557864
40	0xbeb61253	-0.35560855
41	0xbe19c393	-0.15016012
42	0x3e5f8b25	0.21830423
43	0xbda9df54	-0.082945496
44	0x3e8ceaf0	0.27522993
45	0xbe4cf524	-0.20015389
46	0x3e4a562c	0.19759434
47	0xbea9c66a	-0.3315919

decoder.layers.0.linear.bias f4 [12]
0	0xbed75f86	-0.42065066
1	0x3d7865c7	0.060643937
2	0xbecfddd4	-0.4059893
3	0xbefd6cbe	-0.49497026
4	0x3e0adf02	0.13561633
5	0xbe177270	-0.14789748
6	0x3e3e0e76	0.18560204
7	0xbe4b99c8	-0.19882882
8	0x3ec2744d	0.37979355
9	0x3d1b14b0	0.037861526
10	0x3ee152a9	0.44008377
11	0xbeb7ad4a	-0.35874397

decoder.layers.2.linear.weight f4 [8, 12]
0	0xbe203ee4	-0.15648991
1	0x3daa40c7	0.083131365
2	0xbe62277e	-0.22085378
3	0xbe7ef4d8	-0.24898088
4	0x3dd99685	0.106244124
5	0x3dfaa260	0.12238002
6	0xbbe0c4f7	-0.0068594175
7	0x3e0031fa	0.12519065
8	0xbe1be8a4	-0.15225464
9	0xbd7cdf0b	-0.061736148
10	0x3e97c5f5	0.29643217
11	0x3d38b680	0.04509592
12	0x3dc9e8b0	0.09858835
13	0xbe6d1c5d	-0.23155351
14	0x3e08a327	0.13343488
15	0x3db3513f	0.08755731
16	0xbe2c5568	-0.16829455
17	0x3e56180a	0.20907608
18	0xbe64eba6	-0.22355518
19	0x3da03974	0.07823458
20	0xbb9acbf7	-0.0047240215
21	0x3e857993	0.26069316
22	0x3e1c35ff	0.15254973
23	0xbe585096	-0.21124491
24	0x3ca335af	0.01992306
25	0xbe372c05	-0.17887886
26	0xbe352653	-0.17690401
27	0xbe099af7	-0.1343802
28	0x3d6360bf	0.055512186
29	0x3e893f08	0.26805902
30	0xbe0a59d6	-0.13510832
31	0xbd5f1d68	-0.054471403
32	0x3ddad60e	0.10685359
33	0x3df881be	0.12134121
34	0x3cd1682d	0.02556237
35	0x3dbe20af	0.09283578
36	0xbe0f1809	-0.13974012
37	0xbe87e09b	-0.26538548
38	0x3d9ae8ac	0.0756391
39	0xbe388871	-0.18020798
40	0xbe120d5d	-0.1426291
41	0x3d7cfaec	0.061762735
42	0xbde10bc2	-0.10988571
43	0xbda07dec	-0.07836518
44	0xbe8db173	-0.27674446
45	0xbd50530d	-0.050860453
46	0x3e5c5fbc	0.21520895
47	0x3d352d00	0.04423237
48	0xbe37638d	-0.1790907
49	0x3e5de9e1	0.21671249
50	0x3e513dc3	0.20433716
51	0xbe45ad46	-0.1930438
52	0x3dc6d22d	0.097080566
53	0xbd19cceb	-0.03754894
54	0xbe893576	-0.267986
55	0xbcbfaef2	-0.02339885
56	0x3deab288	0.114598334
57	0xbc62f3a6	-0.013852036
58	0x3e4f0a1a	0.20218697
59	0x3db06f03	0.08614924
60	0x3db15974	0.0865964
61	0x3e8ee32f	0.27907702
62	0x3e328f5d	0.17437501
63	0xbe18e91b	-0.14932673
64	0xbeaf1702	-0.3419724
65	0x3dcde532	0.10053481
66	0x3de46a78	0.1115312
67	0x3e56659b	0.20937197
68	0x3da72444	0.08161214
69	0x3e6b8322	0.22999242
70	0xbe4a24e8	-0.19740641
71	0xbe88c58e	-0.26713222
72	0xbe03d72a	-0.12875047
73	0x3dcfcb8f	0.101462476
74	0x3bc72296	0.006077121
75	0x3d48446a	0.04889337
76	0xbe07ca43	-0.1326075
77	0x3b94f008	0.0045452155
78	0x3db1b56c	0.086771816
79	0xbd095472	-0.0335278
80	0x3e319029	0.17340149
81	0xbdf4cf59	-0.11953611
82	0xbe3270cb	-0.1742584
83	0xbd756364	-0.05990924
84	0x3cfae30a	0.030625839
85	0xbd7af48b	-0.06126837
86	0xbe71b2da	-0.23603383
87	0x3e835b13	0.25655422
88	0xbe67b6e4	-0.22628361
89	0x3e2411f9	0.16022481
90	0xbe3444c5	-0.17604358
91	0xbd85a5be	-0.065257534
92	0xbbf42082	-0.0074501643
93	0x3c5522af	0.0130087575
94	0xbd708350	-0.05871898
95	0xbd5a9c01	-0.053371433

decoder.layers.2.linear.bias f4 [8]
0	0xbdc7bcba	-0.097527936
1	0x3e510a2e	0.2041404
2	0xbdd2d172	-0.10293855
3	0xbdde88b3	-0.10865917
4	0x3c9cc7ff	0.019138334
5	0x3c871fc1	0.016494634
6	0x3d1d1ae6	0.03835573
7	0xbd61fc0b	-0.055172008

exp_avg f4 [12, 8]
0	0xba78b91b	-0.0009488032
1	0xb99881fd	-0.00029088548
2	0xbb17d4ed	-0.0023167685
3	0x3ac5aebd	0.0015081983
4	0x3b029d5e	0.0019930224
5	0x3a92cfc2	0.0011200833
6	0xb92afcfc	-0.00016306707
7	0x38f0832a	0.00011468523
8	0x396fdef5	0.00022875874
9	0xbb12b9d1	-0.0022388587
10	0x3a1e27f7	0.0006033177
11	0xb96783fb	-0.00022079043
12	0xb9b1a8a8	-0.0003388573
13	0xb9c634ce	-0.00037804845
14	0xb7f79e8b	-2.9518522e-05
15	0x38b907d7	8.822948e-05
16	0x384e12ea	4.9131842e-05
17	0x3b55dad4	0.0032631652
18	0x3a2ba436	0.00065476017
19	0xba74f037	-0.0009343656
20	0x3a5d1a0c	0.0008434362
21	0x3a0494b5	0.00050575595
22	0xb7d3dc59	-2.5255767e-05
23	0xb8b95745	-8.837743e-05
24	0x37707cd2	1.4334177e-05
25	0xb90cb120	-0.00013417425
26	0x37dd57e3	2.6386178e-05
27	0xb80c49d8	-3.3447373e-05
28	0x35957025	1.1134003e-06
29	0xb8122a76	-3.4848657e-05
30	0xb5bdbb84	-1.4136172e-06
31	0x37d2edfc	2.5144771e-05
32	0xbaeb47c2	-0.0017950463
33	0xbc24ecf4	-0.01006626
34	0xbba7a5a1	-0.00511618
35	0x3b93f5ef	0.0045154016
36	0x3af55e14	0.0018720054
37	0x3a70cf14	0.00091861305
38	0xb9ae2300	-0.00033213943
39	0xb99df24b	-0.00030125896
40	0x3a19cec8	0.00058672996
41	0x3b126ec6	0.0022343858
42	0x3a9744e5	0.0011540918
43	0xb9e4b033	-0.00043618827
44	0xb9593f81	-0.0002071839
45	0x39a26708	0.00030975812
46	0xb9654d69	-0.0002186798
47	0x391f6590	0.00015201257
48	0xb8756aeb	-5.8512127e-05
49	0xb87dbaa4	-6.0493723e-05
50	0x378f2b1b	1.7067001e-05
51	0x38888a6e	6.51077e-05
52	0x37eb9440	2.8083217e-05
53	0xb8739ae7	-5.807998e-05
54	0xb5ee0680	-1.7734274e-06
55	0x387bc725	6.002853e-05
56	0x38a36ff1	7.7932964e-05
57	0xb842d981	-4.645577e-05
58	0x39937ba1	0.00028130136
59	0x3a19051a	0.0005837247
60	0xb95fd168	-0.00021344947
61	0xb8631504	-5.414059e-05
62	0xb802174a	-3.1016105e-05
63	0xb74a10c1	-1.2044039e-05
64	0x3a61d32e	0.0008614537
65	0xbb2a6e18	-0.0026005562
66	0x3b0cf069	0.00215056
67	0x3b5c4c64	0.0033614868
68	0xbb25f18a	-0.002532097
69	0xba69a531	-0.000891286
70	0xb93b85dc	-0.00017883576
71	0xb94deb13	-0.00019637895
72	0xb9c53705	-0.0003761576
73	0xbc2033c5	-0.009777968
74	0xba896c88	-0.0010484615
75	0x3726ab9e	9.934329e-06
76	0xb8429bbb	-4.639824e-05
77	0xba7cabec	-0.00096386555
78	0x39acb626	0.00032942108
79	0x3a0bf473	0.0005338855
80	0xba78a619	-0.00094851997
81	0xbbed15f5	-0.0072352835
82	0xbb4c4bc5	-0.0031173092
83	0x3b6d8004	0.0036239633
84	0x38c87f7a	9.5604875e-05
85	0xb78d443a	-1.684028e-05
86	0xb9b02826	-0.0003359925
87	0xb91665ab	-0.00014342989
88	0xb7c69d7b	-2.3676772e-05
89	0xb9fe3fef	-0.0004849429
90	0x380f04e8	3.4098426e-05
91	0xb906c3f4	-0.00012852234
92	0x36dbd7f2	6.551848e-06
93	0xb8821768	-6.203243e-05
94	0x387f913f	6.093201e-05
95	0x38732a85	5.7975314e-05

exp_avg_sq f4 [12, 8]
0	0x32b0d394	2.0585311e-08
1	0x31c20b7d	5.647449e-09
2	0x34081c07	1.2676183e-07
3	0x3355e471	4.9800693e-08
4	0x33db3f8a	1.020954e-07
5	0x338dda1d	6.605499e-08
6	0x317288fe	3.5293506e-09
7	0x3128181e	2.4460927e-09
8	0x30c5a88f	1.4381544e-09
9	0x33f3e38b	1.1356959e-07
10	0x3214c222	8.6588745e-09
11	0x30f1a327	1.7581429e-09
12	0x31776e9c	3.6006105e-09
13	0x316a9a8a	3.4139327e-09
14	0x2ff196db	4.3944834e-10
15	0x3007fbc0	4.947047e-10
16	0x331607bd	3.4931634e-08
17	0x34d39d9a	3.9416483e-07
18	0x340bbbea	1.3013747e-07
19	0x33a56128	7.701084e-08
20	0x340f7e99	1.3363969e-07
21	0x3304bb3c	3.0903934e-08
22	0x319fb1a8	4.647706e-09
23	0x3129d515	2.471386e-09
24	0x2dfc8cbf	2.8711587e-11
25	0x30907551	1.0510722e-09
26	0x2e6a6261	5.3292818e-11
27	0x2eb86a95	8.386284e-11
28	0x2d175b9a	8.603696e-12
29	0x2ef7e1e3	1.1272385e-10
30	0x2cb4b415	5.135901e-12
31	0x2e194f4b	3.48586e-11
32	0x33fdb64d	1.1814391e-07
33	0x36b7a724	5.4732827e-06
34	0x357f652a	9.5142116e-07
35	0x357efee8	9.499331e-07
36	0x3414dbce	1.3863539e-07
37	0x33034647	3.056473e-08
38	0x31f58516	7.1455686e-09
39	0x322ae3cc	9.947097e-09
40	0x329e1dca	1.8407167e-08
41	0x345fc2e9	2.0839401e-07
42	0x338c15cb	6.523222e-08
43	0x32eb9ff3	2.7430337e-08
44	0x3337342a	4.265545e-08
45	0x32aff95c	2.0486077e-08
46	0x312dfdde	2.531912e-09
47	0x311f4718	2.3177957e-09
48	0x32399f89	1.0804691e-08
49	0x33cc56a6	9.5152515e-08
50	0x337a9cfd	5.835044e-08
51	0x338c1f96	6.5250035e-08
52	0x33717948	5.622249e-08
53	0x31eb0f84	6.841164e-09
54	0x3013d48c	5.3780336e-10
55	0x308a8a76	1.0080174e-09
56	0x2fda1035	3.9665485e-10
57	0x2f2acc90	1.5534085e-10
58	0x31242437	2.3885727e-09
59	0x323e0cd8	1.1062376e-08
60	0x30d3356b	1.5367453e-09
61	0x2fcf7cb5	3.774169e-10
62	0x301d9b4e	5.733697e-10
63	0x2fa678cf	3.0281064e-10
64	0x3312016e	3.3994574e-08
65	0x345cb7ce	2.0555964e-07
66	0x34407764	1.7924827e-07
67	0x34cafbc0	3.7808604e-07
68	0x347298ca	2.259359e-07
69	0x3304acc5	3.0890778e-08
70	0x318cc0b2	4.096443e-09
71	0x31ab2f2c	4.982118e-09
72	0x3339425a	4.3134015e-08
73	0x3618c345	2.2763427e-06
74	0x34543714	1.9764076e-07
75	0x34113dd4	1.352667e-07
76	0x340aaaa9	1.2914337e-07
77	0x33016af6	3.0132433e-08
78	0x31a2d3bb	4.7388915e-09
79	0x3242ca6f	1.1338314e-08
80	0x32c752ef	2.3204363e-08
81	0x35e88fe4	1.7327225e-06
82	0x348e834e	2.6545098e-07
83	0x34f5f951	4.5816208e-07
84	0x32aa568e	1.9829965e-08
85	0x326fb661	1.3953099e-08
86	0x321fee0e	9.3091455e-09
87	0x31715dc8	3.5123424e-09
88	0x307af96d	9.1303926e-10
89	0x31fdf3a5	7.3909683e-09
90	0x309377bf	1.0729692e-09
91	0x3096d642	1.0974832e-09
92	0x30f65e49	1.7925653e-09
93	0x2f5d3c3d	2.0121234e-10
94	0x2f5db94d	2.0165665e-10
95	0x2f3ecced	1.7353204e-10

exp_avg f4 [12]
0	0xba9620e7	-0.0011453897
1	0xbab1f5bb	-0.0013577262
2	0x3b2c809f	0.0026321781
3	0xb8b07f41	-8.416037e-05
4	0xbc1012d1	-0.008793549
5	0x3acbb90d	0.001554282
6	0xb8dafc84	-0.00010442085
7	0xb9fe620b	-0.00048519703
8	0xbb6555e4	-0.0034993822
9	0xbbd5db9e	-0.0065264245
10	0xbbd47d68	-0.006484676
11	0xb9a3fe18	-0.00031279097

exp_avg_sq f4 [12]
0	0x3301f02e	3.0253595e-08
1	0x3334c15c	4.2085375e-08
2	0x3497c431	2.826869e-07
3	0x2fe7b4ca	4.2147114e-10
4	0x368a09a7	4.113844e-06
5	0x33d0665f	9.704376e-08
6	0x33d91dab	1.01102465e-07
7	0x32048a6d	7.714886e-09
8	0x34d119e9	3.8948136e-07
9	0x358f0dcd	1.0658347e-06
10	0x35be5da6	1.4183358e-06
11	0x318fad8f	4.181579e-09

exp_avg f4 [4, 12]
0	0xbaffce7b	-0.0019516492
1	0x3a116710	0.00055466685
2	0xb96a11fe	-0.00022322682
3	0x37cf9ec6	2.4750258e-05
4	0x3c93bfe9	0.018035846
5	0xbadfe337	-0.0017081265
6	0x3950e9b6	0.0001992349
7	0x38a657eb	7.931873e-05
8	0x3b1aa1ea	0.0023595043
9	0x3afd3312	0.0019317588
10	0x3b80c365	0.003929543
11	0x387fd097	6.0991002e-05
12	0xbb91c10c	-0.004448062
13	0x38a603db	7.916215e-05
14	0xbb8ed22e	-0.0043585515
15	0x37182519	9.0685435e-06
16	0xbc5e7bc7	-0.0135793155
17	0xbb627e45	-0.0034560126
18	0xb98b8302	-0.00026609754
19	0xb9b81a4c	-0.00035114808
20	0xbb317b5a	-0.002708158
21	0xb936a758	-0.00017419213
22	0xbc11342a	-0.008862535
23	0x383297fa	4.2580046e-05
24	0x3ac27af6	0.0014837671
25	0xba2e4fbf	-0.00066494563
26	0xbacd6d8e	-0.0015672909
27	0xb7f1f5ba	-2.8843864e-05
28	0xbcad7bcf	-0.0211772
29	0x3aaba489	0.00130953
30	0x39548263	0.00020266468
31	0x39b97534	0.00035373273
32	0xb8f1b642	-0.00011525724
33	0xbb016d65	-0.0019749042
34	0xbba47b56	-0.0050195856
35	0xb8a8e4c7	-8.053477e-05
36	0xbb8902ac	-0.0041812267
37	0xb99835a6	-0.0002903167
38	0xbb812595	-0.0039412477
39	0xb7b52ca3	-2.1597667e-05
40	0xbc04f888	-0.008115895
41	0xbb5bc224	-0.0033532465
42	0x38f24042	0.00011551428
43	0x392612e9	0.00015838038
44	0x3a417aad	0.0007380646
45	0xba7fea58	-0.0009762398
46	0xbbaf44a6	-0.0053487597
47	0xb829e355	-4.050446e-05

exp_avg_sq f4 [4, 12]
0	0x34cc4846	3.8050547e-07
1	0x31f5ee41	7.157525e-09
2	0x34d576bd	3.9760735e-07
3	0x2e9938dd	6.9677354e-11
4	0x371ace8a	9.227204e-06
5	0x354abe72	7.5528e-07
6	0x323bd93c	1.0934226e-08
7	0x302c91b4	6.278029e-10
8	0x34423425	1.8086628e-07
9	0x33e176ac	1.0498965e-07
10	0x353c2442	7.008822e-07
11	0x2f17818d	1.3779396e-10
12	0x35247c1f	6.127538e-07
13	0x30251d93	6.006868e-10
14	0x35a37109	1.2177344e-06
15	0x2d83422f	1.4922367e-11
16	0x3736e23b	1.0900719e-05
17	0x35269840	6.206137e-07
18	0x32d7b5e2	2.5112005e-08
19	0x3187db8d	3.953977e-09
20	0x3491416e	2.705596e-07
21	0x31f24ab8	7.0516215e-09
22	0x363a9b6a	2.7806623e-06
23	0x2ee062e6	1.02039086e-10
24	0x34815c88	2.4095448e-07
25	0x3247af2c	1.1623154e-08
26	0x3563e26a	8.4893566e-07
27	0x2ee5df33	1.04533625e-10
28	0x3803c2ce	3.141426e-05
29	0x3412d1ff	1.3673706e-07
30	0x328b89e4	1.6244435e-08
31	0x318c738f	4.0876738e-09
32	0x3318589a	3.547084e-08
33	0x33db52c0	1.0213034e-07
34	0x35730200	9.0527465e-07
35	0x2f9559a3	2.7166633e-10
36	0x34f4071c	4.5453714e-07
37	0x315e3f88	3.2341365e-09
38	0x3500b66a	4.7949163e-07
39	0x2ed4855d	9.664334e-11
40	0x360a24ac	2.0584948e-06
41	0x3494f2f4	2.774392e-07
42	0x30b2d832	1.3012651e-09
43	0x31150895	2.1687232e-09
44	0x3281f78f	1.5130153e-08
45	0x3318a785	3.5542616e-08
46	0x352505b2	6.147558e-07
47	0x2f0064c9	1.1677338e-10

exp_avg f4 [4]
0	0x3cc128ad	0.023578966
1	0xbc9b1bd7	-0.018934174
2	0xbcdf2b46	-0.027242314
3	0xbc487599	-0.012235069

exp_avg_sq f4 [4]
0	0x378e0e72	1.6934446e-05
1	0x37e768b3	2.75861e-05
2	0x38898197	6.556807e-05
3	0x36a46cf7	4.900266e-06

exp_avg f4 [12, 4]
0	0x00000000	0.0
1	0x00000000	0.0
2	0x00000000	0.0
3	0x00000000	0.0
4	0x3b05b582	0.0020402377
5	0xbaf6ad35	-0.001881993
6	0xbac87adc	-0.0015295404
7	0x3a2c8235	0.00065806817
8	0x00000000	0.0
9	0x00000000	0.0
10	0x00000000	0.0
11	0x00000000	0.0
12	0x00000000	0.0
13	0x00000000	0.0
14	0x00000000	0.0
15	0x00000000	0.0
16	0xba60b5fa	-0.00085720385
17	0xba44dcfa	-0.0007509735
18	0xbacc6cb5	-0.0015596362
19	0xba964ead	-0.0011467539
20	0xba2d2925	-0.0006605557
21	0xba993464	-0.0011688587
22	0xbb1dca3a	-0.0024076835
23	0xbaba3f8a	-0.001420961
24	0xbc0af60f	-0.0084815165
25	0x3aec3215	0.0018020297
26	0x3c4ee138	0.0126269385
27	0x3b158f6e	0.0022821086
28	0x00000000	0.0
29	0x00000000	0.0
30	0x00000000	0.0
31	0x00000000	0.0
32	0x3a6e0e5d	0.000908112
33	0xbb56f4fd	-0.0032799833
34	0xbb691279	-0.003556399
35	0xba0bb61e	-0.0005329567
36	0x3c2fbf56	0.01072677
37	0xbb3b1b8a	-0.002855035
38	0xbc8f8389	-0.017518776
39	0xbb6a58fc	-0.0035758605
40	0x3b733bee	0.0037114578
41	0x392dfcc3	0.00016592727
42	0xbb86aff5	-0.004110331
43	0xbac1dde8	-0.0014790865
44	0x00000000	0.0
45	0x00000000	0.0
46	0x00000000	0.0
47	0x00000000	0.0

exp_avg_sq f4 [12, 4]
0	0x00000000	0.0
1	0x00000000	0.0
2	0x00000000	0.0
3	0x00000000	0.0
4	0x33d48698	9.896502e-08
5	0x33a60d0d	7.732351e-08
6	0x335f5993	5.20027e-08
7	0x3291e9a1	1.6986464e-08
8	0x00000000	0.0
9	0x00000000	0.0
10	0x00000000	0.0
11	0x00000000	0.0
12	0x00000000	0.0
13	0x00000000	0.0
14	0x00000000	0.0
15	0x00000000	0.0
16	0x3505f3d7	4.9901195e-07
17	0x3589393a	1.022395e-06
18	0x3580d422	9.598482e-07
19	0x33bff819	8.939259e-08
20	0x329c9fc0	1.8233436e-08
21	0x32f72e64	2.877568e-08
22	0x34008a46	1.1971233e-07
23	0x333713d0	4.2626027e-08
24	0x36977d94	4.51477e-06
25	0x36899b4b	4.1009966e-06
26	0x376c42ce	1.408225e-05
27	0x34c92538	3.7466248e-07
28	0x00000000	0.0
29	0x00000000	0.0
30	0x00000000	0.0
31	0x00000000	0.0
32	0x346cf298	2.2067468e-07
33	0x354b7c47	7.580424e-07
34	0x35280a05	6.259946e-07
35	0x3399ed92	7.1678315e-08
36	0x367050be	3.5809785e-06
37	0x3535d7fb	6.774205e-07
38	0x372ff3c7	1.0487572e-05
39	0x3499b02c	2.8626653e-07
40	0x351d58dc	5.8616365e-07
41	0x35992b1d	1.1411936e-06
42	0x352ec94f	6.5112994e-07
43	0x34cb620a	3.788303e-07
44	0x00000000	0.0
45	0x00000000	0.0
46	0x00000000	0.0
47	0x00000000	0.0

exp_avg f4 [12]
0	0x00000000	0.0
1	0xbc00a264	-0.007851217
2	0x00000000	0.0
3	0x00000000	0.0
4	0xbbbb90c3	-0.005724044
5	0xbc093b15	-0.008375903
6	0x3d1ef78d	0.0388103
7	0x00000000	0.0
8	0xbc6b5f71	-0.014366017
9	0xbd65b522	-0.056080945
10	0xbbf76ca7	-0.007550794
11	0x00000000	0.0

exp_avg_sq f4 [12]
0	0x00000000	0.0
1	0x35d4fc57	1.5868671e-06
2	0x00000000	0.0
3	0x00000000	0.0
4	0x3836b0e6	4.355693e-05
5	0x35bc07ad	1.4009325e-06
6	0x39a580c2	0.00031567184
7	0x00000000	0.0
8	0x3791f0b4	1.7397433e-05
9	0x391ddc6e	0.00015054803
10	0x3802b6cb	3.1164655e-05
11	0x00000000	0.0

exp_avg f4 [8, 12]
0	0x00000000	0.0
1	0x3a2004ac	0.0006104212
2	0x00000000	0.0
3	0x00000000	0.0
4	0xbb47a7cd	-0.0030465007
5	0xba7034ca	-0.00091631396
6	0xbb893bb9	-0.0041880277
7	0x00000000	0.0
8	0xbc9f2c41	-0.019430282
9	0xbbcb85a8	-0.0062110014
10	0xbcb69b8d	-0.02229097
11	0x00000000	0.0
12	0x00000000	0.0
13	0xba5e029a	-0.00084690156
14	0x00000000	0.0
15	0x00000000	0.0
16	0xba315c4e	-0.00067657686
17	0xb8c4fac4	-9.392717e-05
18	0xbcc30dd7	-0.02381031
19	0x00000000	0.0
20	0xbdc3b4c7	-0.09555965
21	0xbd338121	-0.04382432
22	0xbde3fddd	-0.11132405
23	0x00000000	0.0
24	0x00000000	0.0
25	0x3ac4183e	0.0014960838
26	0x00000000	0.0
27	0x00000000	0.0
28	0xbbce59a6	-0.006297308
29	0xbaf647d3	-0.0018789716
30	0xbbfc0cb7	-0.0076919454
31	0x00000000	0.0
32	0xbd173a6f	-0.03692096
33	0xbc371679	-0.0111747915
34	0xbd2f8c76	-0.042858563
35	0x00000000	0.0
36	0x00000000	0.0
37	0x3a94929f	0.00113352
38	0x00000000	0.0
39	0x00000000	0.0
40	0x3b9fb660	0.0048740357
41	0x3aad1969	0.0013206425
42	0x3c0f875c	0.0087602995
43	0x00000000	0.0
44	0x3d2c3d8e	0.04205089
45	0x3c480e8a	0.012210498
46	0x3d35ac52	0.04435379
47	0x00000000	0.0
48	0x00000000	0.0
49	0xba96c253	-0.0011502005
50	0x00000000	0.0
51	0x00000000	0.0
52	0x3bb75ab2	0.0055955285
53	0x3ad06074	0.0015897886
54	0x3be7930a	0.007067089
55	0x00000000	0.0
56	0x3ccb0bef	0.024785964
57	0x3c00c65d	0.0078597935
58	0x3cfd5307	0.03092338
59	0x00000000	0.0
60	0x00000000	0.0
61	0xba02d441	-0.0004990735
62	0x00000000	0.0
63	0x00000000	0.0
64	0x3b2bfcec	0.0026243282
65	0x3ab472e6	0.0013767153
66	0xba20a964	-0.0006128757
67	0x00000000	0.0
68	0xb76c3672	-1.4079373e-05
69	0xbac18b71	-0.0014766288
70	0xb931f6c6	-0.00016971966
71	0x00000000	0.0
72	0x00000000	0.0
73	0x389b5111	7.406076e-05
74	0x00000000	0.0
75	0x00000000	0.0
76	0xba4de204	-0.00078538083
77	0xba14946b	-0.0005667868
78	0x3a15a004	0.0005707743
79	0x00000000	0.0
80	0xbac13a49	-0.0014742102
81	0xb945b2ae	-0.00018853947
82	0xba6b2edd	-0.0008971522
83	0x00000000	0.0
84	0x00000000	0.0
85	0xb9ae5485	-0.00033250838
86	0x00000000	0.0
87	0x00000000	0.0
88	0xba8fd120	-0.0010972358
89	0xb9705d2b	-0.00022922891
90	0xbb95c93c	-0.004571108
91	0x00000000	0.0
92	0xbc7821db	-0.0151447905
93	0xbba91f3d	-0.0051611946
94	0xbc9052c5	-0.017617593
95	0x00000000	0.0

exp_avg_sq f4 [8, 12]
0	0x00000000	0.0
1	0x321fd44f	9.3032915e-09
2	0x00000000	0.0
3	0x00000000	0.0
4	0x34e11fb2	4.1932577e-07
5	0x32cd87d0	2.3926901e-08
6	0x374a31d8	1.2051743e-05
7	0x00000000	0.0
8	0x381a28d4	3.6754485e-05
9	0x357d89c1	9.4450303e-07
10	0x38904eb5	6.8811154e-05
11	0x00000000	0.0
12	0x00000000	0.0
13	0x329193c6	1.6947421e-08
14	0x00000000	0.0
15	0x00000000	0.0
16	0x34dee362	4.1516165e-07
17	0x30b76108	1.334258e-09
18	0x393648ff	0.00017384066
19	0x00000000	0.0
20	0x3a384455	0.0007029225
21	0x38672fcd	5.511921e-05
22	0x3a9c4e7b	0.0011925244
23	0x00000000	0.0
24	0x00000000	0.0
25	0x3355351e	4.9641237e-08
26	0x00000000	0.0
27	0x00000000	0.0
28	0x35e49eb7	1.7033516e-06
29	0x33d5f4e7	9.963133e-08
30	0x383a4cf4	4.4417524e-05
31	0x00000000	0.0
32	0x390e12e3	0.00013549211
33	0x3647519d	2.9700816e-06
34	0x3987aa59	0.00025876125
35	0x00000000	0.0
36	0x00000000	0.0
37	0x3305a9cd	3.112091e-08
38	0x00000000	0.0
39	0x00000000	0.0
40	0x35a33cfa	1.2162193e-06
41	0x333913e6	4.3091767e-08
42	0x3831d24f	4.2395954e-05
43	0x00000000	0.0
44	0x391e1659	0.0001507638
45	0x3688e61a	4.079903e-06
46	0x39838703	0.0002508686
47	0x00000000	0.0
48	0x00000000	0.0
49	0x3309a88f	3.20511e-08
50	0x00000000	0.0
51	0x00000000	0.0
52	0x35a4e3a2	1.2285202e-06
53	0x33c0d7b9	8.9799364e-08
54	0x37b0f187	2.1093305e-05
55	0x00000000	0.0
56	0x386101ab	5.3645734e-05
57	0x35c02231	1.4315066e-06
58	0x38ea3870	0.00011168502
59	0x00000000	0.0
60	0x00000000	0.0
61	0x31db7c6a	6.387883e-09
62	0x00000000	0.0
63	0x00000000	0.0
64	0x35335b75	6.6815784e-07
65	0x347ff5e0	2.3838174e-07
66	0x35506506	7.7633047e-07
67	0x00000000	0.0
68	0x361d1d17	2.3411756e-06
69	0x3485718a	2.485579e-07
70	0x36719fba	3.6004772e-06
71	0x00000000	0.0
72	0x00000000	0.0
73	0x2ffa5070	4.553189e-10
74	0x00000000	0.0
75	0x00000000	0.0
76	0x335c93b0	5.1357063e-08
77	0x328798cb	1.578555e-08
78	0x3518b43e	5.68867e-07
79	0x00000000	0.0
80	0x35a6a054	1.2414625e-06
81	0x332e9d11	4.0655383e-08
82	0x361c0851	2.3250652e-06
83	0x00000000	0.0
84	0x00000000	0.0
85	0x31627fbc	3.2959937e-09
86	0x00000000	0.0
87	0x00000000	0.0
88	0x3406808d	1.2526489e-07
89	0x3107fa5d	1.97874e-09
90	0x37511f60	1.2464676e-05
91	0x00000000	0.0
92	0x380e43dd	3.391864e-05
93	0x3589294c	1.0219314e-06
94	0x38851c18	6.347167e-05
95	0x00000000	0.0

exp_avg f4 [8]
0	0xbd3ffca8	-0.04687181
1	0xbe4c1da3	-0.1993318
2	0xbdbb2681	-0.091382034
3	0x3dbc4fff	0.091949455
4	0x3d859f34	0.06524506
5	0x3bac6304	0.005260827
6	0xbb53c490	-0.0032313205
7	0xbd0be7b9	-0.034156535

exp_avg_sq f4 [8]
0	0x39894aa8	0.000261863
1	0x3b8167bf	0.003949135
2	0x3a8342e9	0.0010014448
3	0x3a7b974a	0.0009597434
4	0x39e0c8f8	0.00042874343
5	0x3728b8ee	1.0056638e-05
6	0x36ecfe1e	7.062931e-06
7	0x396502f2	0.00021840239
